final_models/forecast_lstm.pt (torch, 553546 bytes, 20 tensors)

weight f4 [1, 30, 1]
000000 8e f2 ea bc 08 09 07 bd 15 ab fa 3c 56 9c 3a be
       -0.028680112 -0.032967597 0.030599156 -0.182237
000010 1b 07 67 3d bd b1 a3 3d d2 d4 24 3c 4c ac 07 3e
       0.05640326 0.07992885 0.010060506 0.1324932
000020 cc c8 42 3d 48 2a 1c 3e ef 34 05 bd 1d 3e fb bd
       0.047554776 0.15250504 -0.032521185 -0.122677065
000030 3e d1 14 3e 00 2d cf 3d 83 5b e4 3d a1 99 a3 bd
       0.14532945 0.10116005 0.11150267 -0.07988287
000040 f8 46 2e be a0 a3 e3 bc e7 d2 5c 3c 86 e2 01 3d
       -0.1701926 -0.027787983 0.013478017 0.03171017
000050 79 ae 62 3d c8 b0 27 be 7e 66 4c 3d b7 cc 0e be
       0.05534217 -0.1637603 0.04990243 -0.1394528
000060 12 bb 82 3d b0 fb b7 bd 1a 25 12 bc 0f b2 1f be
       0.06383337 -0.089835525 -0.0089199785 -0.15595268
000070 83 82 e7 bd df b2 35 be
       -0.1130419 -0.17744015

weight_ih_l0 f4 [256, 1]
000000 76 11 5d bf 70 70 bb 3f de 22 a2 bf d4 96 bd bf
       -0.8635477 1.4643688 -1.2666891 -1.4811654
000010 db 29 7f bf 26 40 da bf 41 c0 c6 bf 85 8b 76 bf
       -0.9967324 -1.7050827 -1.5527421 -0.9630664
000020 cf 05 21 c0 93 dd de bf 98 1e c5 bf dc 0e 46 bf
       -2.5159795 -1.7411369 -1.5399961 -0.77366424
000030 c3 ad b9 bf d3 b8 d7 bf 8f 80 19 c0 0a 28 9d bf
       -1.4506153 -1.6853279 -2.3984716 -1.2277844
000040 78 f8 e6 bf 52 ac c0 bf b2 74 8c bf ec 26 70 bf
       -1.8044577 -1.5052588 -1.0973113 -0.9380939
000050 99 34 ef bf d6 83 b1 bf 5f 38 c2 bf c1 9e c5 bf
       -1.8687927 -1.3868358 -1.5173453 -1.5439073
000060 ad e8 a2 bf f5 0e 3d bf 44 33 82 bf 66 1a 57 bf
       -1.2727257 -0.7385095 -1.0171895 -0.84024656
000070 c3 47 bb bf 90 3b c2 bf 64 ad c0 bf b5 ad a2 bf
       -1.4631275 -1.5174427 -1.5052915 -1.2709261
000080 42 16 c3 bf c5 4c aa bf 47 62 71 c0 3c c1 c4 bf
       -1.5241168 -1.3304678 -3.7716234 -1.537147
000090 ac 3f a8 bf 44 83 80 bf 3a 32 9e bf 75 3e 93 bf
       -1.3144431 -1.0040059 -1.2359078 -1.1503435
0000a0 16 bf 04 c0 e6 f9 5d bf 37 60 bc bf 47 9f f5 bf
       -2.074163 -0.8670944 -1.4716862 -1.9189233
0000b0 cc 9d 7f bf bf 58 d2 bf 94 06 ac bf 68 dd 6c bf
       -0.99850154 -1.6433333 -1.3439507 -0.9252534
0000c0 90 0e f8 bf cc 47 91 bf 4d 7d 07 c0 b3 41 be bf
       -1.9379444 -1.1350036 -2.1170228 -1.48638
0000d0 de 97 9b bf be 4f 80 bf 93 7d b3 bf 2c ac 87 bf
       -1.2155721 -1.0024335 -1.4022697 -1.0599418
0000e0 14 27 87 bf a4 6e 37 bf fe ce be bf d8 e5 5f bf
       -1.0558801 -0.716532 -1.4906919 -0.8746009
0000f0 12 05 ab bf 72 48 89 bf cd c9 6b bf 84 a0 ab bf
       -1.3360922 -1.0725234 -0.921048 -1.340836
000100 22 a9 94 be 54 80 be 3f fa ba 2e bf 86 05 d2 be
       -0.29035288 1.4882913 -0.68254054 -0.4101984
000110 5e b7 d4 bf fd 12 21 bf 78 54 40 bf e7 46 d0 be
       -1.6618459 -0.629196 -0.7512889 -0.40679094
000120 ca 70 4c c0 60 6f 66 bf 69 62 05 bf 2b a0 b6 bf
       -3.194384 -0.90013695 -0.52103287 -1.4267629
000130 e6 47 00 bf 6d b0 38 bf 6c cd 04 bf bf 25 c8 bf
       -0.5010971 -0.72144204 -0.5187595 -1.5636519
000140 29 c0 2a bf 56 f0 14 bf 57 ad c0 be 4b ca ce bf
       -0.66699463 -0.58179224 -0.37632248 -1.6155485
000150 b1 5c 36 bf bc ca 1e bf d2 16 16 bf 61 88 49 bf
       -0.71235186 -0.620281 -0.5862857 -0.7872372
000160 05 82 88 bf f9 e3 01 c0 40 b0 c7 be 6c 99 1c bf
       -1.0664679 -2.0295393 -0.39001656 -0.61171603
000170 1e f8 1b bf 38 a4 21 bf e3 77 a3 be c1 dc c8 be
       -0.6092547 -0.631412 -0.31927404 -0.39230922
000180 9e a2 8c bf 18 c8 5e bf 77 f2 86 c0 a2 16 64 bf
       -1.0987127 -0.8702407 -4.2170978 -0.89097035
000190 4a 92 18 bf 38 b8 0a bf 91 58 1d bf 59 9a 04 bf
       -0.5959822 -0.54187346 -0.61463267 -0.51798016
0001a0 56 76 03 bf d2 a0 d1 be f2 99 f3 be b8 6a a7 be
       -0.5135244 -0.4094301 -0.47578388 -0.32698607
0001b0 35 ee ff be e7 37 fe be 9e 01 b8 be ba df b6 be
       -0.49986425 -0.49652025 -0.35938734 -0.35717565
0001c0 d5 7e 87 be 14 2b e2 be c3 8e 54 bf 5f 61 04 bf
       -0.26463953 -0.4417349 -0.8303034 -0.51711076
0001d0 92 42 b2 be 95 9d e1 be 1d 78 19 bf 5a 0a d7 be
       -0.34816414 -0.44065538 -0.59948903 -0.42000085
0001e0 0b d5 a1 bf 6a c4 b6 be 33 28 29 bf 7b 2d b3 bf
       -1.264314 -0.35696727 -0.66076964 -1.3998255
0001f0 c7 f6 b9 be fc 24 62 be 1e d6 ff be 16 cf 14 bf
       -0.3632109 -0.22084421 -0.49968046 -0.5812849
000200 36 12 2b 3e c7 09 b5 bf 4f bb 06 be 55 da 8c 3e
       0.16706166 -1.4143609 -0.1315739 0.27510324
000210 31 1e 0e 3e 8c b0 0e 3f 7c 13 f6 3e 4f 6f 5d 3d
       0.13878705 0.5573814 0.4806174 0.05406123
000220 2f 08 5e 3f 0d 61 31 3f 8c 5b d4 3e 06 44 96 3e
       0.8673124 0.6928871 0.41476095 0.29348773
000230 67 0a 85 bd c7 6d 13 bf 93 69 7e bf 80 e9 5a bd
       -0.06496125 -0.5758938 -0.99379843 -0.05344534
000240 f1 8f 2f 3f f7 dd 84 3e 86 12 3a 3e 24 20 45 be
       0.6857901 0.25950596 0.18171129 -0.19250542
000250 79 47 21 bf 8a 66 a6 3d 9d 2a e3 be 4e 81 8f 3e
       -0.62999684 0.081250265 -0.4436845 0.2802834
000260 8b f6 5c 3d d4 45 c4 be 52 ac 2a bd e5 11 99 bd
       0.05394606 -0.38334525 -0.041668244 -0.07474116
000270 38 a5 31 3e 82 f7 e0 3e bf da ac be 4d 09 18 3e
       0.17348182 0.43938833 -0.3376064 0.14847298
000280 c7 2b c3 be 15 6a 00 3e 38 81 a3 bf cf f8 00 3f
       -0.38119337 0.12540467 -1.277381 0.5037965
000290 bf 5e 76 3e 86 5a 2d be 65 45 19 3e a2 bc a4 3d
       0.2405958 -0.16929063 0.14967878 0.08043791
0002a0 1d cc 3c 3f fb 86 77 3d 9a 5b 3e 3e 06 d3 2d bf
       0.7374895 0.06043146 0.1858963 -0.6790012
0002b0 d6 20 3b 3e 4a d3 84 be d8 17 b7 bc b9 b6 e3 3b
       0.18274245 -0.2594245 -0.022350237 0.0069492725
0002c0 f7 b6 0d bf 49 da 1e 3e 47 c2 5a bf 90 98 75 bb
       -0.5535731 0.15512957 -0.85452694 -0.0037474968
0002d0 f1 cb 5a 3e 88 3a 30 3e 67 99 e1 3d 40 f6 26 be
       0.2136686 0.17209828 0.11015587 -0.16304874
0002e0 95 0d 60 3e af 1e 7d 3c 16 04 e1 be 7a 99 d5 bf
       0.21880181 0.01544921 -0.4394843 -1.6687462
0002f0 37 19 f0 bd 98 89 d3 3f 7d c7 23 3d 93 f8 8a 3e
       -0.11723559 1.6526365 0.03998517 0.27142772
000300 b3 ed 5c bf 2b 2d e4 3f b3 80 ad bf ba 39 b3 bf
       -0.863002 1.7826284 -1.3554901 -1.4001992
000310 db 0a 8a bf df 71 da bf 6d c0 ee bf ce de 69 bf
       -1.0784563 -1.7066001 -1.8652474 -0.913556
000320 34 a1 29 c0 16 ca f6 bf 03 97 c2 bf 8b 31 59 bf
       -2.650464 -1.9280422 -1.5202335 -0.8484122
000330 9c bf af bf db 85 e8 bf 4e 48 16 c0 aa 8a 93 bf
       -1.373035 -1.816585 -2.3481631 -1.1526692
000340 61 01 06 c0 45 81 c7 bf 7b 62 8e bf 37 d3 83 bf
       -2.0938342 -1.5586325 -1.1123804 -1.0298833
000350 f8 97 ea bf 44 a3 c8 bf b5 ce c7 bf 21 8a da bf
       -1.8327627 -1.5674825 -1.5609957 -1.7073404
000360 74 7e af bf cd 7a 4f bf da 24 62 bf ed 56 6a bf
       -1.3710465 -0.81046754 -0.8833748 -0.9153889
000370 55 47 c6 bf c1 ea cc bf a6 9c cb bf 63 83 ab bf
       -1.5490519 -1.6009141 -1.590718 -1.3399471
000380 57 c1 d6 bf 4f fe b3 bf f8 b0 88 c0 47 92 df bf
       -1.6777753 -1.4061984 -4.2716026 -1.7466515
000390 3b 7b 9c bf 07 4a 89 bf b3 97 a5 bf 36 b4 a5 bf
       -1.2225107 -1.0725716 -1.293692 -1.2945621
0003a0 5a 4d f8 bf 42 7f 3e bf c3 54 c4 bf a7 0a 02 c0
       -1.9398606 -0.7441293 -1.5338367 -2.0319002
0003b0 fb 80 9b bf 8d 1d e5 bf cc 73 9a bf 7f 41 83 bf
       -1.2148737 -1.7899643 -1.2066588 -1.0254363
0003c0 8f e7 ea bf 52 fb 71 bf 78 00 16 c0 4d 8b b3 bf
       -1.8351916 -0.9452411 -2.3437786 -1.4026886
0003d0 9c ce 92 bf 75 2d 81 bf 24 b5 b9 bf 49 a3 5e bf
       -1.1469302 -1.0091997 -1.4508405 -0.86967903
0003e0 eb 3f 83 bf 77 a6 6e bf c8 90 d7 bf 18 bf fa be
       -1.0253881 -0.93222755 -1.6841059 -0.48973918
0003f0 a7 37 b7 bf d5 98 93 bf d7 f3 45 bf 07 20 c6 bf
       -1.4313859 -1.1531016 -0.77325195 -1.5478524

weight_hh_l0 f4 [256, 64]
000000 78 2a 0c 3d 2a 09 ce bd 8e d2 44 3d 7b 97 5c bd
       0.03422019 -0.10060342 0.048052363 -0.0538554
000010 71 41 15 3e 3a 39 3b bd b6 e3 0d be 70 be e5 3d
       0.14575745 -0.045708872 -0.13856396 0.11217964
000020 44 50 3a bc 31 e2 21 be 1c f0 01 3d 89 94 4e bd
       -0.011371676 -0.15808941 0.031723127 -0.050434623
000030 9c 67 11 bd 2c 1d 0a 3d 1b 69 d0 bd 79 af 1f bd
       -0.0354992 0.033719227 -0.10176297 -0.038985703
000040 51 66 16 bb eb 7b b5 3d d2 69 63 bc 86 81 9b bd
       -0.002294917 0.08861526 -0.01388021 -0.07593064
000050 4f c5 2d bd ef 9a 7d bd 3b 76 f2 3d 95 a1 85 3d
       -0.042424496 -0.061915334 0.11838957 0.0652496
000060 8c 03 c4 bd cc cc 68 3d c8 5a 95 3c 3b ed 62 bd
       -0.09570989 0.056835935 0.018231764 -0.05540202
000070 4e bf f9 3d 62 a4 84 bd b3 a6 10 3e 1a 37 75 bc
       0.121946916 -0.06476666 0.1412609 -0.0149667505
000080 0c 1d c4 3d 1c d1 58 3d c0 c1 07 be e5 aa 16 be
       0.09575853 0.052933797 -0.13257504 -0.14713629
000090 1e b1 d3 3d bd 04 85 3d 2b 39 72 bd cd 75 c9 3d
       0.10336517 0.064950444 -0.05913655 0.09836922
0000a0 2c 61 3a bd 38 de e4 3d b3 e3 07 bc 0b 7c 3a 3d
       -0.045502827 0.11175197 -0.008294034 0.045528453
0000b0 a4 e5 c7 3d a3 f4 9a bd 6b b2 3f bd d6 cc 32 bd
       0.09760597 -0.07566192 -0.046801012 -0.043652378
0000c0 39 93 0f 3d a1 ba 92 bd 01 63 b8 3d b5 35 98 bd
       0.03505251 -0.07164503 0.090032585 -0.07432119
0000d0 b5 69 09 bd 62 3f 4a 3c 3b b3 00 be be 94 02 be
       -0.033548076 0.012344213 -0.12568371 -0.12752053
0000e0 09 6e 8e 3d 7f b0 08 3d 47 3f 57 3d 79 2e 8e bd
       0.06954581 0.033371445 0.05255058 -0.06942458
0000f0 2f 6b d8 3c ac cb df bd bf 58 0f bd 60 2e 74 3c
       0.026418297 -0.10927519 -0.034996744 0.014903635
000100 d6 ac 80 3d 13 d4 01 3f 30 cc 15 3b a0 81 8c be
       0.06282966 0.50714225 0.00228573 -0.27442646
000110 1f a1 92 3e 7d 81 52 be 38 04 6b be 88 e3 ef 3b
       0.2863855 -0.20557208 -0.22950828 0.007320825
000120 f6 90 19 bf d0 0b c9 be ba 23 fa bd e3 eb 5f 3e
       -0.5998682 -0.39266825 -0.122138456 0.21867327
000130 4a 2e 60 3d dc 9b 65 3e 9d 40 8a 3e 6b fa a5 3e
       0.054731645 0.22422737 0.2700242 0.32417616
000140 40 d6 40 be cf 4a b0 bd aa a8 83 bc 55 08 04 be
       -0.1883173 -0.086080186 -0.016071636 -0.12893803
000150 5e 34 9f 3d 17 61 ff bd 4d 50 30 3e d6 eb 1c be
       0.0777366 -0.1246969 0.17218132 -0.1532434
000160 f9 db 3d 3e af 17 81 bd 2a d7 08 bd f2 d1 4a 3e
       0.18540944 -0.063033454 -0.03340832 0.1980665
000170 81 ba 2e bc 89 9a 7b be 14 f2 3b 3e 83 c6 5e 3e
       -0.010664583 -0.24570669 0.18354064 0.21755414
000180 00 e1 94 3e 9b c2 20 3c 31 cc 82 be ed f1 b0 be
       0.2907791 0.009812023 -0.2554641 -0.34559575
000190 01 a6 88 bd e8 17 fc 3d 23 77 5a 3c 58 99 31 3d
       -0.06672288 0.12309247 0.0133340685 0.04335913
0001a0 8d 7d b5 be db 3b 3a 3d f4 ca 30 3d 97 ee b3 3e
       -0.3544735 0.04546724 0.0431623 0.35142967
0001b0 ca 7f 8d bd 80 90 e8 3c 40 ac b9 ba 71 d0 c4 3d
       -0.069091395 0.028389215 -0.0014165714 0.096100695
0001c0 fb 7a b9 3e 2b ec e0 3d e4 f6 61 3e c8 61 b6 bd
       0.3622664 0.109825455 0.22066838 -0.08905369
0001d0 a1 a7 fc 3c 74 ab 94 bd f0 b9 d8 bd ad 8c 8c 3d
       0.03084165 -0.072592646 -0.1058234 0.06862769
0001e0 89 ae 8d 3c 68 d1 6e bd aa 30 cf 3e 6b a9 49 c0
       0.017295139 -0.058305174 0.40466815 -3.1509655
0001f0 c4 f2 55 3e 8b 7b 8b 3f 7f 1b d1 3c 73 89 c6 be
       0.20893389 1.0897077 0.025525806 -0.3877674
000200 db 44 23 39 40 10 8d be ee 44 0a 3c b1 01 2c 3d
       0.00015570542 -0.2755146 0.008439286 0.0419938
000210 40 97 dc 3d 46 e6 b0 bd 06 ed f6 bc 37 8f 0a bd
       0.10771036 -0.08637671 -0.030142318 -0.033827987
000220 ad 83 91 3d f3 93 87 bd 1f 85 a6 3d b4 24 94 bd
       0.07105193 -0.06620016 0.081308596 -0.07233563
000230 a1 4f 9a 3a 0e 02 9c 3c 20 41 0b bd d5 11 57 3d
       0.0011772999 0.019043949 -0.033997655 0.05250724
000240 ac 7b b8 3c 89 ec 22 3d af 5e e8 3c 30 9c bc 3d
       0.022519909 0.03977636 0.028365461 0.09209478
000250 94 e3 98 bd 08 02 c6 3c 72 a9 b1 3d 01 90 91 bd
       -0.07465282 0.02417089 0.08674897 -0.07107545
000260 30 07 43 3d 96 a3 c9 bc 15 d0 46 3d 29 6a 30 3d
       0.047614276 -0.024614137 0.048538286 0.043069992
000270 0a f5 a8 bd 08 e5 f3 3d f9 33 06 3d 21 58 8f 3d
       -0.082498625 0.119089186 0.03276441 0.06999231
000280 8b 9e e0 bc 54 58 cc bc 06 49 a7 bd 26 59 37 bd
       -0.02741935 -0.024944462 -0.08168225 -0.044762753
000290 27 bb cb bd f2 77 d2 3d 5f a4 b6 bd c1 42 08 bb
       -0.09947806 0.10276784 -0.0891807 -0.0020791742
0002a0 ec e3 e2 bd e9 99 cb 3b be ae 19 3b cd 10 0a be
       -0.11078629 0.006213416 0.0023450102 -0.13482971
0002b0 ad b0 e1 bd f8 59 6f bd 00 bf c7 3d 11 e1 4f bd
       -0.11020026 -0.05843541 0.09753227 -0.05075175
0002c0 ff 81 f9 bb a0 0e 63 3c 12 5c 59 bd e0 bc a3 bd
       -0.0076143737 0.013858467 -0.05306632 -0.079950094
0002d0 ef 45 dd 3c eb c3 d6 3d 14 92 f7 bd c5 99 2a be
       0.027010886 0.10486587 -0.12088409 -0.16660221
0002e0 a7 7b 06 3e e0 d9 d9 bd 6a 6d 20 be b8 27 26 be
       0.13133107 -0.106372595 -0.15666738 -0.16226089
0002f0 20 ff e5 bd 77 49 a4 3d 9f ac 30 bd a8 30 43 bd
       -0.11230302 0.08021825 -0.043133374 -0.047653824
000300 5e ac 1a 3d 74 1d 94 bd f0 ff cd 3d 5a ca 77 bc
       0.03776204 -0.0723218 0.10058582 -0.015123928
000310 58 af eb ba 1e 96 a2 bc da 5b 8c 3d d3 ce 02 3d
       -0.0017981334 -0.019846972 0.06853457 0.031935524
000320 7d a4 14 3e 29 28 91 bd 57 ed 09 3e 7d 0f 41 3d
       0.14515872 -0.07087738 0.13469444 0.04713391
000330 70 08 ad bd eb fa 39 bd 49 b1 10 be 85 ca 3b bc
       -0.08448875 -0.04540531 -0.14130129 -0.011461859
000340 28 0c 94 bd 95 10 9f bc b9 4f d3 3c f4 15 10 3d
       -0.07228881 -0.019417087 0.02579485 0.035177186
000350 5d 83 a3 bb 11 fb 86 3d d6 bc 23 bd 1c 3a 56 bc
       -0.004990025 0.06590856 -0.03997501 -0.013075378
000360 98 46 57 bd f5 9e 14 bc 57 fd ca bd cf 73 29 be
       -0.052557558 -0.009071101 -0.09911602 -0.16548084
000370 e3 50 11 be d6 1a ec 3d a4 4a c3 bb bb b9 fd 3c
       -0.14191012 0.11528556 -0.0059598256 0.030972352
000380 2f eb 44 bd 8b b0 8f bd cc 1c 07 be 47 8f 58 3c
       -0.04807585 -0.07016095 -0.13194579 0.013217754
000390 5d 73 fa bd b7 25 09 3e f8 47 8e 3d e3 4b 05 be
       -0.12229035 0.13393293 0.06947321 -0.1301723
0003a0 4d 23 9e 3c 5b 70 8b bd 14 23 93 3d 20 41 5d bd
       0.019303942 -0.068085395 0.07184425 -0.054017186
0003b0 89 ba 20 3e fc 98 06 bd 58 f0 13 3d 68 bb 52 3d
       0.15696158 -0.03286074 0.03611788 0.051448256
0003c0 7b 9f aa bd f8 c8 12 bd 0d 1f 61 3b cb 55 77 3b
       -0.083312 -0.03583619 0.0034350783 0.0037740346
0003d0 12 d7 9c bd 1c 8b cc bb 9f 71 97 bd 5b c3 2c be
       -0.07658209 -0.006242169 -0.073947184 -0.16871397
0003e0 e1 7a eb 3d f5 ba bd 3d 46 b3 b5 bd ab 5f 79 3d
       0.11498047 0.09264175 -0.08872084 0.06088225
0003f0 fc f8 0b bd 2e f4 b1 bd 22 c1 0b bd 93 5a 78 3c
       -0.034172997 -0.08689152 -0.034119733 0.015158313

bias_ih_l0 f4 [256]
000000 11 0f bf bf 96 0b 4c bf a9 69 cc bf fc 85 dc bf
       -1.4926473 -0.7970518 -1.5969745 -1.7228389
000010 81 a0 dd bf ec 8e e6 bf b8 e0 cc bf 47 23 b8 bf
       -1.7314607 -1.8012366 -1.6006079 -1.4385766
000020 82 20 8f bf d7 36 dd bf 50 9d ec bf 94 4c ec bf
       -1.1181796 -1.7282361 -1.8485508 -1.846087
000030 59 8f e1 bf 25 04 eb bf 0e 48 c3 bf 44 cd d1 bf
       -1.7621871 -1.836064 -1.5256364 -1.6390767
000040 aa 54 d6 bf 4e dd e5 bf 50 8f b4 bf 01 ac ea bf
       -1.6744587 -1.7958162 -1.4106236 -1.8333741
000050 bc e0 ec bf 6f 76 ce bf 78 b2 d0 bf 6a 76 e1 bf
       -1.8506083 -1.6129893 -1.6304464 -1.7614262
000060 f6 91 dc bf 05 c4 e7 bf eb c8 ad bf 23 39 b8 bf
       -1.7232044 -1.8106695 -1.357694 -1.4392437
000070 62 bf bc bf 44 8e e1 bf e4 6c dd bf 18 35 c7 bf
       -1.4745905 -1.7621541 -1.7298856 -1.5563078
000080 67 8b df bf 7e ee d7 bf 6c e3 d1 be 30 71 d8 bf
       -1.7464417 -1.6869657 -0.40993822 -1.6909542
000090 11 c7 a6 bf 88 1e c9 bf 82 9e d6 bf d5 61 d1 bf
       -1.30295 -1.5712442 -1.6767123 -1.6357981
0000a0 09 db de bf b8 37 a6 bf a7 ef d3 bf cc 87 db bf
       -1.7410594 -1.2985754 -1.6557511 -1.7150817
0000b0 13 9a c2 bf ba 40 e0 bf f8 e8 df bf 57 8b 9f bf
       -1.520327 -1.7519753 -1.7492971 -1.2464398
0000c0 18 39 eb bf c6 b3 cf bf b2 8b d0 bf b7 20 e5 bf
       -1.8376799 -1.6226737 -1.6292632 -1.7900609
0000d0 25 01 d3 bf 6a f7 da bf 16 a5 df bf 67 b9 cf bf
       -1.6484724 -1.7106755 -1.7472255 -1.6228455
0000e0 b0 72 c1 bf 46 48 a0 bf 31 64 e0 bf ad ac 27 be
       -1.5113125 -1.2522056 -1.7530576 -0.16374464
0000f0 97 39 cf bf 5b d3 d5 be a6 1d b3 bf 5f 63 da bf
       -1.618945 -0.41762814 -1.3993423 -1.7061576
000100 a6 e1 2f bf 0f 09 7a bf d4 82 35 bf b3 dc 20 bf
       -0.6870369 -0.9767007 -0.7090275 -0.6283676
000110 29 c1 39 bf 69 fe 38 bf 65 a8 ff be 7a 53 29 bf
       -0.72560364 -0.722632 -0.49933162 -0.66143
000120 6f 0d bb be c4 ce 1d bf 51 45 3d bf 1e 16 52 bf
       -0.36533687 -0.61643624 -0.73933893 -0.82065
000130 a0 e0 1d bf 20 90 35 bf 6c 62 74 bf 2b 57 19 bf
       -0.61670876 -0.7092304 -0.9546268 -0.5989863
000140 7d a3 3f bf da 23 19 bf 5b ce 30 bf 9d f7 3d bf
       -0.7485884 -0.5982033 -0.69064873 -0.7420595
000150 a6 79 56 bf 72 06 11 bf a4 3b 24 bf dd 37 04 bf
       -0.8377937 -0.5665046 -0.64153504 -0.5164774
000160 ef d8 18 bf 61 b7 86 bf b7 47 10 bf e7 d9 0d bf
       -0.59706014 -1.0524713 -0.5635943 -0.5541062
000170 c8 fd 0f bf 07 3f 19 bf 86 f9 36 bf 1a e6 26 bf
       -0.56246614 -0.598618 -0.7147449 -0.6519486
000180 a2 b1 2c bf 80 6e 39 bf 74 50 bd be e1 8a 40 bf
       -0.67458546 -0.72434235 -0.36975443 -0.7521191
000190 06 49 f2 be 5b 9b 14 bf 13 db 22 bf 98 60 1f bf
       -0.47321337 -0.58049554 -0.6361553 -0.62256765
0001a0 c9 42 72 bf 4f 6b 21 bf ca 8c 29 bf 0b 44 72 bf
       -0.94633156 -0.63054365 -0.6623045 -0.94635075
0001b0 d1 ad 31 bf 54 11 2a bf 73 c8 44 bf 06 47 1c bf
       -0.6940585 -0.6643269 -0.7686836 -0.61045873
0001c0 77 c4 6b bf be 58 2c bf c1 13 51 bf 4f db 46 bf
       -0.92096657 -0.6732291 -0.8167077 -0.7767839
0001d0 9f d5 2e bf 86 e6 24 bf 57 d6 17 bf df 4e 23 bf
       -0.6829471 -0.6441425 -0.5931143 -0.6379222
0001e0 c1 fa 49 bf 09 f5 0c bf 60 b8 1d bf 19 aa 0e c0
       -0.78898245 -0.55061394 -0.6160946 -2.229132
0001f0 c0 37 2d bf 5b 35 a0 bf c3 eb 05 bf b9 10 13 bf
       -0.6766319 -1.2516283 -0.5231287 -0.5744739
000200 1e ac 07 3d 21 e8 b8 3c 32 ec 99 3d a6 56 9e 3b
       0.033123128 0.022571625 0.07515754 0.0048321066
000210 09 bd d1 bd f3 b5 7b bc aa 8b 20 bd df 71 b4 3c
       -0.10241134 -0.015363204 -0.039195694 0.022026954
000220 fb c8 96 be f3 73 60 3c c6 c8 c8 3a 36 63 93 bd
       -0.2945021 0.013699519 0.0015318624 -0.07196657
000230 c3 bc 89 3d 37 96 fb bb 42 50 58 3e 4d 88 ee bb
       0.067254566 -0.007677819 0.21124366 -0.007279432
000240 82 7a c6 3c 40 c5 02 3d 25 29 76 bd c1 e1 39 3d
       0.024228338 0.031926394 -0.060097832 0.04538131
000250 c0 57 4e 3d 3b a0 24 bd 07 4d 00 3e 1b b2 eb 3c
       0.050376654 -0.04019187 0.12529384 0.02877145
000260 3e 68 43 bd 29 ef 6c 3d 27 02 76 3d 8d 97 13 3d
       -0.047706835 0.05784527 0.060060646 0.036033202
000270 ee 33 13 3c 71 fd ab bd b8 8f 79 bc 7d 4e a2 bd
       0.008984549 -0.083979495 -0.015232019 -0.07925127
000280 e4 56 90 bd 3d f3 2b bd 5c 44 eb 3f 57 de 12 3d
       -0.07047823 -0.041980017 1.8380237 0.03585657
000290 cb 86 6b bd 52 68 06 3e 23 5f 46 bd 38 31 6f bc
       -0.057501595 0.13125733 -0.048430573 -0.014599137
0002a0 1a 47 f6 bc a2 42 38 3c f5 c2 89 3c 6c 58 fd 3c
       -0.0300632 0.011246355 0.016816596 0.030925952
0002b0 b4 66 ad bd 9b 00 3c 3d b5 ce 24 3d 17 d4 c3 bc
       -0.08466855 0.045899015 0.040236194 -0.023904843
0002c0 71 ef 0c 3d c2 3c 5b bd 9d f4 45 3d 94 7e d9 bb
       0.034408037 -0.05352474 0.048328985 -0.0066374037
0002d0 82 2b de 3b 17 87 ae bd ed 02 ce ba 50 3c 56 3d
       0.006780089 -0.0852186 -0.0015717425 0.052303612
0002e0 cf 74 ee bc 72 90 8f bd 00 14 ca bd ab 6f de 3e
       -0.029108433 -0.07009973 -0.09867096 0.4344457
0002f0 84 48 8f bd 5c 15 d5 bd d5 da 54 bc 5d 8f 5d 3b
       -0.06996253 -0.104044646 -0.012991627 0.0033807375
000300 37 04 c0 bf 4a d1 6f bf 90 94 dc bf 50 12 d5 bf
       -1.5001286 -0.93678725 -1.7232838 -1.6646214
000310 2f 51 de bf 96 60 d1 bf 0d 16 ef bf 98 27 a7 bf
       -1.7368525 -1.6357601 -1.8678604 -1.3058958
000320 35 16 8f bf 04 5d d9 bf 5b 3c d7 bf 6f ef d7 bf
       -1.1178652 -1.6981511 -1.6815294 -1.6869944
000330 59 64 c8 bf e5 cb cd bf 86 a9 d1 bf ac ad cb bf
       -1.5655624 -1.6077849 -1.637986 -1.5912375
000340 ec cf f1 bf e3 40 e3 bf c7 a0 bf bf b4 b3 ce bf
       -1.8891578 -1.7754177 -1.497094 -1.6148591
000350 21 c1 d9 bf bf 1b db bf 18 92 e0 bf a5 74 e1 bf
       -1.7012063 -1.7117842 -1.7544584 -1.7613722
000360 8d d3 d0 bf ef d6 f4 bf c3 ff a0 bf fa 71 ab bf
       -1.631456 -1.9128093 -1.2578052 -1.3394158
000370 3e 2e bf bf 85 6c e0 bf e6 64 e1 bf 13 06 d5 bf
       -1.4935987 -1.7533118 -1.7608917 -1.6642479
000380 93 15 d6 bf 13 93 d2 bf a6 ad bd be 14 98 de bf
       -1.6725334 -1.6451133 -0.37046546 -1.739016
000390 2f 4b bb bf d5 23 ce bf 4f 88 c2 bf 70 c0 c9 bf
       -1.4632319 -1.6104685 -1.5197848 -1.5761852
0003a0 79 0e d3 bf 08 58 a9 bf e1 dd e9 bf da fd de bf
       -1.6488792 -1.322999 -1.8270837 -1.7421219
0003b0 e9 9c c4 bf 99 d6 e4 bf aa 33 e4 bf de ef a8 bf
       -1.5360385 -1.787799 -1.7828267 -1.3198202
0003c0 ba 35 d8 bf d4 b2 bd bf 36 38 e8 bf 92 0a d5 bf
       -1.6891396 -1.4820199 -1.8142154 -1.6643851
0003d0 b3 c0 d0 bf 82 94 c7 bf a9 60 dd bf fe 90 c4 bf
       -1.6308807 -1.5592196 -1.7295123 -1.5356748
0003e0 0f 80 cd bf 56 00 a7 bf 5c 7d e5 bf ee e7 4a bd
       -1.6054705 -1.3046978 -1.7928882 -0.04953759
0003f0 87 17 e2 bf a6 b8 9b be 0e aa ab bf c7 22 dd bf
       -1.766343 -0.30414313 -1.3411272 -1.7276238

bias_hh_l0 f4 [256]
000000 f0 6a cc bf 69 58 4a bf 5b 56 c0 bf 8a ce d7 bf
       -1.5970135 -0.79041153 -1.5026354 -1.6859906
000010 d2 e6 e9 bf b2 64 df bf b0 51 e2 bf 8e f3 a5 bf
       -1.8273566 -1.7452605 -1.7681179 -1.2964952
000020 5d 01 7a bf e3 28 e8 bf 38 81 e5 bf 0b 04 dd bf
       -0.9765833 -1.8137478 -1.793006 -1.7266859
000030 28 4c d7 bf b1 50 e4 bf da b2 c4 bf 11 70 e5 bf
       -1.6820116 -1.7837125 -1.5367081 -1.7924825
000040 96 89 d1 bf ec a2 d6 bf 1c d6 b3 bf 7a c8 d8 bf
       -1.6370113 -1.676847 -1.4049716 -1.693618
000050 26 da e1 bf 1f 44 d5 bf 4b 80 e9 bf 5f 80 cf bf
       -1.7644699 -1.6661414 -1.8242277 -1.6211051
000060 16 ff ca bf d1 80 d6 bf bb e1 a3 bf d2 27 ab bf
       -1.5859096 -1.6758062 -1.2803262 -1.3371527
000070 4a d6 b6 bf d5 df da bf 0c 83 d8 bf fb a4 cb bf
       -1.4284146 -1.7099558 -1.6914992 -1.5909723
000080 e7 64 cb bf af e8 bf bf 7a 8a d9 be da 8a d6 bf
       -1.5890168 -1.4992884 -0.42488462 -1.6761124
000090 a7 5f be bf ca 7f c6 bf a4 f4 ca bf 5e 77 d9 bf
       -1.4872941 -1.5507748 -1.5855908 -1.6989553
0000a0 66 22 de bf 32 bc b9 bf 3c ef e2 bf 06 7d d4 bf
       -1.7354248 -1.4510558 -1.7729259 -1.6600654
0000b0 34 b5 d4 bf 24 25 c5 bf 3c 6b d3 bf 94 c0 ae bf
       -1.6617799 -1.540196 -1.65171 -1.365252
0000c0 44 5c d7 bf 86 81 d2 bf 4b 10 dd bf 10 a8 d1 bf
       -1.6825032 -1.6445777 -1.7270597 -1.6379414
0000d0 3f 54 c8 bf f0 5f d9 bf 96 9c de bf 5e ef ca bf
       -1.565071 -1.6982403 -1.7391536 -1.5854299
0000e0 2c 05 de bf c0 a0 a6 bf 9d 86 d5 bf e0 5e d5 3b
       -1.7345328 -1.3017807 -1.6681706 0.006511554
0000f0 b9 b7 ce bf 62 fd dc be e4 c9 a2 bf 62 5b d6 bf
       -1.6149818 -0.43162066 -1.2717862 -1.6746638
000100 6c c8 2b bf ba 79 57 bf 01 d6 22 bf a5 9b 4e bf
       -0.67102695 -0.84170115 -0.63607794 -0.80706245
000110 3e 31 39 bf a5 e8 40 bf ac 96 24 bf 29 82 0b bf
       -0.7234076 -0.7535499 -0.6429241 -0.54495484
000120 e2 19 03 bf 3e e5 39 bf 95 85 3a bf 9e 02 5c bf
       -0.5121137 -0.7261542 -0.7286008 -0.85941494
000130 dd 74 3e bf 8c 81 39 bf d4 88 8e bf dc e2 1a bf
       -0.7439707 -0.724633 -1.1135507 -0.6050241
000140 36 75 3b bf 12 47 22 bf fa 4b 2c bf a8 81 3b bf
       -0.73225725 -0.63389695 -0.6730343 -0.73244715
000150 18 c4 22 bf 55 8a 33 bf 59 97 33 bf 80 22 20 bf
       -0.63580465 -0.7013295 -0.70152813 -0.6255264
000160 51 5a 45 bf 59 fa 5e bf 32 63 1f bf fa c0 1f bf
       -0.77090937 -0.8710075 -0.62260735 -0.62403834
000170 06 3c 07 bf 20 28 25 bf 93 6d 56 bf 30 63 29 bf
       -0.52825963 -0.6451435 -0.83760947 -0.66166973
000180 cb 7d 1d bf 73 a2 1b bf bc 7b af be df cd 31 bf
       -0.6152007 -0.6079475 -0.3427409 -0.6945476
000190 84 8c 25 bf 60 5b 29 bf 19 06 3b bf d1 03 24 bf
       -0.64667535 -0.6615505 -0.7305618 -0.64068323
0001a0 d7 e1 43 bf 49 11 25 bf f8 fe 47 bf 99 45 6e bf
       -0.7651648 -0.644795 -0.78123426 -0.9307495
0001b0 b1 51 3a bf 88 67 40 bf 0c 58 3a bf 03 56 2d bf
       -0.727809 -0.75157976 -0.727906 -0.6770937
0001c0 a9 b8 62 bf d0 8a 24 bf 72 b7 49 bf 6e 1b 22 bf
       -0.8856302 -0.6427431 -0.7879554 -0.63323104
0001d0 9e 49 2e bf 3a a1 4a bf d2 8f 19 bf fd eb 46 bf
       -0.6808108 -0.7915226 -0.5998508 -0.7770384
0001e0 ad 6e 35 bf 9d 0d 32 bf a6 ee 2f bf 6c 95 07 c0
       -0.70872 -0.6955202 -0.68723524 -2.118495
0001f0 79 52 2e bf 38 2c ae bf e2 fc 2f bf 70 5f 21 bf
       -0.68094593 -1.3607244 -0.68745244 -0.6303625
000200 60 cc 9f bd ac e3 07 3e 42 0d 40 bb b1 f1 5e 3d
       -0.07802653 0.13270444 -0.0029304777 0.054429714
000210 b1 31 74 3d 84 a8 81 bd f4 e0 c6 3c b8 4d 08 bd
       0.059617702 -0.0633097 0.024277188 -0.033277243
000220 e2 00 9e be 49 38 9a bd d7 95 7f bd 21 d9 0a bc
       -0.3086005 -0.07530267 -0.062398758 -0.008474619
000230 da 3a c2 3c 0a a2 9d 3d 45 86 23 3e ea 06 21 3b
       0.023709703 0.07696922 0.15969189 0.0024570771
000240 2c d0 00 bd 10 ae 32 bb 64 1e 45 bc 51 89 5c 3c
       -0.03144853 -0.0027264394 -0.0120311715 0.013460473
000250 17 4a 2b bd da ea b2 3d e3 ca 96 bd 0d 1d a1 3c
       -0.041818704 0.08736201 -0.07362916 0.019667173
000260 4f ce e8 bb 54 98 c4 3d 22 c4 65 bd 9c e1 38 bc
       -0.007104672 0.09599367 -0.05609525 -0.011284258
000270 80 2a d4 bd 1d cc 3b 3d a9 41 c1 3c de c6 19 bc
       -0.10359669 0.045848954 0.02359088 -0.009385793
000280 76 3b 19 3b 55 f1 16 bd 54 f0 e4 3f ba 1c 7a bd
       0.0023381389 -0.036851246 1.7885842 -0.061062552
000290 92 7f e4 bc 8a 75 81 bd ae ea 7b bd d7 8d 37 bd
       -0.027892862 -0.06321247 -0.061503105 -0.044813003
0002a0 6a cb 0c be 0d d0 ff bc 4a cc 77 3c 43 82 b9 bd
       -0.13749471 -0.031227136 0.01512439 -0.090580486
0002b0 1f b3 00 bb 26 7d cc bd b9 12 28 3d 93 94 81 3c
       -0.0019638014 -0.09984808 0.04103348 0.015817916
0002c0 e2 53 b1 bd fc 16 35 3a 95 64 4c bd 0c 40 c1 3d
       -0.086585775 0.0006908027 -0.04990061 0.09436044
0002d0 6a f1 d5 bd 23 48 a8 3c 1b 8a 95 3d bd be f4 3a
       -0.10446437 0.02054221 0.07301732 0.0018672567
0002e0 c6 1e d6 3a 9f 27 7d 3d 78 b8 fe 3d e4 5d ec 3e
       0.0016336075 0.061805364 0.12437528 0.46165383
0002f0 3c 0b 15 3c be 98 76 3c 4b 3b 6c 3c 6b 60 e8 3c
       0.009096917 0.015051065 0.014418433 0.028366288
000300 dc 12 d0 bf a8 fc 5f bf d5 3b d0 bf ca 86 ea bf
       -1.6255755 -0.874949 -1.6268259 -1.8322384
000310 eb 56 d9 bf 75 0a ec bf 7a 5d df bf 8e a3 9a bf
       -1.697965 -1.8440691 -1.7450402 -1.2081163
000320 c7 3d 8d bf 6f eb d3 bf fd cc d8 bf 2f fa ed bf
       -1.1034478 -1.6556224 -1.6937557 -1.8591975
000330 a7 3e d4 bf 02 33 d3 bf bc 3e d0 bf c4 3d d9 bf
       -1.658162 -1.6499941 -1.6269145 -1.6971974
000340 bc 94 e3 bf 0b 11 d5 bf 50 77 c7 bf f9 bd d9 bf
       -1.7779765 -1.6645826 -1.5583286 -1.70111
000350 81 60 d3 bf 19 7c df bf 6a 3d e7 bf da 52 d0 bf
       -1.6513826 -1.7459747 -1.8065617 -1.6275284
000360 69 88 c0 bf 4e d3 da bf ea 30 a5 bf d7 3c b2 bf
       -1.5041629 -1.7095735 -1.2905552 -1.3924817
000370 b2 1b c8 bf 84 16 e3 bf be 27 e4 bf 91 ed d3 bf
       -1.5633452 -1.7741246 -1.7824628 -1.6556875
000380 bc 3b dd bf e3 ad c3 bf ee b6 19 bf 2e 50 cf bf
       -1.7283854 -1.5287441 -0.60044754 -1.6196344
000390 10 38 be bf d8 05 c5 bf 83 e7 d4 bf ab ce d8 bf
       -1.4860859 -1.5392408 -1.6633152 -1.693807
0003a0 09 e3 da bf bc 4c bc bf 78 bb d9 bf 6e 62 e5 bf
       -1.7100536 -1.4710917 -1.7010336 -1.7920663
0003b0 30 4b c6 bf f4 85 e2 bf f7 5c cc bf 2c b6 a8 bf
       -1.5491695 -1.7697129 -1.5965871 -1.3180594
0003c0 5a 0f d1 bf f3 b5 bb bf 9a 0c df bf 94 d7 c6 bf
       -1.633281 -1.4664901 -1.7425721 -1.5534539
0003d0 95 10 c8 bf 7b 1f c5 bf f3 9c c6 bf 42 2b bb bf
       -1.563006 -1.5400232 -1.5516647 -1.4622576
0003e0 7d 1f d9 bf e0 37 ba bf bb ba de bf a7 71 42 bd
       -1.6962734 -1.4548302 -1.7400736 -0.04747167
0003f0 11 5f e0 bf 02 27 c8 be 50 db ae bf e1 8a df bf
       -1.7529012 -0.3909226 -1.3660679 -1.7464257

weight_ih_l0_reverse f4 [256, 1]
000000 28 d1 d6 bf 3b 74 99 bf 8e 9e 43 c0 7d 01 b4 bf
       -1.678258 -1.1988596 -3.0565524 -1.4062954
000010 98 cb 3d bf 62 4c cd bf 49 e2 8f bf 18 a3 f6 bf
       -0.74138784 -1.6038935 -1.1240932 -1.9268522
000020 a9 46 7d bf 03 25 dd bf 5b a3 ac 3f ec f9 b1 bf
       -0.98935944 -1.727692 1.3487352 -1.3904395
000030 c8 7d 92 bf 2b dc 97 bf 29 f3 6c c0 ae 17 a4 bf
       -1.1444635 -1.1864065 -3.7023413 -1.2819726
000040 5e 56 aa 3f da de 98 bf 49 6e 53 bf 81 70 b7 bf
       1.3307607 -1.1943009 -0.82590157 -1.4331208
000050 9d 05 96 bf 76 bd 15 c0 71 75 97 bf cb 63 8f bf
       -1.1720463 -2.3396888 -1.1832715 -1.1202329
000060 6a e9 69 bf c8 f2 7e bf b2 31 a1 bf 94 9c 3c c0
       -0.91371787 -0.99589205 -1.2593291 -2.9470568
000070 74 9f 6f c0 4e 4a a4 bf d8 cb f4 bf d5 9e 35 bf
       -3.7441072 -1.2835176 -1.9124708 -0.70945483
000080 3b 57 8d bf 67 84 19 c0 7f f8 98 bf 21 46 a0 3f
       -1.1042246 -2.3987062 -1.1950835 1.2521402
000090 0c 34 70 bf 58 a8 9d bf 7c 03 2f bf d4 47 67 bf
       -0.9382942 -1.2317 -0.6836469 -0.90343976
0000a0 dd 80 b7 bf 8e 75 74 c0 fd b0 be bf 47 14 8d 3f
       -1.4336201 -3.819675 -1.4897763 1.1021813
0000b0 60 03 cc bf ef a6 d4 bf ce 8c 4b bf ba 06 07 c0
       -1.593853 -1.6613444 -0.79511726 -2.1097856
0000c0 ff df 97 3f 89 b0 3f bf ad 2f 7d bf b1 da 91 bf
       1.1865233 -0.74878746 -0.9890087 -1.1394864
0000d0 bb f8 e6 bf 8d 4b a8 3f 94 e7 cc bf 73 03 94 bf
       -1.8044657 1.3148056 -1.6008172 -1.1563553
0000e0 89 9f ae bf 0a 9f 84 be 7c 4f 29 bf 4f 6a bc bf
       -1.3642436 -0.25902587 -0.6613691 -1.4719943
0000f0 81 79 a5 bf ac 05 d3 bf d7 b6 a6 3f 5a 21 85 bf
       -1.2927705 -1.6486106 1.3024548 -1.0400803
000100 df 4c 7b bf ab ab 77 bd 24 17 71 3f ea 12 ec 3d
       -0.9816417 -0.06046645 0.94175935 0.11527045
000110 aa 9d 8b 3d f6 64 07 3e d5 b1 c0 3f 45 68 42 be
       0.068171814 0.13222107 1.505427 -0.18985088
000120 dc 81 06 3e 6d 48 42 3e 74 62 e8 3f 6f a6 28 3c
       0.13135475 0.1897294 1.8155046 0.010293587
000130 9d d3 e7 bd 14 71 6e 3f e4 f8 55 bf 01 2e 55 be
       -0.11319659 0.93141294 -0.835829 -0.2081833
000140 18 48 a4 3f 6b 8f 3d be c5 b6 00 3d 72 75 1b 40
       1.2834501 -0.18511741 0.031424303 2.4290433
000150 f1 69 97 be 6a 52 ac 3f ec 65 3b be f1 75 06 3f
       -0.29573014 1.3462651 -0.18300599 0.52523714
000160 0e 91 58 3e 28 b0 df ba 5b 32 91 be 9a 66 87 3f
       0.21149084 -0.0017066048 -0.2835873 1.0578187
000170 cd 3c 13 3f 0e 8c 2b be f6 6a 7b be 3a 22 9f 3d
       0.5751465 -0.16752645 -0.24552521 0.077702
000180 e4 bd 7d 3e cb d8 c1 bf 85 01 06 40 d6 14 9f 3f
       0.24779469 -1.5144285 2.0938427 1.2428234
000190 eb e6 46 be 82 96 8d bd 22 06 aa 3f ff 84 ff bc
       -0.19424026 -0.06913473 1.3283122 -0.031191347
0001a0 09 eb 43 40 25 17 df 3c 2a ab 11 bd fb d8 6f 3f
       3.0612204 0.027232716 -0.035563625 0.9369046
0001b0 15 fd c6 be 61 44 d0 bd 45 59 ac 3d b2 60 e7 bc
       -0.3886496 -0.10169292 0.08415464 -0.02824435
0001c0 7f f4 2f 3f ba 21 08 3f 2f a9 79 be f2 6c ac 3e
       0.68732446 0.5317646 -0.24380945 0.3367687
0001d0 30 a8 a2 3b 20 ff d7 be 82 ad 68 be 53 6a a2 bd
       0.004963897 -0.42186832 -0.22722438 -0.07930436
0001e0 7c f3 b1 3e 49 a8 4d 40 22 b5 1c 40 30 4a 8a be
       0.34756076 3.2133963 2.4485555 -0.27009726
0001f0 d1 33 da 3f 7f be 93 bd df 76 04 3e eb c8 78 bd
       1.7047063 -0.072140686 0.1293597 -0.060738485
000200 97 08 7d bf 07 e0 c3 bd a0 14 ba be 14 c4 00 be
       -0.9884123 -0.09564214 -0.3634386 -0.12574798
000210 76 e6 38 bc 71 5f 85 bd 5d ef 1e 3f d1 37 d4 be
       -0.011285415 -0.06512345 0.6208399 -0.41448835
000220 3e 34 98 bd 45 9e aa 3e cf 4a 9a bf 5e c1 eb 3d
       -0.074318394 0.33323875 -1.205408 0.11511491
000230 9b d4 6b 3c 4a f4 72 be db da 0c 3f 20 cb 92 3d
       0.014393951 -0.23726001 0.55021447 0.07167649
000240 12 34 9c bf 30 4d 7c bd 94 2b bd 3c f3 ac 1e 3d
       -1.2203391 -0.06159705 0.023092069 0.038739156
000250 20 41 64 3b 97 23 da be ec cf 91 bc e1 be a1 be
       0.0034828857 -0.42605278 -0.01779934 -0.31590942
000260 51 9d 22 3d d9 79 13 3d ed 38 10 bc ae a9 71 3f
       0.03970081 0.036004875 -0.008802635 0.94399536
000270 21 d0 c8 3f 75 d5 e7 bc 8a 78 b2 bc 76 08 01 3d
       1.5688516 -0.028300026 -0.021785993 0.03150221
000280 a2 09 d8 3d 33 f0 ca bf 9b 18 9c 3f 73 d9 88 3f
       0.10548712 -1.5854553 1.2195009 1.069136
000290 04 3c b6 b8 a4 fb 67 3d f9 42 01 bf 2e e7 b1 3c
       -8.689615e-05 0.056636468 -0.5049282 0.02171668
0002a0 df bc 00 3f 94 4c 8b 3f 2d e2 3f bd bf 04 84 bf
       0.50288194 1.0882745 -0.046846557 -1.0313948
0002b0 01 cb 03 bd 0b 10 b1 3e ea f4 f5 3c e9 44 28 bf
       -0.03217602 0.34582552 0.03002401 -0.6573015
0002c0 3b 96 b0 bf ad ff 81 3e 9e fe 91 ba 51 4a b1 be
       -1.3795847 0.25390378 -0.0011138504 -0.3462701
0002d0 ba 57 eb 3d ba f4 a7 bf 22 d0 60 3d 85 d6 af bd
       0.11491342 -1.312156 0.05488599 -0.08585838
0002e0 26 69 02 3e b3 6b 71 3f d2 24 37 bf 11 56 69 3d
       0.12735423 0.9430496 -0.7154056 0.056966845
0002f0 1e 28 c1 3e 81 1e 44 3c 59 aa a4 3f e5 b6 04 3d
       0.3772592 0.011970163 1.2864486 0.032400984
000300 44 c7 1d c0 45 1d 96 bf bc 60 2b c0 06 b5 b4 bf
       -2.4652872 -1.1727682 -2.6777792 -1.4117744
000310 7c 58 3d bf c2 83 c8 bf e5 6d 83 bf 6a e8 f6 bf
       -0.7396314 -1.5665209 -1.0267912 -1.9289677
000320 43 f5 8f bf 2e 3e c9 bf c2 f4 c2 3f 5c ef bb bf
       -1.1246723 -1.5722101 1.5230944 -1.4682422
000330 df 34 8b bf ea a3 8a bf 84 6a 72 c0 06 43 a8 bf
       -1.087551 -1.0831273 -3.7877512 -1.3145454
000340 a0 55 bf 3f 6b 82 b2 bf 38 cb 53 bf 53 ad 2a c0
       1.4948006 -1.394605 -0.8273196 -2.6668289
000350 86 e3 99 bf 39 f4 1b c0 fb 1a 94 bf c2 2a 97 bf
       -1.202256 -2.4367812 -1.1570734 -1.1809924
000360 95 bf 6a bf 91 43 91 bf ef 52 96 bf ad 8a 44 c0
       -0.9169858 -1.1348745 -1.1744059 -3.070964
000370 11 31 6c c0 bf c1 b7 bf 72 92 ea bf a5 68 56 bf
       -3.6904948 -1.4356002 -1.8325942 -0.83753425
000380 1e 31 60 bf 75 13 18 c0 c6 68 28 c0 c0 ab 97 3f
       -0.87574947 -2.3761876 -2.6313949 1.1849289
000390 aa ce 5b bf bc 4f a5 bf 95 3e 8c bf 7c 8f 7e bf
       -0.8586222 -1.2914958 -1.0956599 -0.9943769
0003a0 3b e1 c2 bf 3a e3 89 c0 b9 11 b0 bf e8 b4 8b 3f
       -1.5224985 -4.3089876 -1.3755409 1.0914583
0003b0 80 9b cb bf ba f7 c3 bf c4 20 58 bf e1 42 fa bf
       -1.590683 -1.5309975 -0.84424996 -1.955166
0003c0 e4 a4 b0 3f 25 f9 66 bf 89 5e 8d bf f6 fe 89 bf
       1.3800321 -0.90223914 -1.1044475 -1.0780933
0003d0 e0 f9 cf bf 51 6c b4 3f 9a 7f d2 bf 01 bf 9a bf
       -1.6248131 1.4095556 -1.6445191 -1.208954
0003e0 eb c1 a2 bf 55 29 10 bf 3d b7 62 bf a5 3a ad bf
       -1.2715429 -0.5631307 -0.8856085 -1.3533522
0003f0 90 cb a6 bf 7d 6a d8 bf 25 85 b0 3f 85 7d 6a bf
       -1.3030872 -1.6907498 1.3790632 -0.9159778

weight_hh_l0_reverse f4 [256, 64]
000000 84 c3 50 3e dd 2a bf 3b 0e 91 4f 3f 7b dc bd bd
       0.20387083 0.005833967 0.8108071 -0.09270569
000010 9b e9 90 3d d0 31 30 bc 9d ec 8f be 82 40 0a be
       0.07075807 -0.010754064 -0.2811021 -0.1350117
000020 46 c4 f4 bd 3f 25 22 bc 2f 01 b0 be 4b e1 0a bd
       -0.11951499 -0.0098965755 -0.34375903 -0.033906262
000030 97 14 b3 3d a0 10 e4 bd a6 88 83 bf 21 5f 04 be
       0.087441616 -0.111359835 -1.0276077 -0.12926914
000040 bd e3 0f 40 84 b9 fc bd 9c 6b 38 bd 9a ed 76 3f
       2.248275 -0.12340072 -0.0450245 0.964563
000050 15 37 f5 3d 88 8e 08 3f 87 14 1e 3e e4 82 71 3b
       0.11973397 0.53342485 0.15437518 0.0036851699
000060 bf 35 3a 3e 38 58 2f 3d 57 8b 24 be c5 e3 c9 bf
       0.18184565 0.04280874 -0.16068779 -1.5772635
000070 dc f2 32 bf a1 22 2c 3d 65 96 77 bd 94 e8 26 be
       -0.69901824 0.042025212 -0.06044616 -0.16299659
000080 16 87 4a 3e 67 9c 99 3e b4 dd dc bc 8c fa 19 c0
       0.19778094 0.30002138 -0.026961185 -2.4059172
000090 e7 55 05 3e 0e ff 27 be b6 d4 1a 3e fb f9 a0 bd
       0.1302105 -0.1640589 0.15120205 -0.0786018
0000a0 38 0f ab bf 3f 4f b0 bf b8 5c ca 3d 61 3f e0 3f
       -1.3364019 -1.3774184 0.09880966 1.7519342
0000b0 76 2e da bc 31 85 0d 3d 85 6e 00 be 1a 37 c7 bd
       -0.026633482 0.03455085 -0.1254216 -0.09727307
0000c0 f3 ff 49 40 e3 3e bf bd 60 16 bc 3d 53 12 ba bd
       3.156247 -0.093381666 0.09183955 -0.09085526
0000d0 6e 38 d0 3d 4b 8e 28 40 41 ec 7b 3e 62 a0 74 bd
       0.10167013 2.6336849 0.24601842 -0.059723265
0000e0 69 b5 51 be ff 17 1f c0 eb ca 8f 3f 55 45 93 3c
       -0.20479359 -2.4858396 1.1233801 0.017977396
0000f0 52 13 65 be e8 db 1d 3e d1 67 44 c0 43 c9 b6 3a
       -0.22370651 0.15415919 -3.0688365 0.0013945479
000100 31 d0 0a be 74 dc cf bc b7 26 ef bd 2e fa b5 3d
       -0.13555981 -0.025373675 -0.11677306 0.088856086
000110 15 c4 a9 3d 32 43 15 3e 41 ef 1a 3d 1f e9 ff bc
       0.08289353 0.14576414 0.037825827 -0.03123909
000120 21 69 01 be 5a ef c3 bd 0c 3b 71 3c 70 fc d4 3d
       -0.1263776 -0.09567137 0.0147235505 0.10399711
000130 91 32 8c 3d 8b 31 94 bc 95 00 22 3e 33 ed 84 39
       0.06845582 -0.01809003 0.15820535 0.0002535373
000140 06 9d a9 3d 88 50 f1 bd 63 ba 8b 3c 09 cc 10 be
       0.08281903 -0.11782938 0.01705665 -0.14140333
000150 2d a3 13 3d 49 42 25 bd 4b ae f4 bd e4 1c bf 3d
       0.03604429 -0.040346418 -0.11947306 0.09331682
000160 10 74 32 3d 30 c1 19 bd 75 d2 77 ba 71 2f 35 bd
       0.043567717 -0.037537754 -0.0009453663 -0.044234697
000170 c3 44 87 3d 20 9a 9a bd 16 f2 da 3d e1 59 64 3d
       0.06604912 -0.07548928 0.106907055 0.055749778
000180 c9 c0 17 3e b1 66 d9 3d e7 e9 91 3b e2 0e 0d bd
       0.14819635 0.1061529 0.004452932 -0.03443802
000190 2f 02 0b bd d7 1a d6 3d b9 11 c7 3d a4 39 c0 3d
       -0.03393763 0.10454338 0.09720177 0.09385994
0001a0 3d 10 8c 3a 00 f2 ba 3d 91 95 5a bc bf 3f 27 3d
       0.0010685992 0.09128189 -0.0133413235 0.040832277
0001b0 63 21 64 bc 6e bc cd bd 41 4d c5 bc 9c 31 5e bd
       -0.013923976 -0.10045706 -0.02408469 -0.05424653
0001c0 f9 0c 86 bb 46 b1 56 3d 49 8b d3 bd 4f 0c 1a 3d
       -0.004090902 0.052415155 -0.10329301 0.037609395
0001d0 1b 97 f8 bd 3d 37 db bb ef 25 3d bc 99 7d ca 3b
       -0.12138196 -0.0066899345 -0.011544689 0.006179523
0001e0 a0 57 a1 3c 90 ae 3e 3d 73 b8 d4 bd ac c0 0f bd
       0.019695103 0.046553195 -0.103867434 -0.035095856
0001f0 b7 b9 bf 3d a7 75 29 3d 94 5a cf b9 30 34 29 bc
       0.09361594 0.041371968 -0.00039549603 -0.010327384
000200 f6 b2 fe bd 9a 50 43 bd 28 9f 08 bf 70 14 b5 bc
       -0.12436478 -0.04768429 -0.53367853 -0.022104472
000210 b7 5f ae 3d 7f 7b 44 bd 8e d9 09 bd b1 fc 26 bd
       0.0851435 -0.047969338 -0.033654742 -0.04076833
000220 55 82 d0 3c 24 a2 48 be 04 68 0e bf d0 7c b2 bd
       0.025452772 -0.19593102 -0.55627465 -0.08715212
000230 1f 74 92 bb ba fe 16 be 2c f6 4f be 42 5c 94 3d
       -0.004469409 -0.14745608 -0.20308751 0.07244159
000240 cc 5b 59 be eb 7e 59 3d 22 c2 79 3b ca d3 08 bf
       -0.21226424 0.053099554 0.0038110097 -0.53448164
000250 12 c5 95 3d 12 ef f6 bd f3 39 d7 bd 77 ce 6e 3e
       0.07312979 -0.12057318 -0.105091 0.23320948
000260 d7 e9 f6 3b ca 32 1b 3e 30 92 c8 bc 5f 8c 53 3e
       0.0075352 0.15156093 -0.02448377 0.20659016
000270 ae 3a df bd 90 a9 c1 3b 46 72 6e 3d 0e ef 90 bd
       -0.10899864 0.005910106 0.05821445 -0.07076846
000280 90 b9 a2 3d c2 2c 48 3e 0c bb ff be 46 05 b4 3f
       0.079455495 0.19548324 -0.49947393 1.4064109
000290 48 ca 9b 3b c8 7f ef bd e3 d9 48 be f1 5e 8e bc
       0.0047543384 -0.11694294 -0.19614367 -0.017379256
0002a0 1c da 94 be b1 74 2d 3f 41 9c fe 3c 0c 89 66 bf
       -0.29072654 0.6775618 0.031080367 -0.90052867
0002b0 8d 4a 2b 3e fb a2 2e 3d e5 25 cb 3c d9 75 5c 3d
       0.16727658 0.0426359 0.024798343 0.053823326
0002c0 59 02 26 bf fe 53 6d be f9 4b 1f be 2d 14 ca bd
       -0.6484733 -0.23176572 -0.15556325 -0.098671295
0002d0 25 ba c2 bd 8d 45 3b bf 81 fb 08 be 2f 30 be 3d
       -0.095081605 -0.73153 -0.13377191 0.09286534
0002e0 83 2e 05 3e 49 1f 06 3f 9c 66 10 bf ee 7f 1c 3d
       0.13006024 0.5239149 -0.5640657 0.03820794
0002f0 f1 3a 8c bb 09 14 11 be 8f 38 b9 3f 63 5e b4 bc
       -0.0042794873 -0.14167799 1.4470385 -0.022017663
000300 6e 3d 63 bd 9a 94 e3 3d f5 b0 09 be 00 de 44 be
       -0.055478506 0.11112328 -0.1344641 -0.19225311
000310 af e9 d8 bd 01 8e c7 3d a8 b5 b3 3e d4 8b 60 3c
       -0.105914466 0.09743882 0.3509953 0.013705213
000320 07 a1 f7 bc ba 4f cf bc 7d cd 0c be b2 59 18 3e
       -0.030228151 -0.025306571 -0.13750263 0.14877966
000330 8b 74 ce 3d 39 e4 49 3e 49 cf 38 3e a3 32 05 bd
       0.100808226 0.19715966 0.18047823 -0.032518994
000340 40 4b 6d bd 63 12 13 be 4c 8a b4 bd 54 60 ae be
       -0.057933092 -0.14362483 -0.088154405 -0.34057868
000350 1f 51 8d 3a 11 25 d2 be 90 fa 0a be ee 13 8e bd
       0.0010781622 -0.41043904 -0.13572145 -0.06937395
000360 ea 02 4c 3d 25 ab 42 bd f7 e8 b4 3d c2 30 79 3d
       0.049807467 -0.047526497 0.08833497 0.060837515
000370 ea 42 8a bd 52 80 d5 bd 9d 45 08 bd a0 35 13 3d
       -0.06751044 -0.10424866 -0.033269513 0.035939813
000380 d9 aa b8 3d 4d cb 0c 3b 3a 2f 52 3e 49 1f 81 3e
       0.090169616 0.0021483481 0.20525828 0.2521918
000390 8c e7 0c 3e 92 3b f5 bc 6b be c3 bd 69 f7 4f bd
       0.13760203 -0.029935632 -0.09557804 -0.050773058
0003a0 5c 8d ef 3d 8d 6c b1 3d a5 b4 65 3d 84 bd 9b be
       0.11696884 0.086632825 0.05608048 -0.30418026
0003b0 a7 79 9a bd fe cf 28 be a9 43 a9 bd bc 55 61 3d
       -0.075427346 -0.16485593 -0.08264858 0.055013403
0003c0 d8 cb 88 be 07 5e 0e 3e 63 17 17 be 9f 6d 8a 3d
       -0.2671802 0.13903056 -0.14755015 0.0675919
0003d0 06 22 61 bd 73 38 8b be 02 62 de bd fe de f3 bc
       -0.054964088 -0.27191505 -0.10858537 -0.029769417
0003e0 64 83 1f be 1a ce 1a 3e c4 34 2a be c1 bb db 3c
       -0.15577465 0.15117684 -0.16621691 0.026822926
0003f0 6e d9 4f 3e 2d 16 21 be 83 0f ac 3d 90 c8 6f bd
       0.20297787 -0.15731116 0.08401396 -0.05854088

bias_ih_l0_reverse f4 [256]
000000 c3 a9 19 bf 7d 7d b4 bf 88 93 c8 bd ae 37 c3 bf
       -0.6002466 -1.4100796 -0.09793764 -1.5251367
000010 8a b3 ab bf 3e a6 d8 bf 8a 0c 09 c0 75 3c e5 bf
       -1.3414166 -1.6925733 -2.1413903 -1.7909075
000020 99 36 be bf 32 1e d9 bf ec 9d 2e bf f8 04 e4 bf
       -1.4860412 -1.696234 -0.6820972 -1.7814016
000030 cd 88 c8 bf 71 8f bb bf b0 53 2e bf fe cc b1 bf
       -1.5666748 -1.465315 -0.68096447 -1.3890684
000040 f4 36 21 bf 2e 14 bd bf 56 56 b1 bf c9 cf 73 3e
       -0.62974477 -1.4771783 -1.3854473 0.23809732
000050 54 36 af bf 02 fb 9f bf d8 8e b6 bf 7f bf d7 bf
       -1.3688455 -1.2498477 -1.4262342 -1.6855315
000060 c2 8b d3 bf a0 c2 bb bf e6 62 ba bf 47 79 88 be
       -1.6527026 -1.466877 -1.4561431 -0.26655027
000070 18 7f 62 bf 38 95 bc bf b2 a1 cb bf 60 3a b6 bf
       -0.8847518 -1.4733038 -1.590872 -1.4236565
000080 18 10 e5 bf 3f ea 54 bf 97 0c 3a bf ff 59 7d bf
       -1.7895536 -0.8316993 -0.7267546 -0.9896545
000090 26 c7 c3 bf 1a f5 bc bf 7e a7 ee bf 26 77 a4 bf
       -1.529515 -1.4762299 -1.8644865 -1.2848861
0000a0 5a 57 01 bf 44 04 e1 bb 56 0c c7 bf 6b 59 5f bf
       -0.5052391 -0.0068669636 -1.555064 -0.87245816
0000b0 0e 69 ac bf f5 0e cb bf 55 83 b8 bf d3 50 e5 bf
       -1.346956 -1.586394 -1.4415079 -1.791529
0000c0 ed a6 e4 be cb c9 f8 bf 8f 1a b5 bf 38 bf c0 bf
       -0.44658604 -1.9436582 -1.414873 -1.5058355
0000d0 69 65 d7 bf 06 b8 45 bf 86 1d bc bf 43 9c c4 bf
       -1.6827823 -0.7723392 -1.469651 -1.5360187
0000e0 36 6d e1 bf 2b 5f af bf c6 de ff bf 79 cb b8 bf
       -1.7611454 -1.3700918 -1.998986 -1.4437095
0000f0 72 86 e8 bf 9b 4d cd bf 01 11 3c bf c9 6f cc bf
       -1.816603 -1.6039308 -0.73463446 -1.5971614
000100 14 9b ad 3f b8 84 75 bd 7a 64 91 3f c2 23 96 bc
       1.3562951 -0.059941024 1.1358788 -0.018327598
000110 57 a8 df bd 33 89 38 be c6 e8 43 be 52 e9 0a be
       -0.1092078 -0.18021087 -0.19131765 -0.13565567
000120 21 d7 2d be 26 9e 20 bd e8 76 d6 3d 6b a4 21 be
       -0.16976596 -0.039213322 0.10471898 -0.15785377
000130 a7 fd 17 be b5 ad 0c bd 4d b0 99 bf 4b 25 4b be
       -0.14842854 -0.034345347 -1.2006928 -0.19838445
000140 01 fd 24 bf 7b a7 48 be 9d d9 02 be 38 ca d4 3f
       -0.64448553 -0.19595139 -0.12778325 1.6624212
000150 56 66 e4 bd c3 7e 24 3f 15 c2 7d be 48 f6 e3 bd
       -0.111523315 0.64255923 -0.24781068 -0.11130959
000160 f5 93 38 be 35 a5 00 be e3 78 09 be 7f f0 bf 3f
       -0.18025191 -0.12563021 -0.13425021 1.4995269
000170 58 e5 f9 3e 5a c1 18 bd de 5b 3b be 66 49 8d bd
       0.48807788 -0.03729377 -0.18296763 -0.06898765
000180 ca 14 d3 bd 84 bb 8a 3f 1a 64 1b 40 60 72 dd 3e
       -0.103066996 1.0838475 2.4279847 0.43251324
000190 5b 31 60 be d3 45 a1 be fa f5 24 3f a0 91 39 bc
       -0.21893828 -0.31498584 0.6443783 -0.011326224
0001a0 14 f8 24 40 41 4f 95 3f 79 54 3b be a5 0d a6 bf
       2.5776415 1.1664811 -0.18293943 -1.2972914
0001b0 21 c0 91 be b9 2e 93 bc 2b 05 9f bd db 80 08 3e
       -0.28466895 -0.017966615 -0.077646576 0.13330404
0001c0 5a 4b 05 c0 08 94 15 bf 3b 08 82 be da e9 bd bb
       -2.082724 -0.58429 -0.25396904 -0.0057956995
0001d0 db ce 05 bd 04 6a 12 c0 24 29 50 be 8c 40 3e be
       -0.032667976 -2.2877207 -0.20328194 -0.1857931
0001e0 c1 45 59 3e be eb 17 40 30 82 35 3f f6 bb a0 be
       0.21218015 2.3737636 0.70901775 -0.31393403
0001f0 6c 9c 49 bd 8a 91 e0 bd ca 15 ac bf e5 30 8e be
       -0.04922144 -0.109652594 -1.344415 -0.2777168
000200 7d 4e 69 3f 7f 81 1e 3d c7 d6 06 40 61 85 49 3d
       0.9113539 0.038697716 2.106859 0.049199466
000210 0c be 76 bd 02 82 f0 3b bf 68 78 3d 84 33 1a 3d
       -0.060239837 0.007339717 0.06064677 0.037646785
000220 ba ab d9 3d 9a 39 ed 3e 40 3e 87 3e 74 18 1d 3e
       0.10628457 0.4633301 0.2641468 0.1534136
000230 c7 2f 93 3c 74 47 58 3c 43 aa e9 bf e0 c3 0e bd
       0.017967118 0.0132006295 -1.8255085 -0.03485477
000240 01 fe c2 3e 4d a5 30 bc ad e0 7b bb 70 0e b7 3f
       0.38084415 -0.010781598 -0.0038433478 1.4301281
000250 0f f0 5d 3d 2d 0e 3a 3f 55 7e 95 bb 9b ca b4 bd
       0.054184016 0.7267788 -0.004562179 -0.088277064
000260 f3 a5 ac bd 47 59 af bb a1 82 10 3c 55 63 81 bf
       -0.0843009 -0.005351219 0.008820207 -1.0108439
000270 2d cc c5 bf fb 2d 98 3b 78 fa 22 3d ae 91 f6 bc
       -1.5452935 0.004644153 0.039789647 -0.030098762
000280 4a 5d d7 3d 79 cb 15 3f a0 3f 36 be fc 4c b7 be
       0.1051584 0.585136 -0.17797709 -0.35800922
000290 10 f2 ec bc 78 dc 8a bd d4 7e db 3e 78 0c 30 3d
       -0.028924018 -0.06780332 0.428702 0.04298064
0002a0 d8 af f4 bd 3a 5e 00 c0 e1 09 86 3d 9b 2d 1c 3e
       -0.11947602 -2.0057511 0.06544853 0.15251772
0002b0 7b 57 d0 ba 76 3f c9 3c 6b 30 dd bb a4 23 3e be
       -0.0015895212 0.024566393 -0.0067501566 -0.18568283
0002c0 44 9a 5c 3e 46 77 9e 3e ec f9 13 3d e8 b4 0f 3e
       0.21543223 0.30950373 0.036127016 0.14033854
0002d0 62 dc e9 3c 26 99 c1 3a 5d 17 b1 3c 6d 95 8f 3d
       0.02854747 0.0014770373 0.021617586 0.070109226
0002e0 c2 53 23 bf 05 11 21 be b3 3f 5a 3e 93 4c bd 3b
       -0.6379968 -0.15729149 0.21313362 0.0057769506
0002f0 7e d9 9c bd 1e 29 eb bc 23 e4 d1 bd ed 3e b6 bb
       -0.07658671 -0.02870613 -0.10248592 -0.0055617006
000300 40 e1 33 bf d8 d4 bd bf 29 09 8c bd b5 3e d7 bf
       -0.7026558 -1.483058 -0.06837685 -1.6816012
000310 08 7e c0 bf aa fc c7 bf a6 85 ef bf 4c 4e dd bf
       -1.5038462 -1.5623982 -1.8712661 -1.7289519
000320 43 ae b9 bf 03 c8 d8 bf 85 75 eb be 97 f0 dc bf
       -1.4506305 -1.6936039 -0.45988098 -1.7260922
000330 cf 79 c1 bf fd 06 d2 bf b1 9b 04 bf 46 42 b6 bf
       -1.5115298 -1.6408383 -0.51800066 -1.4238975
000340 2c 21 01 bf 58 23 b5 bf 1a 96 c1 bf 58 2b 77 bf
       -0.5044124 -1.4151411 -1.5123932 -0.9655051
000350 c5 a2 c0 bf 00 95 b1 bf 2b 22 ba bf 73 91 f2 bf
       -1.5049673 -1.3873596 -1.4541677 -1.8950638
000360 a8 ff cc bf cc 69 a7 bf 61 b2 bf bf 34 34 15 bf
       -1.601552 -1.3079162 -1.4976312 -0.5828278
000370 95 b4 66 bf 98 16 a0 bf 48 70 c6 bf cc 0f c2 bf
       -0.90119296 -1.2506895 -1.5503016 -1.5161071
000380 70 ea cb bf 84 69 48 bf 9e 07 11 bf 08 9a 6c bf
       -1.593092 -0.78286004 -0.5665225 -0.92422533
000390 3c 6d c0 bf cf 23 c3 bf 83 3d f7 bf 2e 2f b7 bf
       -1.5033336 -1.5245303 -1.9315647 -1.4311273
0003a0 65 ed 5e be 92 9f 3c bf 3a 2a d4 bf 50 16 90 bf
       -0.21770246 -0.73680985 -1.6575387 -1.1256809
0003b0 05 92 bc bf 9a 8d be bf 5f 41 bd bf cb a7 ca bf
       -1.4732062 -1.4886963 -1.4785575 -1.5832456
0003c0 d4 4e c6 be ce 71 f6 bf 07 d6 b7 bf c5 47 cb bf
       -0.38732016 -1.925348 -1.4362191 -1.5881277
0003d0 9c e7 cd bf f5 7d 0e bf f5 57 b0 bf 61 98 c8 bf
       -1.6086307 -0.55660945 -1.3776842 -1.5671502
0003e0 4c 42 d1 bf 39 95 c1 be bc 91 0f c0 ee 44 b5 bf
       -1.6348357 -0.3780916 -2.24327 -1.4161661
0003f0 0e 9f ee bf 8b b5 cf bf 97 74 06 bf b0 17 b7 bf
       -1.864229 -1.6227278 -0.5252165 -1.4304104
