final_models/forecast_lstm_10.pt (torch, 557745 bytes, 20 tensors)

weight f4 [1, 30, 1]
0	0xbe245df5	-0.16051467
1	0x3c8eb6e0	0.017421186
2	0xbe1a7d87	-0.15086947
3	0xbd7b1017	-0.06129464
4	0xbc2e60aa	-0.010643164
5	0xbdfa7fa7	-0.12231379
6	0x3e321f25	0.17394693
7	0xbe22ec14	-0.15910369
8	0x3d543e3d	0.051817168
9	0x3e1fc982	0.15604213
10	0x3dffc8f3	0.124895
11	0x3d05f31b	0.032702547
12	0x3e367719	0.1781887
13	0xbd35bfe4	-0.044372454
14	0xbe10b89b	-0.14132921
15	0x3e23de10	0.16002679
16	0x3c54c4d1	0.012986378
17	0xbe14b53d	-0.14522262
18	0xbd683e53	-0.056700062
19	0xbdc9a191	-0.098452695
20	0xbded2b8c	-0.115805715
21	0xbe2fe002	-0.17175296
22	0x3af17ae3	0.0018423464
23	0x3cc75a0c	0.02433493
24	0xbe37b126	-0.1793867
25	0x3e1a42b4	0.15064508
26	0x3e16535d	0.14680238
27	0x3e29a92c	0.1656844
28	0xbd90425a	-0.070439056
29	0x3e20d838	0.15707481

weight_ih_l0 f4 [256, 1]
0	0xbe8c68db	-0.27423748
1	0x3e2fdc5f	0.17173909
2	0xbe1e20e8	-0.1544224
3	0x3ecf5cf4	0.40500605
4	0xbe6edd55	-0.23326619
5	0xbef3afd5	-0.47595087
6	0xbe8bc3e8	-0.27297902
7	0xbe429646	-0.19002637
8	0xbd869b50	-0.06572592
9	0xbee79e9b	-0.45238194
10	0xbdd5209a	-0.10406609
11	0xbe5dc4d3	-0.21657114
12	0xbf00f76d	-0.5037754
13	0xbdc792df	-0.0974481
14	0x3e4debff	0.20109557
15	0xbf160c83	-0.5861284
16	0xbea5467f	-0.32280347
17	0xbe48c991	-0.19608141
18	0xbe44ee0a	-0.1923143
19	0x3de6d544	0.11271146
20	0xbe840977	-0.2578847
21	0xbf3694d0	-0.7132082
22	0xbe93f23d	-0.2889575
23	0xbecf4794	-0.40484297
24	0xbe56ae96	-0.20965037
25	0xbf0386be	-0.51377475
26	0xbe9e9b49	-0.30977848
27	0x3cb4309a	0.021995831
28	0x3b2a7533	0.0026009798
29	0x3be87940	0.0070945323
30	0xbe9cceb8	-0.30626464
31	0xbee58b26	-0.44832724
32	0x3cd99460	0.026560009
33	0xbccfc1d5	-0.025360981
34	0x3e2d84a8	0.16945136
35	0xbceafe35	-0.028685668
36	0x3e316e4a	0.17327228
37	0xbe40a14d	-0.18811531
38	0xbe922945	-0.2854711
39	0xbdd8072f	-0.10548245
40	0xbf0ed94f	-0.55800337
41	0xbeedd7d0	-0.46453714
42	0x3d5fc2ad	0.054629017
43	0x3ca8e521	0.02061707
44	0xbea2de6f	-0.31810328
45	0xbded0e5e	-0.11575006
46	0xbe7a5ca9	-0.2444941
47	0x3e3dd111	0.18536784
48	0xbdc807c3	-0.097671054
49	0xbf258c3f	-0.64667124
50	0x3dcd1edd	0.10015652
51	0xbefa6870	-0.48907804
52	0xbe0a75d9	-0.13521518
53	0xbe467f08	-0.19384396
54	0xbbd5f175	-0.006529028
55	0xbd03b5ca	-0.03215579
56	0xbbd62655	-0.0065353313
57	0x3cc81a50	0.02442661
58	0xbe37f915	-0.17966111
59	0xbf32b3ee	-0.698058
60	0xbf1edc29	-0.6205469
61	0xbf3c13f4	-0.73467946
62	0xbf22dbaf	-0.6361646
63	0x3e04df67	0.12975846
64	0x3ea93e0a	0.33055145
65	0x3e4605cd	0.1933815
66	0x3e2d89c5	0.16947086
67	0xbf117cdd	-0.5683115
68	0xbe3de352	-0.18543747
69	0xbe22ad11	-0.15886332
70	0x3e25def1	0.16198327
71	0x3db92db3	0.090419196
72	0x3da5cc68	0.08095628
73	0xbecd053f	-0.40043065
74	0x3d5e388e	0.054253154
75	0x3d81a49e	0.06330226
76	0xbee1aa50	-0.4407525
77	0xbe5bdb93	-0.2147048
78	0x3e5b5f1e	0.21423003
79	0xbe2c26b4	-0.16811639
80	0x3d9fece6	0.07808857
81	0x3dc1058f	0.09424888
82	0xbe10b750	-0.14132428
83	0xbe74012c	-0.23828572
84	0xbd53cf4e	-0.051711373
85	0xbe83c99c	-0.25739753
86	0xbd9cd2d3	-0.07657399
87	0xbec21580	-0.37907028
88	0xbd0007d7	-0.031257477
89	0xbec11a1f	-0.3771524
90	0xbda1b083	-0.07894995
91	0xbe235591	-0.1595061
92	0x3d30d352	0.04317028
93	0x3d0b2192	0.033967562
94	0x3bd06a85	0.0063603544
95	0xbeb977a1	-0.36224082
96	0xbe3ce663	-0.1844726
97	0x3cf3b28e	0.029748227
98	0x3de095f1	0.10966099
99	0xbd280dc4	-0.041028753
100	0xbdafe210	-0.0858804
101	0xbde38934	-0.11110154
102	0xbb049b12	-0.002023403
103	0x3e429f62	0.19006112
104	0xbefeebba	-0.4978922
105	0xbec34708	-0.3814013
106	0x3e041c15	0.12901337
107	0xbcc9647a	-0.024584044
108	0x3cd3998c	0.025830053
109	0x3e201b8d	0.1563551
110	0x3e22ad36	0.15886387
111	0x3d909499	0.07059593
112	0x3e471921	0.1944318
113	0xbeb78f31	-0.35851434
114	0x3e920ae6	0.2852394
115	0xbdf42358	-0.11920804
116	0xbce1c06f	-0.02755758
117	0x3e42935a	0.19001523
118	0xbdef35b2	-0.116801634
119	0xbdd20ec8	-0.102567255
120	0xbe185ada	-0.14878407
121	0x3dfa514b	0.12222537
122	0xbe1bd10e	-0.15216467
123	0xbed2c722	-0.4116755
124	0xbeb2a140	-0.3488865
125	0xbe91c73f	-0.28472325
126	0xbe99cf35	-0.300409
127	0x3c83f1f8	0.01610659
128	0xbe63d72e	-0.22250053
129	0xbedccbee	-0.43124336
130	0xbe801f90	-0.2502408
131	0x3e74ecfd	0.23918529
132	0xbd93cddb	-0.07216998
133	0x3e9faae2	0.3118506
134	0x3dd294c2	0.102822796
135	0x3e85d022	0.26135355
136	0xbe221cd5	-0.15831311
137	0xbf16745f	-0.5877132
138	0xbe06552b	-0.13118427
139	0xbebba97c	-0.36652744
140	0x3f29c640	0.6631813
141	0xbf08cb0b	-0.5343482
142	0x3ec41e24	0.38304245
143	0x3e9252ba	0.2857874
144	0x3e8f3bf6	0.27975434
145	0x3e588362	0.21143869
146	0x3e562dcb	0.20915906
147	0x3e085037	0.1331185
148	0xbd75f411	-0.060047213
149	0xbe95559b	-0.29166874
150	0xbd07c7c0	-0.03314948
151	0xbf679256	-0.90457666
152	0xbdc13b7b	-0.09435173
153	0x3efef058	0.49792743
154	0xbd8dfe97	-0.06933325
155	0xbed05f5a	-0.40697747
156	0x3ed068a8	0.40704846
157	0x3eae5477	0.34048817
158	0xbdcd979d	-0.100386836
159	0x3ed6d621	0.41960242
160	0xbb9b5eeb	-0.0047415397
161	0x3edd31fb	0.43202195
162	0x3ecb5036	0.39709634
163	0x3e536c53	0.20646791
164	0xbc79cabe	-0.015246091
165	0xbd0ae9be	-0.03391432
166	0x3d9ff6ed	0.07810769
167	0xbe548a83	-0.20755963
168	0x3f3e5e04	0.74362206
169	0xbdae7a86	-0.08519463
170	0xbe9c041a	-0.3047188
171	0x3e99662c	0.29960763
172	0x3e891f2b	0.26781592
173	0xbdc5514e	-0.09634648
174	0x3e7a5d4e	0.24449655
175	0x3ed86257	0.42262527
176	0xbe93c5c4	-0.2886182
177	0x3eb74be3	0.35800084
178	0xbed90d4e	-0.42392963
179	0xbdbbb42e	-0.09165226
180	0xbecb7625	-0.39738575
181	0xbe5b307d	-0.21405216
182	0xbd42940f	-0.04750448
183	0xbdacd7ff	-0.084396355
184	0xbeb90b08	-0.3614123
185	0x3ee0af12	0.43883568
186	0x3f21a321	0.6313954
187	0xbe404d23	-0.18779425
188	0x3ebd79e5	0.3700706
189	0xbe9e87f9	-0.30963114
190	0xbe80fa5d	-0.25191012
191	0x3eda7531	0.42667535
192	0xbe2fe902	-0.17178729
193	0x3d1f64f8	0.03891465
194	0xbebc1093	-0.36731395
195	0x3f089e1d	0.5336626
196	0xbe483a77	-0.19553553
197	0xbf132317	-0.5747542
198	0xbeb2c035	-0.34912267
199	0xbd9210e9	-0.071321316
200	0xbe71f68f	-0.23629211
201	0xbf046ad0	-0.5172548
202	0xbe297377	-0.16547953
203	0xbe25ff69	-0.16210712
204	0xbf0c8a74	-0.5489876
205	0xbe03c406	-0.12867746
206	0x3e2a2d05	0.16618736
207	0xbeec3152	-0.46131378
208	0xbe402107	-0.18762599
209	0xbd8fdb14	-0.07024208
210	0xbe24e174	-0.16101629
211	0x3e3b0f03	0.18267445
212	0xbead489a	-0.33844453
213	0xbf032264	-0.5122435
214	0xbe84455a	-0.2583416
215	0xbec5df42	-0.38646895
216	0xbe62f4dd	-0.2216372
217	0xbf189e24	-0.59616303
218	0xbe7c9ce8	-0.2466923
219	0xbe147240	-0.14496708
220	0xbe05b336	-0.13056645
221	0xbd9ca3ef	-0.07648455
222	0xbeb94ef1	-0.3619304
223	0xbedc01b0	-0.42970037
224	0xbd849b19	-0.06474895
225	0x3e0ca18a	0.13733497
226	0x3e2f0b75	0.17094214
227	0xbd705692	-0.05867631
228	0x3ddfa81b	0.109207354
229	0xbeb5da4a	-0.35518104
230	0xbec0848c	-0.37601125
231	0xbe1f07f4	-0.15530378
232	0xbf12f51f	-0.57405275
233	0xbf03cdf9	-0.51486164
234	0xbd65d67a	-0.056112744
235	0xbe0663cc	-0.13124007
236	0xbf026f02	-0.50950634
237	0xbe8bbd11	-0.27292684
238	0xbe27f86b	-0.16403358
239	0x3e4b2bc8	0.1984092
240	0xbe129b7b	-0.14317124
241	0xbf60a482	-0.8775102
242	0x3dff7898	0.12474173
243	0xbf03c061	-0.5146542
244	0xbe0a0d71	-0.1348169
245	0xbee12c88	-0.43979287
246	0xbdc015f3	-0.093791865
247	0xbd8eb155	-0.06967417
248	0xbdd0d219	-0.10196323
249	0x3d9c2b59	0.076254554
250	0xbed702d8	-0.41994357
251	0xbf1de23e	-0.61673343
252	0xbf0f3c69	-0.55951554
253	0xbf2f70fb	-0.6853177
254	0xbf362d6e	-0.7116307
255	0x3d8b3a96	0.06798284

weight_hh_l0 f4 [256, 64]
0	0x3e289bef	0.16465734
1	0x3e2c2e23	0.16814475
2	0x3c406aa5	0.011744176
3	0x3db722a8	0.08942157
4	0x3cc1f4ee	0.023676362
5	0xbe6c2859	-0.23062266
6	0x3d155d83	0.036466133
7	0xbcd41fe3	-0.025894111
8	0xbd6c031c	-0.057620153
9	0x3d9a35a5	0.07529763
10	0xbdbde5f6	-0.09272377
11	0x3d7a2672	0.06107182
12	0xbd3921fa	-0.04519842
13	0x3e17a517	0.1480907
14	0xbd8d97fc	-0.06913754
15	0xbdb4f311	-0.08835424
16	0xbd8d9198	-0.069125354
17	0x3d9fc4c6	0.078012034
18	0xbd674f73	-0.056472253
19	0xbd8a1e11	-0.06744016
20	0x3daa3377	0.083105974
21	0x3dea6020	0.11444116
22	0x3b8a0c59	0.0042128977
23	0x3e2f9eb4	0.17150384
24	0xbb959024	-0.004564302
25	0xbcd76578	-0.026293501
26	0x3d4dc626	0.050237797
27	0x3e6533da	0.22383061
28	0xbe66e75c	-0.22549194
29	0x3c70f431	0.014706657
30	0x3d8bb280	0.068211555
31	0xbdd16613	-0.10224547
32	0xbd147cd4	-0.036251858
33	0xbe3f48a1	-0.1868005
34	0xbdd3e65b	-0.10346671
35	0xbdfe026b	-0.12402805
36	0xbe1cf35d	-0.1532721
37	0xbe1361ba	-0.14392748
38	0xbdf107da	-0.11769076
39	0x3d8c57f3	0.068527125
40	0xbd44ae38	-0.04801771
41	0x3d99e676	0.0751466
42	0x3e6046c0	0.21901989
43	0xbe5e29d7	-0.21695648
44	0xbd83b52d	-0.06431041
45	0x3d736d45	0.05943038
46	0xbdac4215	-0.08411042
47	0xbd5d7e63	-0.05407561
48	0x3e18c003	0.14916997
49	0x3d78a17e	0.060700886
50	0x3dcd5073	0.1002511
51	0xbce7ce79	-0.028296696
52	0x3d8c0462	0.068367735
53	0x3da60172	0.081057444
54	0x3ca7a47d	0.020464176
55	0xbe13860b	-0.14406602
56	0x3dd78e8a	0.10525234
57	0xbe27da1d	-0.16391797
58	0xbe7c44c3	-0.24635606
59	0x3d9a16c1	0.07523871
60	0xbdc423b2	-0.09577121
61	0x3e16f699	0.14742507
62	0x3dda8548	0.10669953
63	0xbdc03767	-0.09385567
64	0x3e1e7c78	0.15477169
65	0x3d60c607	0.054876354
66	0x3de1cdf8	0.110256135
67	0x3ead8f5e	0.33898443
68	0x3d6f4296	0.05841311
69	0x3c346470	0.011010274
70	0xbdb6b40b	-0.08921059
71	0xbe0d8dab	-0.13823573
72	0xbce864e4	-0.02836842
73	0x3df31a7a	0.118702844
74	0x3d97f2eb	0.0741938
75	0x3e8ee348	0.27907777
76	0xbe941360	-0.28921032
77	0x3e34fcbc	0.17674536
78	0xbe2de47f	-0.16981696
79	0xbe1290bc	-0.14313024
80	0x39a320c8	0.00031114207
81	0x3ca26cc8	0.019827262
82	0x3d9a52e6	0.07535343
83	0x3e1cb563	0.15303569
84	0x3e11b19f	0.14227913
85	0x3d7c3374	0.061572507
86	0x3c39cb99	0.011340045
87	0x3e94349a	0.28946382
88	0xbd833d41	-0.06408168
89	0xbe56c1c1	-0.20972349
90	0x3d958c05	0.07302097
91	0x3deada66	0.114674374
92	0xbcbc942f	-0.023019878
93	0xbe69ffcd	-0.22851487
94	0x3e34f65c	0.17672104
95	0xbe466e76	-0.19378075
96	0x3def926a	0.11697848
97	0xbda81009	-0.082061835
98	0xbd9c9510	-0.07645619
99	0x3d8d6895	0.06904713
100	0xbdcc3153	-0.09970345
101	0xbd11ab1b	-0.03556357
102	0xbe688dd0	-0.22710347
103	0x3d5aff4f	0.053466137
104	0xbe6be78c	-0.23037547
105	0x3db842e2	0.08997132
106	0x3dac9248	0.084263384
107	0xbda422f3	-0.080144785
108	0xbe40a86c	-0.18814248
109	0x3e49784a	0.19674793
110	0xbe0cab90	-0.13737321
111	0xbd2c034d	-0.041995335
112	0x3d57313a	0.05253718
113	0xbe36f6dc	-0.17867607
114	0x3b469412	0.003030066
115	0x3e3483a9	0.1762835
116	0x3e0acc49	0.13554491
117	0x3dc1df94	0.09466472
118	0xbe053f04	-0.1301232
119	0xbcdc5807	-0.026897443
120	0x3e213119	0.15741386
121	0xbd7eeaaf	-0.06223553
122	0xbe3c46d8	-0.183864
123	0x3de98b78	0.11403555
124	0xbe677fb0	-0.22607303
125	0x3dfb51dc	0.12271473
126	0xbda867dd	-0.08222935
127	0xbc8507d8	-0.016239092
128	0x3c0da776	0.008645883
129	0x3ddfd9b1	0.10930193
130	0x3dea7d86	0.11449723
131	0x3d8fd28b	0.0702258
132	0x3c5046f9	0.012712234
133	0xbd3f1b9b	-0.046657186
134	0xbcd66820	-0.026172698
135	0xbd47c995	-0.048776228
136	0x3c335ccc	0.0109474175
137	0x3e939aeb	0.2882913
138	0x3b76022d	0.0037537918
139	0x3e038027	0.12841855
140	0xbd2d2023	-0.042266976
141	0x3ea65387	0.324856
142	0xbd8e0f0e	-0.06936465
143	0xbdb6a5b9	-0.08918328
144	0xbd8a20a9	-0.06744511
145	0x3d4372d4	0.04771693
146	0x3da59fc0	0.080871105
147	0x3d70f770	0.058829725
148	0x3e31dee2	0.1737018
149	0x3dce6c8f	0.100793
150	0xbdee4b41	-0.11635447
151	0x3e796452	0.24354675
152	0x3d6a2d89	0.057172332
153	0xbe3b1efb	-0.18273537
154	0x3e186b17	0.14884602
155	0x3e7b9646	0.24569044
156	0xbdcabc14	-0.09899154
157	0xbd872dcf	-0.06600534
158	0x3e547f61	0.20751716
159	0xbe2907d4	-0.16506892
160	0x3cbea232	0.0232707
161	0xbdc9bec2	-0.09850837
162	0xbeadb657	-0.33928177
163	0xbddd60c2	-0.10809471
164	0xbe1dfd32	-0.15428618
165	0x3de9cb52	0.114157334
166	0xbe650c89	-0.22368063
167	0x3cb2d79c	0.021831326
168	0xbeac5e65	-0.33665767
169	0x3e6762dd	0.22596307
170	0x3e460fd8	0.19341981
171	0xbd595354	-0.053057984
172	0xbda20a25	-0.07912091
173	0x3e2f6e87	0.17132007
174	0xbca6c1f7	-0.020356162
175	0xbdd890cb	-0.10574492
176	0x3d3a877d	0.045539368
177	0xbe728db4	-0.23686868
178	0x3e0b0a0c	0.13578051
179	0x3d89f329	0.06735832
180	0x39e827ce	0.00044280145
181	0x3dd8dd46	0.105890796
182	0x3dacecee	0.08443628
183	0x3c03e3ec	0.008049946
184	0x3e37a346	0.17933378
185	0xbe8fbdeb	-0.28074583
186	0xbe5f10f9	-0.21783818
187	0xbd2d4af0	-0.042307794
188	0xbd3e70a8	-0.046494156
189	0x3b93d594	0.0045115445
190	0x3dc2cd8c	0.09511861
191	0xbe2ca628	-0.16860259
192	0x3e186e1a	0.1488575
193	0xbe4ccaf4	-0.19999295
194	0x3ce0731e	0.027398642
195	0xbdf4cd4f	-0.11953222
196	0x3db97163	0.0905483
197	0xbd532a73	-0.051554155
198	0xbca69445	-0.020334372
199	0xbe199185	-0.14996918
200	0x3e1e5120	0.15460634
201	0xbe93f1bd	-0.2889537
202	0xbe45dcf3	-0.19322567
203	0x3cd0e6fb	0.025500765
204	0x3d7ac963	0.061227214
205	0xbe0339f1	-0.12815072
206	0x3dd1b4ba	0.10239549
207	0xbcd903c9	-0.026491063
208	0xbd8d2d67	-0.068934254
209	0xbd97cb33	-0.07411804
210	0xbdb54cc0	-0.088525295
211	0xbcd74b66	-0.02628107
212	0x3de9337e	0.113867745
213	0x3dd08eb3	0.10183468
214	0x3d8f96c5	0.07011179
215	0xbe005679	-0.12532987
216	0x3e01dd75	0.12682135
217	0x3b186be5	0.002325767
218	0x3b584eff	0.003300607
219	0x3dc3c432	0.09558906
220	0x3d8981dc	0.06714222
221	0xbcbb5912	-0.02286962
222	0x3d214f28	0.03938213
223	0x3daa7c51	0.08324493
224	0xbe2258fb	-0.15854256
225	0x3de83ede	0.11340116
226	0x3e83d3de	0.2574758
227	0x3dd1fb7a	0.102530435
228	0xbd8baab5	-0.06819669
229	0x3ca19f0a	0.019729156
230	0xbe19e230	-0.1502769
231	0xbd709c98	-0.05874309
232	0x3dd008c8	0.10157925
233	0xbd2b7bd5	-0.041866142
234	0xbd6e3fac	-0.05816619
235	0x3ca552d3	0.020181095
236	0xbdf661ec	-0.12030396
237	0xbc7ab5d2	-0.015302138
238	0xbdc8c89d	-0.09803889
239	0x3dc0f0dc	0.0942094
240	0x3e06f9f2	0.13181284
241	0x3d4ec4b4	0.05048056
242	0xbdb2b6f0	-0.08726299
243	0x3db80545	0.0898538
244	0xbdd8628f	-0.105656736
245	0x3dd5413c	0.10412833
246	0xbd630f17	-0.055434313
247	0x3d58668c	0.05283217
248	0xbc7b4f30	-0.015338704
249	0x3e3193cd	0.17341538
250	0x3dbecde0	0.09316611
251	0x3d091807	0.03347018
252	0xbd801289	-0.06253535
253	0xbdc824a0	-0.09772611
254	0xbd3a531e	-0.045489423
255	0x3e44267f	0.1915531

bias_ih_l0 f4 [256]
0	0xbee058d7	-0.4381778
1	0xbcb30def	-0.02185723
2	0xbe6f22b2	-0.23353079
3	0x3d9e3b1e	0.077261195
4	0xbf07b29d	-0.5300692
5	0xbed666ac	-0.41875207
6	0xbefb35d8	-0.49064517
7	0xbeccea57	-0.40022537
8	0xbf261301	-0.6487275
9	0xbe1dcce6	-0.15410194
10	0xbf10f6f4	-0.5662682
11	0xbe4c51ca	-0.19953075
12	0xbe81535b	-0.25258908
13	0xbe4faacc	-0.20279998
14	0xbe37c15a	-0.17944852
15	0xbea26cc8	-0.31723619
16	0xbead7a1a	-0.3388222
17	0xbec814a3	-0.39078245
18	0xbea45299	-0.32094267
19	0xbea7f3de	-0.32803243
20	0xbf2af08a	-0.66773283
21	0xbedf3ee5	-0.43602672
22	0xbf1fc66e	-0.62412155
23	0xbceefe5e	-0.029174026
24	0xbf1b0950	-0.60561085
25	0xbecac73c	-0.3960513
26	0xbf2368b4	-0.6383164
27	0xbe7fbe4a	-0.24974933
28	0xbe27c18b	-0.16382425
29	0xbe3d4e78	-0.18486965
30	0xbf09d4fd	-0.5384062
31	0xbe91d6a3	-0.28484067
32	0xbf0d57eb	-0.5521228
33	0xbe0e43ba	-0.13893023
34	0xbd9a8de4	-0.07546595
35	0xbea5ce7c	-0.32384098
36	0xbea4155c	-0.32047546
37	0xbf1a50d3	-0.6027958
38	0xbf03b31e	-0.51445186
39	0xbecc3dfe	-0.39891046
40	0xbdd3e14e	-0.10345708
41	0xbef50418	-0.47854686
42	0xbebf1d3b	-0.3732699
43	0xbea6bb7c	-0.32564914
44	0xbe63e001	-0.2225342
45	0xbf1ff5d7	-0.62484497
46	0xbeef0a3b	-0.46687493
47	0xbd209197	-0.039201345
48	0xbeca1eb8	-0.39476562
49	0xbed7acff	-0.42124173
50	0xbe3df54f	-0.18550609
51	0xbf0e66d0	-0.5562563
52	0xbe13e595	-0.14443047
53	0xbec9bf1f	-0.39403626
54	0xbef386bc	-0.47563732
55	0xbf106d78	-0.56417036
56	0xbdff2f3b	-0.1246018
57	0xbe58dfe3	-0.21179156
58	0xbe713f84	-0.23559386
59	0xbf08bb2a	-0.5341059
60	0xbe65c3e7	-0.22438012
61	0xbe81feaf	-0.2538962
62	0xbf1d4f53	-0.61449164
63	0xbe535336	-0.20637211
64	0xbeba19c9	-0.36347798
65	0xbe134900	-0.14383316
66	0xbec76e10	-0.3895116
67	0xbf62e2f0	-0.8862753
68	0xbee945f9	-0.45561197
69	0xbe9255f9	-0.28581217
70	0xbeb9b5eb	-0.36271605
71	0xbeb2f819	-0.34954908
72	0xbe7c014f	-0.24609874
73	0xbecebd6f	-0.403789
74	0xbe7e8444	-0.24855143
75	0xbeb5f35f	-0.3553724
76	0xbe920b44	-0.2852422
77	0xbe6c6c69	-0.2308823
78	0xbe862f01	-0.26207736
79	0xbe9a2d66	-0.3011276
80	0xbedd03b5	-0.4316689
81	0xbe61eb6e	-0.22062466
82	0xbe475759	-0.19466914
83	0xbf014ed6	-0.5051092
84	0xbe99ab70	-0.3001361
85	0xbeb016b9	-0.34392336
86	0xbf097230	-0.5368986
87	0xbc973342	-0.018457059
88	0xbeeae01b	-0.45874104
89	0xbed96d53	-0.4246622
90	0xbe8ad651	-0.27116635
91	0xbe983229	-0.2972577
92	0xbe95b977	-0.2924306
93	0xbecbe767	-0.39824983
94	0xbecb204f	-0.39673087
95	0xbefc519c	-0.49281013
96	0xbed0805a	-0.40722924
97	0xbe8453f4	-0.258453
98	0xbe538db3	-0.20659523
99	0xbe77c534	-0.24196321
100	0xbefd5a8e	-0.4948315
101	0xbee31084	-0.44348538
102	0xbea2369a	-0.31682283
103	0xbe7e547d	-0.24836917
104	0xbe597291	-0.2123511
105	0xbf15fa8b	-0.58585423
106	0xbe7d7e52	-0.24755219
107	0xbec1016e	-0.37696403
108	0xbe7fbe91	-0.24975039
109	0xbec7ab5e	-0.3899793
110	0xbe6af1ef	-0.22943853
111	0xbe048e32	-0.12944868
112	0xbe9aee12	-0.30259758
113	0xbed7d96d	-0.4215807
114	0xbda34807	-0.079727225
115	0xbe8e2a67	-0.27766725
116	0xbe8d4082	-0.27588278
117	0xbe9203df	-0.28518578
118	0xbeedb6a2	-0.464284
119	0xbeed49d7	-0.46345398
120	0xbec516af	-0.3849387
121	0xbe51b38b	-0.20478646
122	0xbdfe8827	-0.12428313
123	0xbee3943b	-0.44449028
124	0xbe92943a	-0.28628713
125	0xbe88d3d2	-0.26724106
126	0xbece2888	-0.40265298
127	0xbdc80ebf	-0.097684376
128	0x3df7894b	0.120867334
129	0x3cfb10ed	0.03064772
130	0xbd8f0cfa	-0.06984897
131	0xbd977163	-0.07394674
132	0x3dc01c44	0.09380391
133	0x3bbdbc6a	0.005790283
134	0xbdc76828	-0.09736663
135	0xbdac1e8b	-0.08404263
136	0xbbcbd0c7	-0.0062199566
137	0x3d4dcb79	0.050242875
138	0x3ba6d0b5	0.005090798
139	0xbca657aa	-0.020305473
140	0xbbf80ac8	-0.0075696446
141	0x3dcf19d0	0.10112345
142	0xbd205009	-0.039138827
143	0xbd5b483b	-0.05353568
144	0xbd2eb1c3	-0.042649996
145	0x3cbbd1b8	0.02292715
146	0x3ccd9fe6	0.02510066
147	0xbcf5116f	-0.02991554
148	0x3d740ca6	0.059582375
149	0x3d319183	0.04335166
150	0x3d15bcf9	0.03655717
151	0x3dcca6b5	0.09992734
152	0xbcbfa335	-0.023393253
153	0xbcbc6374	-0.022996642
154	0x3bdc1cb4	0.006717289
155	0x3d8ed517	0.069742374
156	0xbc42a390	-0.011879817
157	0xbe04ba0a	-0.12961593
158	0xbd59b9e9	-0.053155813
159	0xbb946aee	-0.0045293486
160	0x3b917935	0.004439498
161	0xbbaa39b9	-0.0051948694
162	0xbd9e0560	-0.07715869
163	0xbd8cd70c	-0.068769544
164	0xbdd57e6c	-0.10424504
165	0x3d8ec669	0.069714375
166	0x3ceb9c63	0.028761094
167	0xbcbfb842	-0.02340329
168	0x3d20c063	0.039245974
169	0x3c6a651e	0.014306335
170	0x3d97392a	0.0738395
171	0xbd5c6409	-0.05380634
172	0xbd854d80	-0.065089226
173	0x3ccc7415	0.024957696
174	0xbdc4af31	-0.096037276
175	0xbd734ec3	-0.059401285
176	0x3c24f9fd	0.0100693675
177	0x3d65da9b	0.05611668
178	0x3df0b97f	0.117541306
179	0xbb1f3ab0	-0.0024296455
180	0xbb9142d4	-0.0044330154
181	0x3d0a5afa	0.03377817
182	0x3dd8b040	0.10580492
183	0x3d2db06a	0.04240457
184	0xbd5fad82	-0.05460883
185	0xbde05521	-0.10953737
186	0xbdb4b8d5	-0.088243164
187	0x3c855fe4	0.016281076
188	0x3cb459b6	0.022015434
189	0x3df2e35c	0.118597716
190	0x3d66b830	0.056328
191	0xbda459d7	-0.08024948
192	0xbee635fe	-0.44963068
193	0xbe4048a9	-0.18777718
194	0xbe7f4924	-0.24930245
195	0x3d81910c	0.063264936
196	0xbf31ed67	-0.6950287
197	0xbe7cfba6	-0.24705371
198	0xbf19e717	-0.6011824
199	0xbeaf9a61	-0.3429747
200	0xbedfd4bd	-0.43716994
201	0xbe174dc3	-0.14775757
202	0xbeebb8ce	-0.46039432
203	0xbe8b04e0	-0.27152157
204	0xbe82ce0e	-0.25547832
205	0xbdd7224d	-0.10504589
206	0xbeba8352	-0.36428314
207	0xbea313c3	-0.31851014
208	0xbe577f8f	-0.21044753
209	0xbecb58c5	-0.39716163
210	0xbefb7f13	-0.49120387
211	0xbe897bd0	-0.26852274
212	0xbed2c3c1	-0.41164973
213	0xbecd46e6	-0.40093154
214	0xbf1de96c	-0.616843
215	0xbd8ecc8d	-0.06972609
216	0xbf084184	-0.5322497
217	0xbe6d608d	-0.23181362
218	0xbf1997d1	-0.5999728
219	0xbebb3ae4	-0.36568367
220	0xbeb7b078	-0.35876822
221	0xbe8db579	-0.27677515
222	0xbefd6d0a	-0.49497253
223	0xbe9ae81b	-0.30255207
224	0xbef1a42c	-0.47195566
225	0xbde9b1db	-0.11410876
226	0xbdc01219	-0.09378452
227	0xbece545f	-0.40298745
228	0xbea99167	-0.33118746
229	0xbf2ca8b0	-0.67444897
230	0xbeea2c2c	-0.45736825
231	0xbef06d78	-0.46958518
232	0xbdaef82a	-0.08543427
233	0xbf1cb5c7	-0.6121487
234	0xbeb9530e	-0.36196178
235	0xbe1d67fa	-0.15371695
236	0xbea6d554	-0.3258463
237	0xbf176150	-0.5913286
238	0xbec8d52f	-0.39225146
239	0xbd1d30c3	-0.03837658
240	0xbed6c692	-0.41948372
241	0xbeccbbb8	-0.39986968
242	0xbdb606d5	-0.08888022
243	0xbf0dcf9c	-0.5539491
244	0xbe31c5cc	-0.1736061
245	0xbebb85bd	-0.36625472
246	0xbf28614c	-0.65773463
247	0xbee25053	-0.44201908
248	0xbeba421f	-0.3637857
249	0xbe0c28b8	-0.13687408
250	0xbdd3184e	-0.1030737
251	0xbf17e5eb	-0.593352
252	0xbe888f6f	-0.2667193
253	0xbed2b2c2	-0.41152006
254	0xbf0fca0d	-0.5616768
255	0xbcca396b	-0.024685582

bias_hh_l0 f4 [256]
0	0xbeaa4c37	-0.33261272
1	0xbe6093c1	-0.21931364
2	0xbe35e93f	-0.17764758
3	0xbb9befa8	-0.004758794
4	0xbf0f735c	-0.560354
5	0xbea2fc7c	-0.31833255
6	0xbf303a8c	-0.68839335
7	0xbe7aff26	-0.24511394
8	0xbeee6c2b	-0.465669
9	0xbe1bcc53	-0.15214662
10	0xbf104409	-0.56353813
11	0xbde7f3f1	-0.11325825
12	0xbea93169	-0.3304551
13	0xbe890dfe	-0.26768488
14	0xbe20fc21	-0.1572118
15	0xbed46bac	-0.41488397
16	0xbebee0f9	-0.37281016
17	0xbee72c86	-0.45151156
18	0xbeb19bbb	-0.34689125
19	0xbe014100	-0.12622452
20	0xbf04cbfa	-0.51873744
21	0xbea76e5e	-0.3270139
22	0xbf10e992	-0.566064
23	0x3d727405	0.059192676
24	0xbf2f7fb9	-0.68554264
25	0xbeb8e0ed	-0.36109105
26	0xbf11f5c4	-0.57015634
27	0xbe8672d5	-0.26259485
28	0xbe1836c6	-0.14864644
29	0xbe7ad026	-0.24493465
30	0xbf1b5fed	-0.60693246
31	0xbeeb10d2	-0.4591127
32	0xbf28cde6	-0.65939176
33	0xbdf653bd	-0.120276906
34	0xbdf56da1	-0.11983801
35	0xbe9f1724	-0.31072342
36	0xbed72137	-0.42017528
37	0xbf3051b1	-0.6887465
38	0xbf1c5fdc	-0.6108377
39	0xbe8fe942	-0.2810765
40	0xbd8928a5	-0.066972055
41	0xbf002726	-0.50059736
42	0xbe47b689	-0.19503225
43	0xbe8ce693	-0.27519664
44	0xbea3235b	-0.31862912
45	0xbf0ab5a1	-0.54183394
46	0xbeb81bc1	-0.35958675
47	0xbe3bdcb1	-0.18345906
48	0xbe9f4b03	-0.31111917
49	0xbe78e0e0	-0.24304533
50	0xbdcd7027	-0.10031157
51	0xbf127a7e	-0.5721816
52	0xbe97025b	-0.29493985
53	0xbe940813	-0.2891241
54	0xbf03be52	-0.5146228
55	0xbf33afd9	-0.701902
56	0xbe1943b9	-0.1496724
57	0xbe636fea	-0.2221066
58	0xbdc605e7	-0.096690945
59	0xbf032625	-0.5123008
60	0xbe9d44fc	-0.30716693
61	0xbe84376f	-0.25823542
62	0xbed70b3e	-0.42000765
63	0xbe815c2b	-0.2526563
64	0xbe152013	-0.14563017
65	0xbe9d2edc	-0.30699813
66	0xbe82ef6e	-0.25573295
67	0xbf4c8f77	-0.7990641
68	0xbebf4ea5	-0.3736469
69	0xbeabb1e1	-0.33534148
70	0xbeaa78ea	-0.33295375
71	0xbe63910f	-0.22223304
72	0xbe44ec3e	-0.19230744
73	0xbec687ec	-0.38775575
74	0xbe90cbd4	-0.2828051
75	0xbebc67db	-0.36797985
76	0xbeb1fe5e	-0.3476438
77	0xbe2e0702	-0.16994861
78	0xbeae600c	-0.34057653
79	0xbeb73aa7	-0.35786936
80	0xbee14ba6	-0.44003028
81	0xbe8764f4	-0.2644421
82	0xbe4d4096	-0.20044169
83	0xbf3ff5bc	-0.74984336
84	0xbea61834	-0.3244034
85	0xbece00a8	-0.40234876
86	0xbec2ad94	-0.38023055
87	0xbd57f1d1	-0.05272085
88	0xbe8b870d	-0.27251473
89	0xbecf3714	-0.4047171
90	0xbe941b91	-0.28927281
91	0xbedd0c52	-0.43173462
92	0xbe7448bc	-0.23855871
93	0xbed69ca9	-0.41916397
94	0xbeb79d09	-0.35861996
95	0xbe9fbd7c	-0.31199253
96	0xbf111573	-0.56673354
97	0xbe5c1ca2	-0.21495298
98	0xbdfc328a	-0.12314327
99	0xbe597f22	-0.21239904
100	0xbee9160f	-0.45524642
101	0xbec4c1a3	-0.38428983
102	0xbe80f08b	-0.2518352
103	0xbe051469	-0.12996067
104	0xbc53cecc	-0.012927722
105	0xbec49f4f	-0.38402793
106	0xbe70ebd2	-0.23527458
107	0xbe8c9ca0	-0.27463245
108	0xbeca37f0	-0.39495802
109	0xbe4b1e02	-0.19835666
110	0xbe567a5e	-0.20945117
111	0xbe569323	-0.20954566
112	0xbe79d6ac	-0.24398297
113	0xbecedd1e	-0.40403074
114	0xbe909591	-0.2823911
115	0xbebf9803	-0.37420663
116	0xbec11e20	-0.37718296
117	0xbe3d6db8	-0.18498886
118	0xbf04ac5f	-0.5182552
119	0xbf088b0a	-0.53337157
120	0xbea52512	-0.32254845
121	0xbe30668a	-0.17226616
122	0xbe63f7da	-0.22262517
123	0xbf1b34ef	-0.60627645
124	0xbea0b090	-0.31384706
125	0xbebc476a	-0.36773235
126	0xbebacf0f	-0.36486098
127	0xbe2d7c1a	-0.16941872
128	0xbd875088	-0.06607157
129	0x3da0cf8e	0.07852088
130	0x3e037282	0.1283665
131	0x3c8e2409	0.017351167
132	0xbd9c2110	-0.07623494
133	0xbd92cb24	-0.07167652
134	0x3d964285	0.07336906
135	0x3cb321d7	0.021866722
136	0x3d33b329	0.043872032
137	0x3c45f506	0.012082344
138	0x3cf55537	0.02994786
139	0x3dc02ce1	0.0938356
140	0xbd7fafd8	-0.062423557
141	0xbc697250	-0.014248446
142	0xbd7846b5	-0.060614306
143	0xbba6066d	-0.005066684
144	0xbca37de1	-0.019957485
145	0xbd9cfcd1	-0.076654084
146	0xbd9d8248	-0.07690865
147	0xbc0af09e	-0.008480219
148	0xbd50b448	-0.05095318
149	0x3c33fc7e	0.010985492
150	0xbced2cf7	-0.028952105
151	0xbcb9d25f	-0.02268332
152	0x3d46b780	0.048514843
153	0xbd5c7f89	-0.053832565
154	0x3bd66fcb	0.0065440885
155	0x3c411f30	0.011787221
156	0xbda000fd	-0.078126885
157	0x3d54dc94	0.051968172
158	0x3d9b4721	0.07581926
159	0xbd3f7821	-0.046745423
160	0xbb2820c5	-0.0025654298
161	0xbdb64c63	-0.08901288
162	0xbc97639c	-0.018480115
163	0x3c9dbc93	0.019254958
164	0x3dcdddbb	0.10052057
165	0xbd7dcf3d	-0.061965216
166	0xbd31df77	-0.043426003
167	0x3d986361	0.0744083
168	0xbe02fb3e	-0.12791154
169	0x3b2fe3b2	0.0026838598
170	0xbb4790e3	-0.003045135
171	0xbc71d832	-0.014761018
172	0x3b83a716	0.004017721
173	0xba45cd55	-0.00075455505
174	0x3d1cff99	0.038329694
175	0xbd49aef9	-0.049239133
176	0x3d5a3ace	0.053278737
177	0xbdf3e654	-0.11909166
178	0xbc8a075e	-0.016849216
179	0x3cbe4979	0.023228394
180	0x3dbb2cfb	0.09139439
181	0x3c8260d9	0.015915321
182	0xbdc04b3e	-0.09389351
183	0xbc9a545a	-0.01883905
184	0x3e0b5a8c	0.1360876
185	0x3cc82b8f	0.024434833
186	0x3b3cedf6	0.002882836
187	0x3c77e7ac	0.0151309185
188	0xbdb8bf72	-0.0902089
189	0xbd7a5114	-0.06111248
190	0xbc167dfa	-0.009185309
191	0xbd0ac519	-0.033879373
192	0xbef21c07	-0.47287008
193	0xbe4107b3	-0.18850593
194	0xbe9b3b95	-0.30318895
195	0x3d486d7d	0.04893254
196	0xbf0ae23c	-0.54251456
197	0xbe66e5a4	-0.22548538
198	0xbf27c5bc	-0.65536094
199	0xbeb0a6cc	-0.34502256
200	0xbf1f1761	-0.6214505
201	0xbe97f66e	-0.29680198
202	0xbf1b1a68	-0.6058717
203	0xbe18c57a	-0.14919081
204	0xbeb4afe9	-0.3529046
205	0xbd8d4b03	-0.06899073
206	0xbeb3c72d	-0.35112897
207	0xbe94820d	-0.2900547
208	0xbebd48c7	-0.36969587
209	0xbedee6e0	-0.4353552
210	0xbf05088d	-0.5196617
211	0xbeb2ebe2	-0.3494559
212	0xbf0f0a2f	-0.55874914
213	0xbee04a13	-0.43806514
214	0xbf066e82	-0.5251237
215	0xbafe58b4	-0.0019405098
216	0xbf0af2ab	-0.5427653
217	0xbedba86e	-0.4290194
218	0xbef17096	-0.4715621
219	0xbe9e05cd	-0.308638
220	0xbe56b6c7	-0.20968162
221	0xbe51b7f1	-0.20480324
222	0xbf1b5c43	-0.60687655
223	0xbecb79ec	-0.39741457
224	0xbf29db7c	-0.6635053
225	0xbe974cd3	-0.295508
226	0xbd471557	-0.048604336
227	0xbef94d83	-0.4869195
228	0xbebcc0e1	-0.36865905
229	0xbf39ed98	-0.72628164
230	0xbf164aac	-0.5870769
231	0xbeefa451	-0.4680505
232	0xbcadaf00	-0.02120161
233	0xbf14886f	-0.5802068
234	0xbe2e3b37	-0.17014776
235	0xbe539628	-0.20662749
236	0xbe28667b	-0.16445343
237	0xbf14bb5a	-0.58098376
238	0xbe84af45	-0.2591497
239	0xbd4e85b4	-0.050420478
240	0xbebc2047	-0.36743376
241	0xbec3699e	-0.38166517
242	0xbb950af3	-0.0045484244
243	0xbf15ef0d	-0.5856789
244	0xbe949dda	-0.2902668
245	0xbe9961b6	-0.2995736
246	0xbf2d42c5	-0.6768001
247	0xbefa4bf5	-0.48886076
248	0xbdf104d4	-0.11768499
249	0xbd8aa360	-0.067694426
250	0xbdc9f9fe	-0.09862135
251	0xbf2451bc	-0.64187217
252	0xbe7dd361	-0.24787666
253	0xbeb87e5b	-0.36033902
254	0xbf240867	-0.6407532
255	0xbd665100	-0.05622959

weight_ih_l0_reverse f4 [256, 1]
0	0x3e2981df	0.16553448
1	0x3e8f93be	0.28042406
2	0xbe0ca0af	-0.13733171
3	0x3e9ee22b	0.31031927
4	0x3ea639bd	0.32465926
5	0xbea59a7c	-0.32344425
6	0x3e5be26d	0.21473093
7	0x3ea0cbc8	0.31405473
8	0x3eae6b15	0.34066072
9	0xbdfe1cb7	-0.12407821
10	0xbdbb8d45	-0.091578044
11	0xbe149591	-0.1451018
12	0x3e67e7cb	0.22647016
13	0x3e0b5f4f	0.13610576
14	0xbdd117c9	-0.10209615
15	0xbf46d320	-0.776659
16	0x3ec2e2e8	0.3806374
17	0x3bfdd42b	0.0077462397
18	0x3e78b718	0.24288595
19	0x3ed1a19a	0.40943605
20	0x3e9ac940	0.30231667
21	0xbda61508	-0.0810948
22	0x3e9e3301	0.30898288
23	0x3ee3cc56	0.44491833
24	0x3eb41a4f	0.35176322
25	0x3e62298a	0.22086158
26	0x3e5abfc6	0.21362218
27	0x3e82c434	0.25540316
28	0x3e6f2952	0.23355606
29	0x3cf4bdda	0.029875685
30	0x3e73bc2a	0.23802248
31	0x3ed79cff	0.42111966
32	0x3e47d7b5	0.1951588
33	0x3e002137	0.1251267
34	0x3e46c1ef	0.19409917
35	0xbca70c3b	-0.020391574
36	0xbebc0322	-0.3672114
37	0x3ebb0939	0.36530474
38	0x3eb6ac08	0.35678124
39	0xbe21e9f0	-0.15811896
40	0x3e845fab	0.2585424
41	0x3e163fd4	0.14672786
42	0xbdb4d454	-0.08829561
43	0x3e7dd328	0.24787581
44	0xbb53d048	-0.003232019
45	0x3e12dcaa	0.14341989
46	0x3e8a1ec9	0.26976612
47	0xbe01a18f	-0.12659286
48	0x3e5cc371	0.2155893
49	0xbf12ba25	-0.57315284
50	0xbea7c946	-0.32770747
51	0x3e959425	0.29214588
52	0x3ec640ed	0.3872141
53	0x3e0c1edc	0.13683647
54	0x3e8dd519	0.27701643
55	0x3e87f5b6	0.2655465
56	0x3c4ccfe6	0.012500739
57	0x3d93cfae	0.07217346
58	0x3eb96314	0.36208403
59	0xbdc2f628	-0.09519607
60	0x3e7460fd	0.23865123
61	0x3d978919	0.07399196
62	0x3ea1c12c	0.3159269
63	0x3ea4c0cd	0.32178345
64	0xbe7073d2	-0.23481682
65	0xba152125	-0.0005688838
66	0x3d517fa8	0.051147133
67	0xbe036843	-0.12832741
68	0xbd5e2209	-0.054231677
69	0xbdbc6e97	-0.09200781
70	0x3de21c89	0.11040599
71	0x3e98b83a	0.29828054
72	0xbcac2310	-0.021012813
73	0x3e5df8ba	0.21676913
74	0x3dc2e3b0	0.09516084
75	0xbf4a9c9a	-0.79145205
76	0x3debdb79	0.115164705
77	0xbdc1063b	-0.094250165
78	0x3e51cfb9	0.20489396
79	0xbe3985b1	-0.18117405
80	0xbef9a020	-0.48754978
81	0xbee67fff	-0.45019528
82	0x3d571d99	0.05251846
83	0xbe7f0eb9	-0.2490796
84	0xbf3db9de	-0.74111736
85	0x3d93dcf1	0.072198756
86	0x3d420142	0.04736448
87	0x3da5cb60	0.08095431
88	0x3b9af99c	0.004729463
89	0xbdf40db7	-0.119166784
90	0xbe70c33a	-0.23511973
91	0x3db4ba4a	0.08824594
92	0x3d8622f0	0.065496325
93	0xbe135c9c	-0.14390796
94	0x3dfe6f7e	0.12423609
95	0xbde4be11	-0.11169065
96	0xbcfa8d98	-0.030585095
97	0x3e33ff65	0.17577894
98	0xbf2dbbe2	-0.6786481
99	0x3d7fb866	0.062431715
100	0xb926e140	-0.00015914906
101	0xbe0672fa	-0.13129798
102	0x3cbc6ebe	0.023002025
103	0xbebcdc14	-0.36886656
104	0xbf05940b	-0.5217902
105	0xbeef9c4c	-0.46798933
106	0x3e053d2e	0.1301162
107	0x3e0bf650	0.1366818
108	0xbe1a8a34	-0.15091783
109	0xbee36f0e	-0.44420666
110	0x3d4aa229	0.049471054
111	0x3e63f757	0.22262321
112	0xbe434bf3	-0.19071941
113	0xbe5cbe0c	-0.21556872
114	0x3e28069f	0.16408776
115	0x3e3a0911	0.18167521
116	0x3dba1806	0.09086613
117	0xbe186db8	-0.14885604
118	0xbe71b01e	-0.2360234
119	0x3d8ee607	0.06977468
120	0x3d0e04b6	0.03467246
121	0x3d23ea41	0.040018324
122	0x3dbdd23b	0.09268614
123	0x3e041aa0	0.12900782
124	0xbeace9b6	-0.33772057
125	0xbe876c6b	-0.26449904
126	0xbac597c5	-0.0015075138
127	0xbdc25076	-0.09488003
128	0x3e8d74c8	0.2762816
129	0x3ea507f3	0.32232627
130	0xbb5295c5	-0.0032132727
131	0x3eef54a7	0.46744272
132	0xbeda3ca9	-0.42624405
133	0xba47614c	-0.0007605746
134	0xbe928fa5	-0.28625217
135	0x3ecf9910	0.40546465
136	0x3ecb19f0	0.39668226
137	0x3b08dbe3	0.0020883016
138	0x3b9b9b5b	0.0047487444
139	0x3ec676ce	0.38762516
140	0xbee9db61	-0.45675185
141	0xbe5db4f7	-0.21651064
142	0x3b89fed7	0.0042112875
143	0x3aaac8cf	0.0013029816
144	0xbea24347	-0.31691954
145	0x3e96f827	0.294862
146	0x3e6f7442	0.23384193
147	0xbeb8d84a	-0.36102515
148	0x3ed13383	0.40859613
149	0xbb17e6ba	-0.0023178295
150	0x3ec96aba	0.39339238
151	0xbeaab7e2	-0.33343416
152	0xbeac6aad	-0.33675137
153	0x3eeb9f0c	0.4601978
154	0xbecd61a2	-0.4011355
155	0x3ebfd22b	0.37465033
156	0x3eeff822	0.46868998
157	0x3e510f9d	0.20416112
158	0x3e9ba16f	0.30396602
159	0xbee6ecfc	-0.4510268
160	0x3ecea164	0.40357506
161	0xbeadf726	-0.33977622
162	0x3eba601c	0.3640145
163	0xbea1c4d1	-0.31595472
164	0x3b3dbf17	0.002895301
165	0xbec6c0c4	-0.38818944
166	0xbed76afb	-0.42073807
167	0xbe53399d	-0.20627446
168	0xbece2daa	-0.40269214
169	0x3ed90016	0.42382878
170	0xbe14824e	-0.14502832
171	0x3edf7651	0.43644956
172	0x3b0c98dc	0.0021453416
173	0xbedd5796	-0.43230885
174	0x3ebdcd59	0.3707073
175	0xb9adf241	-0.00033177625
176	0xbe9ee793	-0.31036052
177	0xbb926795	-0.0044679143
178	0x3ad38184	0.0016136621
179	0x3eb3f889	0.35150555
180	0xbedd5c24	-0.4323436
181	0xbe9659ed	-0.29365483
182	0x3e62ee82	0.22161296
183	0xbee01bb6	-0.43771142
184	0xbb276f33	-0.0025548458
185	0xbe9c6b9d	-0.30550852
186	0x3ec8e3c8	0.39236283
187	0x3a657b4e	0.00087540306
188	0xbead782d	-0.3388075
189	0xbe8f3287	-0.27968237
190	0x3ec93015	0.39294496
191	0xbee52036	-0.44751137
192	0x3ea92cc9	0.3304198
193	0x3e8c7ae8	0.2743752
194	0xbba651a7	-0.0050756517
195	0x3e8ce714	0.2752005
196	0x3ee12112	0.43970543
197	0xbeaf8cd5	-0.34287134
198	0x3e304752	0.17214707
199	0x3ec76802	0.3894654
200	0x3e9343c3	0.28762636
201	0xbe92eeaa	-0.2869771
202	0x3d4c42b0	0.049868286
203	0xbd91b7a2	-0.07115103
204	0x3eda1624	0.42595017
205	0x3e645387	0.22297488
206	0xbe40e209	-0.18836226
207	0xbf0c5ade	-0.5482615
208	0x3ebc8fa9	0.36828354
209	0xbd8be8c2	-0.068315044
210	0x3e87d560	0.2652998
211	0x3eb9aeee	0.36266273
212	0x3e007e09	0.12548079
213	0xbd246131	-0.04013175
214	0x3e6853ce	0.22688219
215	0x3edc316b	0.43006453
216	0x3eb05ec6	0.34447306
217	0x3e9a91a6	0.30189246
218	0x3ea6a811	0.325501
219	0x3ecd36d6	0.400809
220	0x3e39b12b	0.1813399
221	0x3e1388f7	0.14407717
222	0x3e2bc6af	0.1677501
223	0x3ed80639	0.42192248
224	0x3e908d8c	0.28232992
225	0x3dbc6cdc	0.09200451
226	0x3e86962e	0.26286453
227	0x3e2d9a04	0.16953284
228	0xbe95ce89	-0.29259136
229	0x3e9fa9dd	0.31184283
230	0x3ea3e814	0.32013
231	0x3bfb5cc0	0.007670969
232	0x3e647562	0.22310403
233	0x3e8ea7f3	0.2786251
234	0x3daef989	0.08543689
235	0x3e9cebea	0.30648738
236	0xbda11632	-0.078655615
237	0x3e5381d2	0.20654991
238	0x3e8696e3	0.26286992
239	0xbeb947ef	-0.36187693
240	0x3e35fcf9	0.17772283
241	0xbf081886	-0.5316242
242	0xbde00cec	-0.10939965
243	0x3e0f38e9	0.13986553
244	0x3ec662ba	0.38747197
245	0x3e67ad57	0.22624718
246	0x3e6a2623	0.2286611
247	0x3ed2a9a8	0.41145062
248	0xbdcef59d	-0.10105441
249	0x3ca92706	0.02064849
250	0x3e723e0c	0.23656482
251	0xbe746501	-0.23866655
252	0x3e6e6271	0.2327974
253	0x3abf24e5	0.0014583139
254	0x3edcb773	0.4310871
255	0x3e8d5205	0.27601638

weight_hh_l0_reverse f4 [256, 64]
0	0x3d310e34	0.043226436
1	0xbd4844e3	-0.04889382
2	0xbe01ab0a	-0.12662902
3	0xbdb3be40	-0.08776522
4	0x3d1cb708	0.03826049
5	0x3cce0c74	0.025152422
6	0xbc531898	-0.012884282
7	0xbd248efb	-0.04017542
8	0xbe030bde	-0.12797496
9	0xbe317dce	-0.17333147
10	0xbc64fab6	-0.01397579
11	0xbd91714f	-0.0710169
12	0x3d44d501	0.0480547
13	0x3e109111	0.14117838
14	0x3cbb839c	0.022889905
15	0xbda92d99	-0.0826065
16	0x3d5806e6	0.052740954
17	0x3bdf6449	0.006817375
18	0xbdd87585	-0.1056929
19	0xbd9d8179	-0.076907106
20	0xbdf34092	-0.1187755
21	0xbde586f0	-0.11207378
22	0x3d3ab77c	0.04558514
23	0xbda64b6e	-0.08119856
24	0x3d161b7c	0.036647305
25	0xbd98bd48	-0.074579775
26	0x3d0cdbb6	0.03438922
27	0xbb712610	-0.0036796369
28	0xbbe68fc9	-0.0070361835
29	0x3abf5587	0.0014597633
30	0xbe1b54a0	-0.15169
31	0x3e19e0bd	0.15027137
32	0xbdcd6a1f	-0.100300066
33	0x3da33920	0.0796988
34	0x3da04cc2	0.078271404
35	0x3db65ff1	0.08905018
36	0x3ddc8dfe	0.1076927
37	0x3d9846c9	0.07435376
38	0x3e1bc944	0.15213495
39	0xbe16de04	-0.1473313
40	0x3dac6b7b	0.08418938
41	0x3bf84716	0.0075768335
42	0xbd3907be	-0.0451734
43	0x3d5b247c	0.05350159
44	0x3c00bfc8	0.007858224
45	0x3dfda81d	0.12385581
46	0xbd8048a5	-0.06263856
47	0xbd22d60a	-0.039754905
48	0x3d6b9b5c	0.05752121
49	0x3d924b5c	0.0714328
50	0x3c0cf41b	0.008603121
51	0x3d27f7c5	0.041007776
52	0x3e14981e	0.14511153
53	0x3d372a59	0.04471812
54	0xbe102c32	-0.14079359
55	0xbd4c7486	-0.049915813
56	0x3d972cf2	0.073816195
57	0xbcc48ac3	-0.023991948
58	0x3ce77656	0.02825467
59	0xbd05c6f8	-0.032660455
60	0x3d538508	0.05164054
61	0x3cab4f1f	0.020911751
62	0xbe07cdd7	-0.13262115
63	0x3c09aca8	0.008402981
64	0xbd60eac5	-0.054911394
65	0xbdf741b6	-0.1207308
66	0x3dc1a146	0.094545886
67	0xbd0b9574	-0.034078076
68	0x3cc3715a	0.023857761
69	0x3c706b32	0.014673995
70	0x3b146f79	0.002264945
71	0x3c6cea7f	0.014460205
72	0x3cd93af3	0.026517367
73	0x3addcea2	0.0016922543
74	0x3daf8a47	0.08571296
75	0x3ccce67c	0.025012247
76	0x3de92139	0.1138329
77	0xbdadec10	-0.08492291
78	0xbe148f85	-0.14507873
79	0xbda81e20	-0.08208871
80	0xbca07451	-0.019586714
81	0xbdcc8c68	-0.09987718
82	0xbd774f80	-0.06037855
83	0xbe082062	-0.13293603
84	0xbde915fb	-0.113811456
85	0xbde9ba3d	-0.11412475
86	0xbd6f2034	-0.05838032
87	0xbd42b922	-0.047539838
88	0x3dc6d1bb	0.09707972
89	0xbe06d9e9	-0.13169064
90	0xbcc0e8f9	-0.02354859
91	0xbd4a8cf8	-0.049450845
92	0x3cfc44c4	0.030794509
93	0xbd6bddd5	-0.057584602
94	0x3d3ae21b	0.045625787
95	0xbdb80ff2	-0.08987416
96	0x3d7022ec	0.058627054
97	0x3d3c8dae	0.046033554
98	0x3cf027e1	0.02931589
99	0xbcc22fa5	-0.02370436
100	0x3cebb7d5	0.028774181
101	0x3d6fafd7	0.058517303
102	0xbdc43e17	-0.09582155
103	0xbe031757	-0.12801872
104	0xbd472359	-0.048617695
105	0xbd9babd3	-0.07601132
106	0x3d709fc2	0.058746107
107	0xbc1b0e76	-0.009463897
108	0x3d918d7a	0.07107063
109	0xbd80ec51	-0.06295074
110	0x3c866874	0.016407229
111	0xbc6b8532	-0.014375018
112	0x3dd97461	0.10617901
113	0xbd638d02	-0.055554397
114	0xbd804582	-0.062632576
115	0x3c642227	0.013924158
116	0xba94dc4f	-0.0011357161
117	0xbd85e35a	-0.065375045
118	0x3dce1ffd	0.10064695
119	0x3d94b278	0.07260603
120	0x3d0d93ee	0.034564905
121	0xbd087a39	-0.033319686
122	0xbd4368cc	-0.047707364
123	0x3d83de2e	0.06438862
124	0xbe089813	-0.13339262
125	0x3d5986eb	0.053107183
126	0xbdfae2e3	-0.122503065
127	0xbd1fc316	-0.039004408
128	0xbd9ad21f	-0.07559609
129	0xbde4484d	-0.11146603
130	0xbe31346b	-0.17305152
131	0xbca1e7f9	-0.019763933
132	0x3b6d8c44	0.0036246935
133	0xbd255715	-0.04036625
134	0x3df12eaf	0.11776482
135	0xbd65aefe	-0.05607509
136	0xbe13c878	-0.14431942
137	0xbdde3d40	-0.10851526
138	0xbd3dce24	-0.04633917
139	0x3e0160f6	0.12634644
140	0xbc802d23	-0.015646523
141	0x3dc221df	0.09479117
142	0x3cffc8f7	0.031223757
143	0xbcee1811	-0.02906421
144	0xba22899e	-0.0006200316
145	0x3d2fe82e	0.042946033
146	0x3d9957a4	0.07487419
147	0xbd3dbe34	-0.04632397
148	0x3cdc9e23	0.026930874
149	0x3db29df3	0.08721533
150	0xbd0f7e6a	-0.035032667
151	0xbc9edded	-0.019392932
152	0x3cb32aef	0.021871058
153	0x3db25b52	0.08708824
154	0xbdd4ff62	-0.10400273
155	0xbd15891a	-0.036507703
156	0x3cd236dc	0.025660925
157	0xbe0c74fd	-0.13716502
158	0x3d2c13dd	0.04201113
159	0xbc811ef8	-0.015761837
160	0x3ce07f2f	0.027404396
161	0x3d044332	0.032290645
162	0xbd90c60c	-0.070690244
163	0x3d8d1441	0.06888629
164	0x3cea8ad6	0.028630655
165	0x3ca54882	0.020176176
166	0x3d23094c	0.039803788
167	0xbe0b1cb0	-0.13585162
168	0xbcfafedf	-0.03063911
169	0x3cbe06a6	0.02319653
170	0xbd3abf16	-0.04559239
171	0xbdfde657	-0.123974495
172	0x3dedb478	0.11606687
173	0xbd358f9a	-0.044326402
174	0xbe2081e8	-0.15674555
175	0x3dd6627b	0.104680024
176	0x3dc2d9fd	0.09514234
177	0x3e0e89f7	0.13919817
178	0xbddfa9e4	-0.10921076
179	0xbdaed5b2	-0.08536853
180	0x3d64f99d	0.055902112
181	0xbbf5b126	-0.0074979244
182	0x3d273b0b	0.040827792
183	0xbde8078d	-0.11329565
184	0x3e2da1f6	0.16956314
185	0x3e08d80b	0.13363664
186	0x3c77f8a3	0.015134963
187	0xbd800c7a	-0.0625238
188	0xbd74b93b	-0.059746962
189	0xbdaf2ff5	-0.08554069
190	0xbd0594de	-0.032612674
191	0xbbeafd02	-0.007171274
192	0x3d9a9393	0.07547679
193	0xbe157033	-0.14593582
194	0xbde88a2a	-0.11354478
195	0xbdccd6fd	-0.10001943
196	0x3dbe6351	0.09296287
197	0x3d4c88ce	0.049935155
198	0x3e25b744	0.16183192
199	0xbcc26535	-0.0237299
200	0x3d49e4e1	0.04929054
201	0xbd1369db	-0.035989624
202	0xbd0f7a67	-0.03502884
203	0x3c27c189	0.0102390135
204	0x3e45a1bc	0.19299978
205	0x3ddca60b	0.10773858
206	0xbad5573f	-0.0016276612
207	0xbe2cbaa1	-0.16868068
208	0x3c5ccc7f	0.01347649
209	0x3cd3b969	0.025845246
210	0x3da7743e	0.08176468
211	0x3d6abf5e	0.05731141
212	0xbe1a91af	-0.15094636
213	0xbcca7181	-0.024712326
214	0xbd5ed7a3	-0.054404866
215	0xbc995c28	-0.018720701
216	0xbe07233a	-0.13197032
217	0xbddcba39	-0.10777707
218	0x3e0a87a7	0.1352831
219	0xbde20521	-0.110361345
220	0xbdad3723	-0.08457782
221	0xbad99bf3	-0.0016602263
222	0xbda37410	-0.079811215
223	0xbbe49933	-0.0069762706
224	0xbd3ede98	-0.046599
225	0x3dbcf6f3	0.09226789
226	0x397ca4ba	0.00024093958
227	0x3d236c03	0.03989793
228	0xbd43b907	-0.047783878
229	0x3c3a16c3	0.011357966
230	0x3e446255	0.19178136
231	0xbce0a86f	-0.027424065
232	0x3d4d42af	0.050112423
233	0x3d5992c0	0.053118467
234	0x3cc74895	0.024326602
235	0xbe0ab48b	-0.13545434
236	0x3ddf8c3d	0.1091542
237	0x3e210fd9	0.15728702
238	0xbe0195de	-0.12654826
239	0x3cc3b7b0	0.0238913
240	0x3dbcf348	0.0922609
241	0x3b86ac77	0.004109915
242	0xbcd93cc8	-0.02651824
243	0xbdbdcb4c	-0.092672914
244	0x3d3d4aaa	0.046213783
245	0x3d97f024	0.0741885
246	0xbdb5908b	-0.0886546
247	0x3e3c8ad3	0.18412332
248	0x3df566e5	0.11982516
249	0xbdc284cb	-0.094979845
250	0xbd9fd575	-0.078043856
251	0xbd7f502a	-0.06233231
252	0xbdd26365	-0.10272864
253	0x3d25022e	0.04028528
254	0xbe09b0a1	-0.13446285
255	0x3b82bafb	0.003989575

bias_ih_l0_reverse f4 [256]
0	0xbe38f7d4	-0.18063289
1	0xbdfc7910	-0.12327778
2	0xbf16b53f	-0.5887031
3	0x39a39837	0.00031203192
4	0xbd61b6ca	-0.05510596
5	0xbf0630f2	-0.52418435
6	0xbe211af5	-0.1573294
7	0xbdb61452	-0.088905945
8	0xbdee5f91	-0.116393216
9	0xbed11422	-0.40835673
10	0xbedf0dca	-0.43565208
11	0xba034b21	-0.00050084485
12	0x3e208ad5	0.1567796
13	0xbe9c199d	-0.3048829
14	0xbf125eab	-0.571757
15	0xbf09d435	-0.5383943
16	0xbda1165e	-0.07865594
17	0xbe7c9a58	-0.24668252
18	0xbe88d741	-0.26726726
19	0xbda089fe	-0.0783882
20	0xbd21182a	-0.039329685
21	0xbf0f9cbc	-0.5609853
22	0xbddb4038	-0.10705608
23	0xbe7399be	-0.23789117
24	0xbc75b25c	-0.0149961375
25	0xbd7395f0	-0.059469163
26	0xbd27520a	-0.040849723
27	0xbdc9327c	-0.09824082
28	0xbd535a4e	-0.051599793
29	0xbeaa67ec	-0.3328241
30	0xbe24f41f	-0.1610875
31	0xbc1b5b75	-0.009482254
32	0xbddebf83	-0.10876372
33	0xbe70e475	-0.2352465
34	0xbc906b71	-0.017629357
35	0xbe9edc0f	-0.31027266
36	0xbf1a6486	-0.60309637
37	0xbe039190	-0.12848496
38	0x3c8465f2	0.016161893
39	0xbe889c0f	-0.26681563
40	0xbdb61f3d	-0.08892677
41	0xbd242639	-0.040075514
42	0xbeaf6a92	-0.34260994
43	0x3da6920a	0.081333235
44	0xbf174a36	-0.5909761
45	0xbc100e19	-0.008792424
46	0xbe1def0b	-0.15423219
47	0xbec00254	-0.37501776
48	0xbe656fc8	-0.22405922
49	0xbedc8671	-0.4307132
50	0xbee9bad4	-0.4565035
51	0xbd93e4c0	-0.07221365
52	0x3cdcf426	0.026971888
53	0xbe2f9ff0	-0.17150855
54	0xbe6611cb	-0.22467725
55	0xbdf1f068	-0.11813432
56	0xbf0f6260	-0.56009483
57	0xbdb34041	-0.0875249
58	0xbc2aa717	-0.010415814
59	0xbf225149	-0.6340528
60	0xbd52933c	-0.051409945
61	0xbe8d0217	-0.27540657
62	0x3c898dfd	0.016791338
63	0xbe44b597	-0.19209896
64	0xbdcbece2	-0.09957291
65	0xbd2673b5	-0.04063769
66	0xbe7c421f	-0.24634598
67	0xbd805bea	-0.06267531
68	0xbe52e325	-0.20594461
69	0xbe7949dd	-0.24344583
70	0xbe137cbc	-0.14403051
71	0xbe4a4575	-0.19753058
72	0xbe364e28	-0.17803252
73	0xbe6b1ffb	-0.22961418
74	0xbc6ea05f	-0.014564603
75	0xbe0454dd	-0.12922998
76	0x3d39c723	0.045355927
77	0xbe5f721b	-0.21820872
78	0xbe7f8a69	-0.24955143
79	0xbe21fbd4	-0.15818721
80	0x3c94bfa8	0.018157795
81	0xbe4c9962	-0.19980386
82	0xbe5d09b4	-0.21585733
83	0xbcd4e8a0	-0.02598983
84	0xbe21b1d2	-0.1579049
85	0xbdad86af	-0.084729545
86	0x3c2bb1e5	0.010479425
87	0xbe3b96d3	-0.18319254
88	0xbe5818d1	-0.21103217
89	0xbd520403	-0.051273357
90	0xbda47e8e	-0.08031951
91	0xbe7cbb51	-0.2468083
92	0xbd96182a	-0.07328828
93	0xbe43f257	-0.19135414
94	0xbe067c27	-0.13133298
95	0xbe287d3f	-0.16454028
96	0xbe2fb19f	-0.17157601
97	0xbe543fe5	-0.20727499
98	0xbd99d3cf	-0.075111024
99	0xbe8da175	-0.27662244
100	0xbe8ddb52	-0.2770639
101	0xbe0af263	-0.13569026
102	0xbe2f485e	-0.1711745
103	0xbebc6c67	-0.36801454
104	0xbe30b945	-0.17258175
105	0xbb82299a	-0.0039722444
106	0xbc2bdd31	-0.010489748
107	0xbe19f135	-0.1503342
108	0xbe614ae9	-0.22001232
109	0x3d657bb2	0.05602617
110	0xbe018aa5	-0.12650545
111	0xbd8f05bf	-0.06983518
112	0xbe3d7d0e	-0.18504736
113	0xbe00b5eb	-0.12569396
114	0xbe8373a2	-0.25674158
115	0xbdbe1e44	-0.092831165
116	0x3d5c8675	0.053839166
117	0xbe63e052	-0.2225354
118	0xbdee124f	-0.11624586
119	0xbc99b9c9	-0.018765347
120	0xbc35f641	-0.011106075
121	0xbe16ab5b	-0.14713804
122	0xbd995a56	-0.07487933
123	0x3d622c14	0.055217817
124	0xbe060851	-0.1308911
125	0xbe7e1fff	-0.24816893
126	0xbd15f8b5	-0.03661414
127	0xbcb79911	-0.022411855
128	0xbd87404c	-0.066040605
129	0xbe0bfcaf	-0.1367061
130	0xbca98da5	-0.020697424
131	0xbd5651c1	-0.05232406
132	0x3cd88803	0.026432043
133	0x3c3545c3	0.011063996
134	0x3d9467c2	0.07246353
135	0xbdd4f31c	-0.10397932
136	0x3c6de49f	0.01451984
137	0xbd15c755	-0.03656705
138	0x3c3e5c89	0.011618742
139	0xbe20975a	-0.15682736
140	0x3e229fa6	0.15881214
141	0x3c4b8225	0.012421166
142	0x3d27b68e	0.040945582
143	0xbd97798e	-0.073962316
144	0x3dd0169e	0.10160564
145	0x3b687ea7	0.0035475881
146	0xbbf10914	-0.0073558185
147	0x3d7c7513	0.06163509
148	0xbd4e7904	-0.05040838
149	0x3cd472fa	0.025933731
150	0xbc42653b	-0.011864956
151	0x3ce1940e	0.027536418
152	0xbc038e6f	-0.008029564
153	0xbd1af8b7	-0.03783485
154	0x3dc3c1cb	0.095584475
155	0xbdc60e50	-0.09670699
156	0xbd7d0fee	-0.06178277
157	0xbe0145ed	-0.12624331
158	0xbdfc1f32	-0.123106375
159	0x3de8efcf	0.11373865
160	0xbd61b9e4	-0.05510892
161	0x3d7c7310	0.06163317
162	0xbd3c13cc	-0.045917317
163	0x3cb13ddf	0.021635948
164	0x3ca10d63	0.019659704
165	0x3dd79b71	0.10527695
166	0x3e03d6bc	0.12874883
167	0x3d16055d	0.03662621
168	0x3e22eb22	0.15910009
169	0xbe13f29b	-0.14448015
170	0x3d9c2756	0.0762469
171	0xbdc121c3	-0.09430268
172	0x3baffd6c	0.0053707864
173	0x3e3ad512	0.18245342
174	0xbd688b2a	-0.056773342
175	0x3c12a657	0.008950791
176	0x3aa0e1f9	0.0012274376
177	0x3b8731a8	0.0041257925
178	0x3cf46653	0.029833948
179	0xbd5f2931	-0.054482643
180	0x3d33da97	0.043909635
181	0x3d7332cc	0.059374616
182	0xbdac03b8	-0.08399147
183	0x3cae3321	0.021264615
184	0x3d9968cb	0.07490691
185	0x3d9cfca8	0.07665378
186	0xbe189fd7	-0.14904724
187	0xbd547e9d	-0.05187856
188	0xbc27eafa	-0.010248894
189	0x3d8b55fb	0.06803509
190	0xbd12a0a7	-0.03579774
191	0x3d83ca5b	0.064350806
192	0xbe84c7a4	-0.25933564
193	0xbc882e8c	-0.016623758
194	0xbf2d51ee	-0.6770314
195	0x3dab242b	0.08356508
196	0x3d59ee04	0.053205505
197	0xbf00cac2	-0.50309384
198	0xbddfe414	-0.10932174
199	0xbdff2ac3	-0.12459328
200	0xbd7eb9ff	-0.0621891
201	0xbebe3927	-0.3715298
202	0xbed395e5	-0.41325298
203	0xbdb11160	-0.08645892
204	0xbd194374	-0.037417844
205	0xbe728f7f	-0.23687552
206	0xbf074e0a	-0.52853453
207	0xbf036a8d	-0.5133446
208	0xbddf67bf	-0.1090846
209	0xbdf9fed5	-0.122068085
210	0xbe000775	-0.12502845
211	0xbb03b1d2	-0.0020095003
212	0x3c06d825	0.008230244
213	0xbf303b48	-0.68840456
214	0xbd4ab7b2	-0.04949159
215	0xbe13d388	-0.14436162
216	0xbe4b5ea7	-0.19860326
217	0x3d5105f4	0.051031068
218	0x3c5a7554	0.013333637
219	0xbe4d2280	-0.20032692
220	0xbde408f5	-0.11134521
221	0xbedccef0	-0.4312663
222	0xbc865a0d	-0.016400361
223	0xbd94d763	-0.07267644
224	0xbe4370ca	-0.19085994
225	0xbe7777f4	-0.24166852
226	0xbe2a40b6	-0.16626248
227	0xbda51327	-0.08060294
228	0xbf21c287	-0.6318745
229	0xbc91302b	-0.017723164
230	0xbe13e492	-0.14442661
231	0xbe64a6db	-0.22329275
232	0xbd2d39be	-0.042291395
233	0x3d8029d5	0.06257979
234	0xbeb0a2f9	-0.34499338
235	0xbe1aa501	-0.15102006
236	0xbf282c55	-0.65692645
237	0x3d671711	0.056418482
238	0xbe60fde8	-0.21971858
239	0xbf00feec	-0.5038898
240	0xbe7ca085	-0.24670608
241	0xbefbf523	-0.49210462
242	0xbed030a1	-0.406621
243	0x3caf6946	0.021412503
244	0x3dbe55d6	0.09293716
245	0xbe8daf8e	-0.27673
246	0xbea5a04d	-0.32348862
247	0x3d3a9f70	0.045562208
248	0xbeef72ad	-0.46767178
249	0xbe6b7119	-0.22992362
250	0xbcf30bd2	-0.029668722
251	0xbf14fc3e	-0.5819739
252	0xbc3694e3	-0.011143896
253	0xbe77ca22	-0.24198201
254	0x3d6a08c3	0.057137262
255	0xbda09658	-0.07841176
