final_models/forecast_gru_10.pt (torch, 421664 bytes, 19 tensors)

weight f4 [1, 30, 1]
0	0xbdb23b55	-0.08702723
1	0xbcce99c7	-0.025219811
2	0xbe26f6cd	-0.16305085
3	0x3db852aa	0.09000142
4	0x3e0d016f	0.13770078
5	0xbe1edd0d	-0.15514012
6	0xbdaa3adf	-0.0831201
7	0x3c444857	0.011980138
8	0xbd2d8244	-0.04236056
9	0xbd281c92	-0.04104287
10	0xbd18b3f1	-0.03728098
11	0x3d8b8930	0.06813276
12	0x3e336185	0.1751767
13	0xbda6ea99	-0.08150215
14	0xbe24f4d7	-0.16109024
15	0xbdcf99c5	-0.10136751
16	0xbcaa8981	-0.02081752
17	0xbe2c7cc1	-0.16844465
18	0xbd9ddc9d	-0.07708094
19	0x3db1b77d	0.08677576
20	0x3e19a9fd	0.15006252
21	0xbda0aee9	-0.078458615
22	0xbd957598	-0.0729782
23	0x3c63b4ed	0.013898117
24	0x3e2e073f	0.16994952
25	0xbd391157	-0.045182552
26	0x3ca8c65d	0.0206024
27	0xbde49da0	-0.11162877
28	0xbd84af21	-0.06478716
29	0x3da4a5bd	0.080394246

weight_ih_l0 f4 [192, 1]
0	0xbf36d99f	-0.71425813
1	0xbef7eead	-0.48424283
2	0xbe46a374	-0.1939829
3	0xbe94797f	-0.28998944
4	0xbe03aa5d	-0.12857957
5	0x3c9b7c7d	0.01898026
6	0xbe0ecc37	-0.1394509
7	0xbeffddc6	-0.49973887
8	0x3d9333c8	0.07187611
9	0xbe39d6b8	-0.18148315
10	0xbe0d761a	-0.13814583
11	0xbf272b71	-0.6530066
12	0xbe330c1d	-0.1748509
13	0xbe9c436a	-0.30520183
14	0x3dacbe39	0.084347196
15	0xbe9d29ab	-0.30695853
16	0xbe933a1a	-0.28755265
17	0x3d7b032e	0.06128233
18	0xbec2e306	-0.3806383
19	0xbe340611	-0.17580439
20	0xbe812162	-0.25220782
21	0xbd9af767	-0.075667195
22	0xbe90fc95	-0.28317705
23	0x3e23b411	0.15986659
24	0xbe846610	-0.25859118
25	0x3d50d013	0.050979685
26	0xbec0dcf0	-0.37668562
27	0xbe2e48c3	-0.17019944
28	0xbbda486f	-0.006661467
29	0xbe6f7c2e	-0.23387215
30	0x3c436d9c	0.011927988
31	0xbe11c7cd	-0.14236374
32	0x3e0bdd03	0.13658528
33	0x3dea6570	0.11445129
34	0xbe826262	-0.25465685
35	0xbe852f5f	-0.26012704
36	0xbe7e0516	-0.24806628
37	0xbeb0a07c	-0.3449744
38	0xbe260b18	-0.1621517
39	0xbe9ae490	-0.30252504
40	0xbdfcdbb1	-0.1234659
41	0x3c0b2bc3	0.00849432
42	0xbd3b5eea	-0.045744814
43	0xbdb09310	-0.086218
44	0xbf1a096d	-0.6017063
45	0xbeb10a76	-0.34578294
46	0x3da18f09	0.0788861
47	0xbedd69eb	-0.43244871
48	0xbc690cea	-0.01422427
49	0xbcf01419	-0.029306458
50	0xbd9341ce	-0.071902856
51	0xbe0acb7c	-0.13554186
52	0xbf261748	-0.64879274
53	0xbe0391a7	-0.1284853
54	0xbe3f29e3	-0.18668322
55	0xbe8ceda8	-0.27525067
56	0xbd82585a	-0.06364508
57	0x3c494d6f	0.012286528
58	0xbe757349	-0.23969759
59	0xbe022d24	-0.12712532
60	0xbd965206	-0.073398635
61	0xbea42995	-0.32062975
62	0xbc411990	-0.01178588
63	0xbf3df786	-0.74205816
64	0xbf270c76	-0.6525339
65	0xbe4bbf11	-0.19897105
66	0xbe262e2a	-0.16228548
67	0xbf504967	-0.81362003
68	0xbf7b4788	-0.98156023
69	0xbf989d02	-1.1922915
70	0xbf05aa2b	-0.5221278
71	0xbf61eeef	-0.8825521
72	0xbf1c0d34	-0.60957646
73	0xbf521e4d	-0.82077485
74	0xbf248ba0	-0.6427555
75	0xbf80607d	-1.0029446
76	0xbf58a84e	-0.8463181
77	0xbf6b456d	-0.9190281
78	0xbf89b47a	-1.0758202
79	0xbf3f6346	-0.74760854
80	0xbf55cbec	-0.83514285
81	0xbf036bba	-0.5133625
82	0xbeaff1ec	-0.3436426
83	0xbef63cae	-0.4809317
84	0xbedc36e5	-0.4301063
85	0xbefd4bd5	-0.49471918
86	0xbf74e67b	-0.95664185
87	0xbf5886bf	-0.84580606
88	0xbeb0fb23	-0.34566602
89	0xbdce162b	-0.10062822
90	0xbf4c58dd	-0.79823095
91	0xbf455d3e	-0.770954
92	0xbeb90067	-0.3613312
93	0xbf2a8c61	-0.6662045
94	0xbf3da749	-0.7408338
95	0xbf930d8a	-1.1488507
96	0xbf6cbf95	-0.9247983
97	0xbefca770	-0.49346495
98	0xbf7150db	-0.94264
99	0xbf6b5517	-0.9192671
100	0xbf6c6b70	-0.92351437
101	0xbefd2dcc	-0.49449003
102	0xbda32e9d	-0.07967875
103	0xbf76b601	-0.96371466
104	0xbd9ca740	-0.07649088
105	0xbf4547d3	-0.7706272
106	0xbf39be1e	-0.7255572
107	0xbf2cd6fa	-0.6751553
108	0xbf1e1503	-0.6175081
109	0xbf79007d	-0.9726637
110	0xbee59c66	-0.44845885
111	0xbf85d805	-1.0456549
112	0xbeaca8b2	-0.33722454
113	0xbe86dc09	-0.26339749
114	0xbf37a283	-0.7173235
115	0x3df46c14	0.11934677
116	0xbf46c89c	-0.77649856
117	0xbea0a0fb	-0.31372818
118	0x3d85a3be	0.06525372
119	0xbf6342fb	-0.8877408
120	0xbf61c83f	-0.88196176
121	0xbd5fa540	-0.054600954
122	0xbef989c2	-0.48737913
123	0xbd994268	-0.07483369
124	0xbf34523f	-0.70438
125	0xbe0e0d0e	-0.13872167
126	0xbf8af365	-1.0855528
127	0xbf6edbf0	-0.9330435
128	0xbea352ef	-0.3189921
129	0xbe3d24e0	-0.18471098
130	0x3d354e69	0.04426423
131	0xbe748385	-0.23878296
132	0x3e75c076	0.239992
133	0xbead9bdc	-0.33907974
134	0xbe791330	-0.24323726
135	0x3ec28e23	0.37999067
136	0x3e49ad04	0.19694906
137	0xbe8fa852	-0.28058106
138	0xbd02c057	-0.03192171
139	0x3e91de5e	0.28489965
140	0x3dfb563e	0.12272309
141	0x3e07d90b	0.13266389
142	0xbe8c3424	-0.2738353
143	0xbdc8117d	-0.097689606
144	0xbe936314	-0.28786528
145	0x3e23d00d	0.15997334
146	0x3e7838d7	0.24240433
147	0x3e0b1db9	0.13585557
148	0xbe7518c3	-0.23935227
149	0xbdb31990	-0.0874511
150	0xbe1176cb	-0.14205472
151	0x3d99f622	0.07517649
152	0x3e6bba8a	0.23020378
153	0xbe223a1b	-0.15842478
154	0x3e7f9ec3	0.24962907
155	0x3e2a475c	0.16628784
156	0x3bb0252b	0.0053755245
157	0x3da71b4c	0.08159503
158	0xbde84674	-0.11341563
159	0x3e9028dc	0.28156173
160	0x3d0ca6d2	0.03433878
161	0x3e5e587a	0.21713439
162	0x3dedf849	0.11619622
163	0xbe7f8b3e	-0.2495546
164	0x3e8d1e25	0.2756206
165	0xbe2c0d9c	-0.16802067
166	0x3d134792	0.035956927
167	0xbea27923	-0.31733045
168	0x3e49f9d0	0.19724202
169	0x3e19c2b5	0.15015681
170	0xbdaf95d4	-0.08573499
171	0x3db96899	0.090531535
172	0x3d368940	0.044564486
173	0xbe9e5076	-0.30920762
174	0xbe853cbc	-0.260229
175	0x3e097583	0.13423733
176	0x3e023916	0.12717089
177	0x3c8fc3b0	0.017549366
178	0x3e3f0cf5	0.18657286
179	0x3d6e5f6a	0.058196463
180	0xbe8255ea	-0.25456172
181	0x3c7a4f8e	0.015277756
182	0xbda56f02	-0.08077814
183	0xbdfe767c	-0.12424943
184	0x3e5dde5e	0.21666858
185	0x3c4d19ab	0.012518327
186	0x3c430aa7	0.011904395
187	0xbd60dc20	-0.054897428
188	0xbe1d16f0	-0.15340781
189	0xbe3e272d	-0.18569632
190	0xbe9511ee	-0.29115242
191	0x3e9ff762	0.31243426

weight_hh_l0 f4 [192, 64]
0	0x3d2e9398	0.042621225
1	0xbe9d8f3d	-0.30773345
2	0x3c44d1b3	0.012012887
3	0xbe2ebece	-0.17064974
4	0xbe6451b3	-0.22296791
5	0xbe448c7e	-0.19194219
6	0xbe68a928	-0.22720778
7	0x3d16b118	0.036789984
8	0xbc55fee0	-0.013061255
9	0xbc667381	-0.014065624
10	0x3cdfa52d	0.027300442
11	0x3e180446	0.1484538
12	0x3d77f953	0.06054051
13	0xbdc7ff0b	-0.097654425
14	0xbc6323eb	-0.013863544
15	0xbcafd304	-0.021462925
16	0xbd9f437a	-0.07776542
17	0x3d6941a4	0.056947365
18	0x3dcdd9d5	0.10051314
19	0xbc189aa4	-0.009314213
20	0xbe00fa47	-0.12595473
21	0x3c881e24	0.016615935
22	0x3d5e351e	0.054249875
23	0xbd1ac135	-0.037781913
24	0xbe0cd90b	-0.1375467
25	0xbe150a0e	-0.14554617
26	0x3e4df5cd	0.20113297
27	0xbe279732	-0.1636627
28	0xbca9fd7c	-0.020750754
29	0x3cf5c16c	0.029999457
30	0x3c6a771f	0.014310627
31	0xbdca74d4	-0.098855644
32	0x3cdf1f7f	0.027236698
33	0xbbc0a8d1	-0.0058794995
34	0x3dccc00a	0.09997566
35	0xbd835c1b	-0.06414052
36	0x3ea27fd5	0.31738153
37	0xbe0c7505	-0.13716514
38	0x3da40de8	0.08010465
39	0xbda5d64c	-0.080975145
40	0xbdac9295	-0.08426396
41	0x3c87dd34	0.01658497
42	0x3c20c155	0.009811719
43	0x3dde18c0	0.108445644
44	0xbd48185f	-0.048851367
45	0xbe91799e	-0.284131
46	0xbe0ffc89	-0.14061178
47	0xbe29ffcf	-0.1660149
48	0x3d000291	0.031252448
49	0xbdd53bec	-0.1041182
50	0x3e036dea	0.12834898
51	0xbcd3213a	-0.02577268
52	0x3e7a53d5	0.24446042
53	0xbd1c4ff7	-0.038162198
54	0xbdbb80ef	-0.091554515
55	0x3d87162f	0.06596028
56	0xbd0cc0b7	-0.034363475
57	0x3df5df2e	0.12005459
58	0x3d7f5261	0.062334422
59	0x3d280cc6	0.041027807
60	0x3deaeef0	0.11471355
61	0xbdf599c3	-0.11992218
62	0x3ec92891	0.39288762
63	0x3e974949	0.295481
64	0x3d12e86f	0.035866197
65	0xbdb899c6	-0.09013705
66	0xbd6ac26d	-0.057314325
67	0x3d5a0390	0.053226054
68	0xbd85f697	-0.06541174
69	0x3dda1cea	0.10650046
70	0x3d8290d6	0.063752815
71	0xbde36e48	-0.11105019
72	0xbc5bbe90	-0.013412133
73	0x3dd9876e	0.10621534
74	0x3dbe651d	0.092966296
75	0xbda62b85	-0.081137694
76	0xbdfb6374	-0.122748286
77	0x3dc4c9f3	0.09608831
78	0xbbf252c3	-0.00739512
79	0x3c129fe7	0.0089492565
80	0xbdb65646	-0.08903174
81	0xbcf6cb94	-0.03012637
82	0x3cafab6f	0.02144405
83	0xbdedab9b	-0.11604997
84	0x3ddab5bd	0.10679195
85	0x3cea348e	0.028589513
86	0x3d03978a	0.03212694
87	0x3d8e9087	0.0696116
88	0x3d0babb4	0.034099296
89	0xbc973314	-0.018456973
90	0x3e18c1cb	0.14917676
91	0xbd8af4b4	-0.06784955
92	0x3dc7c0e5	0.097535886
93	0x3df98c7d	0.12184999
94	0x3e063fba	0.13110247
95	0xbdae3c22	-0.08507563
96	0xbc2fa759	-0.010721051
97	0x3de724d5	0.11286322
98	0x3d98ffcb	0.07470664
99	0xbcd47b8d	-0.02593782
100	0xbcd0b59d	-0.025477225
101	0x3db3e22e	0.08783375
102	0x3cc15b63	0.023603147
103	0x3d789605	0.060689945
104	0x3cd418a4	0.025890656
105	0xbc992174	-0.01869271
106	0xbe393372	-0.18086031
107	0x3c36f6c7	0.011167235
108	0x3d2a365c	0.041555747
109	0x3d695b98	0.056972116
110	0xbdf40bce	-0.11916314
111	0xbd19b4c3	-0.037525903
112	0x3dc16e6f	0.09444892
113	0xbdfdc64a	-0.12391336
114	0x3e1bc352	0.15211228
115	0xbd2ff01b	-0.04295359
116	0x3d5a52ba	0.05330155
117	0x3e221ba8	0.15830863
118	0x3d8027ce	0.06257592
119	0xbd36aa3e	-0.04459595
120	0x3ce4e7ea	0.027942616
121	0x3c64bea6	0.01396147
122	0x3dfe10b7	0.12405532
123	0xbd77952c	-0.060444996
124	0x3de8dec7	0.113706164
125	0xbdd900d3	-0.1059586
126	0x3e6db150	0.2321217
127	0xbdadc234	-0.08484307
128	0xbd5d8c10	-0.054088652
129	0x3d8a71b8	0.067599714
130	0x3e669f75	0.22521766
131	0xbd8b9e08	-0.068172514
132	0xbc011292	-0.007877963
133	0xbe18a886	-0.14908037
134	0xbe039aa4	-0.1285196
135	0x3dafdc2a	0.08586915
136	0x3dab3209	0.08359153
137	0xbaba931f	-0.0014234519
138	0xbcb75d4f	-0.02238336
139	0xbd37fdbd	-0.044919718
140	0x3d5424ec	0.051793024
141	0xbc95f9a4	-0.018307514
142	0x3cb10642	0.02160943
143	0x3d8fe22b	0.0702556
144	0xbe436745	-0.19082363
145	0xbd032bc8	-0.032024175
146	0x3e799397	0.24372707
147	0x3c9c8278	0.019105181
148	0xbda8f654	-0.08250108
149	0xbdaa8c6b	-0.08327564
150	0xbd7af183	-0.06126548
151	0xbd85ecd8	-0.06539315
152	0x3ce149ed	0.02750107
153	0x3d8f21b1	0.06988848
154	0x3e01ccf6	0.12675843
155	0xbd0eeca9	-0.034893665
156	0x3c9065a0	0.017626584
157	0xbddaf063	-0.106903814
158	0xbd9aa94f	-0.07551824
159	0xbd32c2f5	-0.043642957
160	0x3db1d797	0.086836986
161	0xbbcfb757	-0.0063389945
162	0x3d63c6b6	0.055609427
163	0xbcaaabeb	-0.02083393
164	0x3d8947c2	0.0670314
165	0x3ceb98d4	0.028759398
166	0x3d03709e	0.032089822
167	0xbddbcf38	-0.10732883
168	0xbd00e136	-0.031464778
169	0xbd17371d	-0.036917794
170	0xbdcda5dc	-0.10041401
171	0x3b7b5062	0.0038347472
172	0xbce5b4f4	-0.028040387
173	0xbdf62f13	-0.120206974
174	0xbc6034eb	-0.013684492
175	0xbd2ea12f	-0.042634185
176	0xbd39bd82	-0.045346744
177	0x3dc1962f	0.09452473
178	0xbd7b749c	-0.061390504
179	0x3e4f5782	0.20248225
180	0xbdd4b5e4	-0.103862554
181	0x3d93a162	0.07208516
182	0xbe0147ad	-0.12624998
183	0xbd6c3f54	-0.057677582
184	0x3dc6a401	0.0969925
185	0x3d356eaf	0.04429501
186	0x3b0a1db1	0.0021074826
187	0x3d887144	0.06662229
188	0x3d20983a	0.039207675
189	0x3d020bab	0.03174941
190	0x3d84b442	0.06479694
191	0x3e124ada	0.14286366
192	0x3e5bf2db	0.21479361
193	0xbdadb5e0	-0.084819555
194	0x3d13e857	0.03611025
195	0xbab357d4	-0.0013682791
196	0xbef09293	-0.46986827
197	0x3de4b82c	0.111679405
198	0x3e08eadd	0.13370843
199	0xbc19884c	-0.009370875
200	0xbcd73d65	-0.026274392
201	0x3de6e6e7	0.1127451
202	0x3cf02b0e	0.029317405
203	0xbde38614	-0.11109558
204	0xbe10df69	-0.14147724
205	0xbd007cc8	-0.031369
206	0x3d2093b3	0.039203357
207	0x3e1d721e	0.15375564
208	0x3d1d869d	0.038458455
209	0xbdc750f1	-0.09732235
210	0x3c48c7a7	0.012254632
211	0xbe617b78	-0.22019756
212	0x3df68a5b	0.12038108
213	0x3e452f6e	0.19256374
214	0x3ebb9f92	0.3664518
215	0xbdcabcd8	-0.098993
216	0x3d643ab1	0.055720035
217	0xbd15b3ad	-0.036548305
218	0xbde05672	-0.10953988
219	0xbe7faab8	-0.24967468
220	0x3db2e9b9	0.08735985
221	0x3d858abf	0.06520604
222	0x3e740b26	0.23832378
223	0xbeae52af	-0.34047458
224	0x3caade6d	0.020858014
225	0xbe117e7f	-0.1420841
226	0x3cc4a139	0.024002658
227	0x3ea32f98	0.3187225
228	0xbdd0c1eb	-0.10193237
229	0xbdf52246	-0.11969428
230	0x3d674ded	0.0564708
231	0xbd111dd6	-0.035428844
232	0x3dabc9d4	0.08388105
233	0x3d965e6b	0.073422275
234	0x3d0be48c	0.034153506
235	0xbd1b84f9	-0.03796861
236	0x3d79cc19	0.06098566
237	0x3c5a9a7d	0.013342497
238	0xbda17d4a	-0.07885225
239	0xbe454fe6	-0.1926876
240	0xbdc57931	-0.09642256
241	0x3dc554fe	0.096353516
242	0xbdd6c09a	-0.104859546
243	0x3bbc6fa4	0.0057506133
244	0x3ea03039	0.3128679
245	0xbd92883a	-0.071548894
246	0xbd804435	-0.062630095
247	0x3e5c1c2a	0.21495119
248	0xbe281e3a	-0.1641778
249	0x3e22057d	0.15822406
250	0x3e0d03f0	0.13771033
251	0x3dffdd03	0.124933265
252	0x3e1b5cb2	0.15172079
253	0xbdd6fba9	-0.10497219
254	0x3eb695df	0.35661218
255	0x3d842001	0.06451417

bias_ih_l0 f4 [192]
0	0xbef1c1ff	-0.4721832
1	0xbcf4b78c	-0.029872678
2	0xbe401ada	-0.18760243
3	0xbcb483e7	-0.022035552
4	0xbefb3575	-0.49064222
5	0xbea7cd69	-0.32773903
6	0xbe481acc	-0.19541472
7	0xbe0f51c4	-0.13996035
8	0xbc5af3e2	-0.01336381
9	0xbe87931a	-0.26479417
10	0xbde072f4	-0.109594256
11	0xbee874a1	-0.4540148
12	0xbe85d93f	-0.26142308
13	0xbd41786c	-0.047233984
14	0x3c3f8f49	0.011691877
15	0xbea8a5a0	-0.32938862
16	0xbdf8a767	-0.121413045
17	0xbd6c6828	-0.05771652
18	0x3e217ebc	0.15771002
19	0xbdfe43cb	-0.12415274
20	0x3d8de584	0.06928542
21	0x3b809619	0.003924143
22	0xbdb2d3ad	-0.0873178
23	0x3c351895	0.011053224
24	0x3b738ced	0.0037162856
25	0xbde7813d	-0.11303947
26	0xbdace008	-0.08441168
27	0xbe835c75	-0.25656477
28	0xbde6c94c	-0.11268863
29	0x3d10b1b7	0.035325732
30	0xbe82b4f5	-0.25528684
31	0x3df8378e	0.12119971
32	0x3d1fbd89	0.038999114
33	0xbe35b3d3	-0.17744379
34	0x3b900b26	0.0043958602
35	0xbdca58bc	-0.09880206
36	0xbde3788f	-0.11106979
37	0xbe75bcb7	-0.2399777
38	0xbd6b605e	-0.05746495
39	0xbd551b62	-0.052028067
40	0xbe81a2d7	-0.2531955
41	0xbbd0779e	-0.0063619157
42	0x3cf2adf0	0.029623955
43	0xbe02aa69	-0.12760319
44	0xbd2c1407	-0.042011287
45	0xbe5aab91	-0.2135451
46	0xbe1cfcd7	-0.15330826
47	0xbeeb1f4d	-0.45922318
48	0xbe3faae7	-0.18717538
49	0xbc9cdcca	-0.01914825
50	0x3cbf5a58	0.023358509
51	0xbe196dca	-0.14983287
52	0xbf3c7557	-0.73616546
53	0xbeaa9833	-0.33319244
54	0x3d0facc9	0.03507689
55	0xbe8b562e	-0.27214187
56	0xbdd2e255	-0.10297076
57	0xbde9d361	-0.114172705
58	0x3d3e3485	0.046436805
59	0xbe588d60	-0.2114768
60	0xbb194746	-0.002338843
61	0xbe87d044	-0.26526082
62	0xbed33cc6	-0.41257304
63	0xbeebebdb	-0.4607838
64	0xbec5fa5a	-0.38667566
65	0x3d65a689	0.056067023
66	0xbe105975	-0.14096625
67	0xbf050bfc	-0.5197141
68	0xbed3412f	-0.4126067
69	0xbf581a18	-0.84414816
70	0xbe98adea	-0.29820186
71	0xbf5bf1b6	-0.85915697
72	0xbf290bda	-0.6603371
73	0xbeed6a0b	-0.46369967
74	0xbf83bbdb	-1.0291704
75	0xbee59acd	-0.44844666
76	0xbedebd72	-0.4350391
77	0xbf8e46bf	-1.111534
78	0xbf06d96e	-0.5267552
79	0xbf2f85a5	-0.685633
80	0xbefa109b	-0.48840794
81	0xbf37b4a5	-0.71760017
82	0xbf4900d2	-0.78516877
83	0xbee0b298	-0.43886256
84	0xbf2c856f	-0.67391104
85	0xbf0f6512	-0.56013596
86	0xbf0ae61f	-0.54257387
87	0xbfa6a022	-1.3017619
88	0xbef51585	-0.4786798
89	0xbdb8c116	-0.09021203
90	0xbf22e7b3	-0.63634795
91	0xbf92b047	-1.1460046
92	0xbf09658c	-0.53670573
93	0xbf115122	-0.56764424
94	0xbf479761	-0.7796536
95	0xbf00faba	-0.5038258
96	0xbf646ca1	-0.89228255
97	0xbf968186	-1.1758277
98	0xbec685f9	-0.38774088
99	0xbf2bc169	-0.67091995
100	0xbe6a3aec	-0.2287404
101	0xbf67d407	-0.90557903
102	0xbed4db2b	-0.41573462
103	0xbf113afa	-0.56730616
104	0xbd677818	-0.056511015
105	0xbed96295	-0.42458025
106	0xbeb97fa8	-0.36230206
107	0xbebb4b8e	-0.3658108
108	0xbeee3cf3	-0.46530876
109	0xbf09d4b0	-0.5384016
110	0xbf704338	-0.9385257
111	0xbf075ed2	-0.5287906
112	0xbec9c18c	-0.39405477
113	0xbe5bc108	-0.21460354
114	0xbed1de1b	-0.40989766
115	0x3ca1bcf4	0.01974342
116	0xbf455cbb	-0.7709462
117	0x3ce19c93	0.02754048
118	0xbcf61e84	-0.030043848
119	0xbf0150b8	-0.5051379
120	0xbf498303	-0.78715533
121	0x3b3a4c50	0.0028426833
122	0xbe6eb7a2	-0.23312238
123	0xbd97a49b	-0.07404443
124	0xbf2b85d4	-0.6700108
125	0xbe4cb3c7	-0.19990455
126	0xbf4be695	-0.79648715
127	0xbefedcad	-0.49777737
128	0x3d9a5d8b	0.07537373
129	0x3d2f1197	0.042741384
130	0x3cf2cf26	0.029639792
131	0x3d883c5a	0.06652136
132	0xbd8d04ab	-0.06885656
133	0x3dd3128f	0.10306274
134	0x3d8f6f26	0.07003622
135	0xbd918dd1	-0.071071275
136	0xbddee4ad	-0.1088346
137	0x3daffd5a	0.08593245
138	0xbaa6a6a2	-0.0012714455
139	0xbd98fbc8	-0.074698985
140	0xbd2983c5	-0.04138543
141	0x3b8a7796	0.0042256815
142	0x3dde39d7	0.10850876
143	0x3d02eeec	0.031966135
144	0x3d1d74ad	0.03844135
145	0xbdbc46eb	-0.09193214
146	0xbd50af5a	-0.05094848
147	0xbbd3244f	-0.0064435373
148	0x3c3b3d5f	0.011428206
149	0xbc12d001	-0.008960725
150	0x3cbb6041	0.022873046
151	0xbd980aa4	-0.074239045
152	0xbbc7664a	-0.006085192
153	0x3d0d26e2	0.03446091
154	0xbd191c07	-0.037380245
155	0xbd66f87e	-0.056389324
156	0xbd3115fb	-0.043233853
157	0x3cab568f	0.020915298
158	0x3d3213c9	0.0434759
159	0x3c4a97c1	0.0123652825
160	0x3d1efc22	0.03881467
161	0xbd9bdf14	-0.07610908
162	0x3c999127	0.018745972
163	0xbbbe279e	-0.0058030626
164	0xbd1f95d4	-0.038961247
165	0x3ca8a46d	0.020586217
166	0xbd979079	-0.07400603
167	0x3d618cc8	0.0550659
168	0xbcf200d5	-0.029541412
169	0xbdb65061	-0.0890205
170	0xbd0cfd77	-0.03442141
171	0xbd7ffabb	-0.062494975
172	0xbc516574	-0.012780536
173	0x3d83e564	0.06440237
174	0x3ccc5f10	0.024947673
175	0xbd2af68c	-0.04173903
176	0xbd90c0e9	-0.07068045
177	0x3d2ccf85	0.042190094
178	0xbdb544e9	-0.08851034
179	0xbb3ded27	-0.0028980465
180	0x3d82de7f	0.06390094
181	0xbbb25280	-0.0054419637
182	0x3d014627	0.031561043
183	0x3c234374	0.009964813
184	0xbdb82902	-0.089921966
185	0xbd55aa0a	-0.052164115
186	0x3d30a542	0.043126352
187	0x3bf9c819	0.0076227305
188	0x3d76fe6c	0.06030123
189	0x3d4d7c91	0.050167624
190	0x3d8dea5f	0.06929468
191	0xbdab9f25	-0.08379964

bias_hh_l0 f4 [192]
0	0xbee9ac75	-0.45639387
1	0xbe0e5e15	-0.13903077
2	0xbdb7b81f	-0.08970665
3	0xbe6c467d	-0.23073764
4	0xbebe3268	-0.37147832
5	0xbe997f24	-0.29979813
6	0xbd7c4124	-0.06158556
7	0xbde6b30f	-0.112646215
8	0xbe18868a	-0.14895073
9	0xbdee7cfc	-0.11644933
10	0xbc7d9ccb	-0.015479277
11	0xbeeca228	-0.46217465
12	0xbe93b43c	-0.28848445
13	0xbe10777e	-0.14108083
14	0xbdebcaa7	-0.11513262
15	0xbe794280	-0.24341774
16	0xbc1cf1d7	-0.0095791435
17	0xbe2a28d6	-0.1661714
18	0xbd15f422	-0.036609776
19	0xbe33d3d7	-0.17561279
20	0x3dc11d02	0.09429361
21	0x3d8bdddc	0.06829426
22	0xbe564f67	-0.20928727
23	0xbca103ab	-0.01965507
24	0xbc92681f	-0.017871914
25	0x3ca061a7	0.019577814
26	0xbe28bf5d	-0.1647925
27	0xbe4d3929	-0.20041336
28	0x3cb75826	0.0223809
29	0xbdc8b04d	-0.09799252
30	0xbe98af06	-0.29821032
31	0xbd5489e8	-0.05188933
32	0xbc9839c0	-0.018582225
33	0xbd5ed1eb	-0.054399412
34	0xbe3bdec1	-0.18346693
35	0x3d954354	0.072882324
36	0x3d77b79d	0.06047784
37	0xbe233188	-0.15936863
38	0x3cb09af2	0.021558259
39	0xbd8c5e2a	-0.06853898
40	0xbd645be2	-0.05575169
41	0xbe3ab977	-0.18234812
42	0xbe00acb7	-0.12565885
43	0xbd9cce93	-0.076565884
44	0xbd293f10	-0.041319907
45	0xbe2f9166	-0.17145309
46	0xbe2b1c1c	-0.16709942
47	0xbeaa993c	-0.33320034
48	0xbd88b514	-0.06675163
49	0xbdd8ebf1	-0.10591877
50	0xbbe1c0f7	-0.0068894583
51	0xbea30882	-0.31842428
52	0xbf52a64d	-0.82285005
53	0xbece033f	-0.40236852
54	0xbdf1cf35	-0.118071
55	0xbded06e2	-0.115735784
56	0xbe5bf4e0	-0.21480131
57	0x3a8aa0f4	0.0010576532
58	0xbd884149	-0.06653077
59	0xbdff98c0	-0.124803066
60	0xbd588f45	-0.052871007
61	0xbe086c72	-0.13322619
62	0xbe8d858f	-0.2764096
63	0xbf25aac5	-0.647137
64	0xbeafee3e	-0.34361452
65	0xbd811f9a	-0.06304856
66	0xbc75ab17	-0.014994404
67	0xbf0a98c5	-0.5413936
68	0xbf18961e	-0.5960406
69	0xbf38fb4d	-0.72258455
70	0xbeb0dbf1	-0.34542802
71	0xbf7f4e3d	-0.9972876
72	0xbf2a2696	-0.6646513
73	0xbf0345fb	-0.51278657
74	0xbf80f429	-1.0074512
75	0xbf0074b7	-0.5017809
76	0xbee659e4	-0.44990456
77	0xbf91a0ab	-1.1377157
78	0xbef4c939	-0.4780977
79	0xbf112f4c	-0.56712794
80	0xbf02219e	-0.50832546
81	0xbf36cf85	-0.714104
82	0xbf3afcca	-0.73041975
83	0xbf03a8a0	-0.51429176
84	0xbf4b0c96	-0.7931608
85	0xbf08ec86	-0.53485906
86	0xbf07a419	-0.5298477
87	0xbf95c8ae	-1.1701868
88	0xbf062820	-0.52404976
89	0x3daa4dc0	0.08315611
90	0xbf30b6c4	-0.6902888
91	0xbf87425b	-1.0567125
92	0xbf02adc5	-0.510464
93	0xbf11e72d	-0.5699337
94	0xbf341194	-0.7033932
95	0xbf0f06cc	-0.55869746
96	0xbf591614	-0.84799314
97	0xbf974022	-1.1816447
98	0xbefb6f03	-0.49108133
99	0xbef53533	-0.4789215
100	0xbec7df4d	-0.39037552
101	0xbf5d7204	-0.865021
102	0xbe944c66	-0.28964537
103	0xbf0d153e	-0.5511054
104	0xbe7ed8ec	-0.24887437
105	0xbed12a03	-0.40852365
106	0xbe7ded75	-0.24797614
107	0xbe52a914	-0.2057231
108	0xbf18ba27	-0.59659046
109	0xbf440138	-0.7656436
110	0xbf73b7e6	-0.9520248
111	0xbf11285c	-0.5670221
112	0xbe85ad64	-0.2610885
113	0xbdd1b876	-0.10240261
114	0xbf234b79	-0.6378704
115	0x3d8c12e1	0.06839538
116	0xbf24349e	-0.6414279
117	0x3d646ab2	0.055765815
118	0xbdc81473	-0.097695254
119	0xbee19cab	-0.4406484
120	0xbf3d9a03	-0.7406313
121	0x3c62d8b5	0.013845612
122	0xbe4ed8ae	-0.20199844
123	0xbcd0f847	-0.025509013
124	0xbf5000b8	-0.81251097
125	0xbda997bc	-0.08280894
126	0xbf22de71	-0.6362067
127	0xbf002fac	-0.5007274
128	0x3d22a46b	0.039707582
129	0x3ca1cee3	0.019751972
130	0xbdcdf1d3	-0.1005589
131	0xbb2408ed	-0.0025029734
132	0x3cc26c77	0.02373336
133	0xbcc5bc49	-0.024137633
134	0xbbc10a2b	-0.0058911047
135	0xbdabc911	-0.0838796
136	0x3df6c89d	0.12049983
137	0xbcbc31a3	-0.022972887
138	0x3cb06028	0.021530226
139	0xbc6720d4	-0.014106948
140	0x3cbec128	0.023285463
141	0xbdbbde77	-0.09173291
142	0xbd95bc55	-0.07311312
143	0xbc6e6e9a	-0.014552737
144	0x3dbb648a	0.09150036
145	0x3de355fc	0.111003846
146	0xbcbf7334	-0.023370363
147	0xbd907ea1	-0.070554025
148	0x3dc5b42e	0.09653507
149	0x3d87e8b7	0.06636184
150	0x3d12aac2	0.03580738
151	0x3dd882f1	0.1057185
152	0xbde9e3cd	-0.11420403
153	0x3c707297	0.014675758
154	0xbd95ca7b	-0.07314011
155	0x3cfcf5d0	0.030878931
156	0x3db6166a	0.08890994
157	0xbdb79ad6	-0.089650795
158	0xbd1d4eee	-0.03840535
159	0xbe2afdb8	-0.16698349
160	0xbdba9896	-0.09111135
161	0x3d203f4c	0.039122865
162	0xbde986b7	-0.11402648
163	0x3e1b732a	0.1518065
164	0xbd995ab7	-0.074880056
165	0x3d85431c	0.06506941
166	0x3e05aaf8	0.130535
167	0x3d8a6e7f	0.06759357
168	0xbd5f6639	-0.054540846
169	0x3ddf39c5	0.108996905
170	0x3df9bbb5	0.121940054
171	0x3daf516f	0.08560454
172	0xbafa4603	-0.0019094351
173	0x3d60d809	0.054893527
174	0x3dc9ba50	0.098499894
175	0x3c9d6aed	0.019216025
176	0x3db0e48a	0.0863734
177	0xbdc6bf95	-0.0970451
178	0x3d9c83d5	0.076423325
179	0xbd08689f	-0.0333029
180	0x3c17823b	0.009247358
181	0x3ba21ba8	0.0049471445
182	0xbcac2d7f	-0.021017788
183	0x3d79553d	0.060872305
184	0x3d9b4cff	0.07583045
185	0x3dd25fca	0.102721766
186	0xbdc5383e	-0.09629868
187	0x3c849064	0.016182132
188	0xbd1f8aa0	-0.038950562
189	0xbac6c730	-0.0015165564
190	0xbc3005cd	-0.0107435705
191	0xbbd93ebb	-0.0066297925

weight_ih_l0_reverse f4 [192, 1]
0	0xbe87de81	-0.26536945
1	0xbd9fec3c	-0.0780873
2	0xbfa72297	-1.3057431
3	0xbe87c9e4	-0.26521218
4	0x3e15b247	0.14618789
5	0xbe2b1b68	-0.16709673
6	0x3e7647b1	0.24050786
7	0xbe384a57	-0.17997108
8	0x3d2f649f	0.04282057
9	0xbda7c078	-0.081910074
10	0xbce3367b	-0.02773594
11	0xbe8ac660	-0.27104473
12	0xbf39a5cf	-0.7251863
13	0xbe8f4c48	-0.27987885
14	0x3e397e37	0.18114553
15	0x3e16ba5c	0.14719528
16	0xbc0fff85	-0.008788948
17	0xbebdf8a8	-0.37103772
18	0xbebf1e97	-0.37328026
19	0xbde212d0	-0.110387444
20	0xbe8ab313	-0.27089748
21	0x3dd9bb72	0.106314555
22	0xbe8b5a8b	-0.27217516
23	0xbe809a3b	-0.25117669
24	0x3e60f323	0.2196775
25	0xbe3f4f11	-0.18682505
26	0x3e5bfda2	0.21483472
27	0x3d97c5eb	0.07410797
28	0xbed27507	-0.4110491
29	0xbe6aa6bd	-0.22915168
30	0xbe9e4d19	-0.30918196
31	0x3e0c9b1c	0.13731045
32	0xbedbd43e	-0.42935365
33	0xbe885a11	-0.26631215
34	0xbe9f53e5	-0.31118694
35	0xbe064784	-0.13113219
36	0xbf248819	-0.6427017
37	0xbcc5e442	-0.024156693
38	0x3e804f4c	0.250605
39	0x3e14880e	0.14505026
40	0xbf295ed9	-0.6616035
41	0xbe372365	-0.17884596
42	0xbe951b5e	-0.29122442
43	0xbe0c87d1	-0.13723685
44	0x3e0dfbfc	0.13865656
45	0xbdb3c89c	-0.087784976
46	0xbe744a83	-0.23856549
47	0xbdb6d2e5	-0.08926944
48	0xbe755171	-0.23956849
49	0xbd043feb	-0.03228752
50	0xbea65be0	-0.3249197
51	0xbf052ec8	-0.5202451
52	0xbf841497	-1.0318784
53	0xbe599a4d	-0.21250267
54	0xbce59ecf	-0.028029827
55	0xbf18b550	-0.5965166
56	0xbe86b02b	-0.2630628
57	0xbead58a4	-0.3385669
58	0xbede4f9e	-0.43420118
59	0xbea31281	-0.31850055
60	0xbc71e748	-0.014764614
61	0xbe91239e	-0.28347486
62	0xbe81540f	-0.25259444
63	0xbe532b4b	-0.20621984
64	0x3ebffa87	0.37495825
65	0x3ed6728d	0.4188427
66	0x3db6899e	0.08912967
67	0x3e8b1190	0.27161837
68	0xbe56070f	-0.2090113
69	0x3f29ca96	0.66324747
70	0xbdd5e467	-0.10443955
71	0x3f2f22b8	0.6841235
72	0x3ee458ea	0.44599086
73	0x3f133186	0.5749744
74	0xbcea34fe	-0.028589722
75	0xbe0c3bc1	-0.1369467
76	0x3d48313b	0.048875075
77	0xbe519efd	-0.20470805
78	0xbe7f6b34	-0.24943238
79	0xbe8789be	-0.26472276
80	0xbec2ccd9	-0.3804691
81	0x3e355386	0.17707643
82	0xbd2cc035	-0.04217549
83	0x3efa128e	0.4884228
84	0x3f3644f0	0.7119894
85	0xbc40380a	-0.011732111
86	0x3f330ee0	0.6994457
87	0x3f062483	0.5239946
88	0x3e29b6da	0.16573659
89	0x3d49954c	0.049214646
90	0x3cd4d197	0.025978846
91	0x3e09f42b	0.13472049
92	0x3cece8de	0.028919633
93	0x3f16319b	0.5866944
94	0xbd4ae436	-0.049534045
95	0x3dce75b5	0.100810446
96	0x3e39da43	0.18149666
97	0xbe3277b3	-0.17428474
98	0x3e4ed942	0.20200065
99	0x3f0b85c2	0.54500973
100	0x3de2e771	0.110793
101	0x3f11b9d8	0.569242
102	0x3e6683bf	0.22511195
103	0xbdbaeac5	-0.0912681
104	0x3d9ceb81	0.07662106
105	0x3e577c1a	0.21043435
106	0x3e68294e	0.22672006
107	0xbe10a4aa	-0.14125314
108	0x3ef6f37a	0.48232633
109	0xbd4e8c3b	-0.050426703
110	0x3ec2e40d	0.38064614
111	0x3e3c2150	0.18372083
112	0xbe68dbbb	-0.2274007
113	0x3e39942b	0.18122928
114	0x3f0b3fa4	0.5439398
115	0x3ec42344	0.38308156
116	0x3ea30c9d	0.3184556
117	0x3f097063	0.53687114
118	0x3edd0027	0.4316418
119	0xbd803606	-0.06260304
120	0xbe74634d	-0.23866005
121	0x3bb7039f	0.0055851485
122	0x3e88579c	0.2662934
123	0xbb83bfa6	-0.004020649
124	0x3e615a9c	0.22007221
125	0x3e55d7b5	0.20883067
126	0x3dcde5d8	0.10053605
127	0x3f12852b	0.5723445
128	0xbe61aa21	-0.22037555
129	0xb9fe67d4	-0.00048524013
130	0xbec1c20f	-0.37843367
131	0xbe8488ad	-0.25885525
132	0xbea9ce6c	-0.331653
133	0x3af85d30	0.001894867
134	0x3e8d359b	0.2757996
135	0x3926a74b	0.00015893315
136	0xba5e9f46	-0.00084923615
137	0x3a1743f1	0.0005770317
138	0xbecd2b54	-0.4007212
139	0xbe9a180a	-0.30096465
140	0xbeb8abe3	-0.3606864
141	0x3e9a6f6b	0.3016313
142	0xbe9b65fb	-0.30351242
143	0xbea943e6	-0.33059615
144	0x3ea76c3b	0.3269976
145	0x3e91de1c	0.28489769
146	0x3e742d29	0.23845352
147	0xba0e1cda	-0.00054211693
148	0xb866bee9	-5.5014072e-05
149	0x3e98b8ae	0.298284
150	0xbdde0ae1	-0.10841919
151	0x3e7100ac	0.23535413
152	0xbe933195	-0.28748766
153	0x3e6e5856	0.23275885
154	0xbe720a04	-0.23636633
155	0x3a462c1c	0.00075596734
156	0x3ec28ae2	0.37996584
157	0x3b1afef3	0.0023650497
158	0x3eadc104	0.33936322
159	0x3e803617	0.25041267
160	0xbe9b3ae5	-0.3031837
161	0xbea3a386	-0.31960696
162	0xbe6e0e1c	-0.2324757
163	0xbbc8b7b4	-0.0061254147
164	0xbebfd54a	-0.37467414
165	0xbb0fe1a4	-0.002195456
166	0xbeab3d73	-0.3344532
167	0x3ead0c9c	0.33798683
168	0x3e78bc14	0.24290496
169	0xb8c046cf	-9.1684626e-05
170	0x3e9f2097	0.31079552
171	0x3e95c2ae	0.2925009
172	0xbba28713	-0.0049599498
173	0xbe53be6d	-0.2067811
174	0x3aa82297	0.0012827691
175	0xbac6880a	-0.0015146744
176	0xbe859010	-0.26086473
177	0xba41af6e	-0.0007388507
178	0x3b8bf6c1	0.0042713587
179	0xbe7e53a7	-0.24836598
180	0xbea37733	-0.3192688
181	0x3a48ae63	0.000765538
182	0x3acf6db3	0.001582554
183	0x3ea927c4	0.3303815
184	0xbeb6be22	-0.35691935
185	0xbe75e674	-0.24013692
186	0x3eb91f1e	0.36156553
187	0x3ebeee67	0.37291262
188	0xb9cb4ba3	-0.0003877553
189	0xbec8ec0f	-0.39242598
190	0xbe89c581	-0.26908496
191	0x3a1f4dc3	0.0006076956

weight_hh_l0_reverse f4 [192, 64]
0	0x3d822ec0	0.06356573
1	0xbd4b576d	-0.049643923
2	0xbe47becd	-0.19506378
3	0xbda15c31	-0.07878912
4	0xbe0bbc53	-0.13646059
5	0xbc89e3b7	-0.016832216
6	0xbc26e348	-0.010186024
7	0xbd67afeb	-0.056564253
8	0xbd3448a3	-0.044014584
9	0x3ccdd503	0.025125986
10	0xbe577c46	-0.210435
11	0xbd81a9ad	-0.06331191
12	0xbe14eb73	-0.14542942
13	0x3d94d778	0.0726766
14	0x3c852b01	0.016255857
15	0x3d1822b0	0.037142456
16	0xbc3fc613	-0.011704939
17	0xb939c37b	-0.00017715797
18	0x3d9846b4	0.074353606
19	0xbdabe19d	-0.08392642
20	0x3d989cab	0.07451757
21	0x3c69f60b	0.014279853
22	0xbd09c274	-0.03363271
23	0x3dce26a0	0.10065961
24	0x3c30a53a	0.010781581
25	0xbdd8a51f	-0.10578369
26	0x3db31aa1	0.087453134
27	0x3d8613a1	0.06546713
28	0x3e3b7751	0.18307234
29	0x3e1250a3	0.14288573
30	0x3d190fc5	0.037368555
31	0xbd603a49	-0.054743085
32	0xbd03435a	-0.032046653
33	0xbdc09411	-0.094032414
34	0xbd7c9d6c	-0.061673567
35	0x3d5acaa5	0.053415913
36	0xbe5141f4	-0.20435315
37	0x3b290fb5	0.0025796716
38	0xbda8d8c9	-0.082444735
39	0x3e1d8cb6	0.15385708
40	0x3dd78863	0.105240606
41	0x3c8e0eb3	0.017340994
42	0xbc01f2ed	-0.007931453
43	0x3d3bdbaa	0.045863785
44	0xbdbffa6a	-0.093739346
45	0xbd848fb5	-0.064727224
46	0xbdadd857	-0.08488529
47	0x3dcdfe45	0.10058264
48	0xbddf5bb1	-0.109061606
49	0xbbbd9328	-0.0057853647
50	0x3dd1a60c	0.10236749
51	0xbda06c36	-0.078331396
52	0xbd1fc1a1	-0.03900302
53	0x3d9b7872	0.075913325
54	0xbd7c95dc	-0.061666355
55	0x3e12b842	0.14328101
56	0xbd42c251	-0.047548596
57	0xbb36ac1f	-0.0027873588
58	0x3dad3a32	0.084583655
59	0x3e1b9e9f	0.15197228
60	0xbd56c7ec	-0.052436754
61	0x3cb01e93	0.021498954
62	0xbd9c9904	-0.07646373
63	0xbaa19584	-0.0012327884
64	0x3d96ef39	0.07369847
65	0x3df3362e	0.11875568
66	0xbc946f26	-0.018119406
67	0xbb4e3ff5	-0.0031471227
68	0xbc96a07e	-0.018387076
69	0x3bc63382	0.0060486207
70	0xbd79b861	-0.060966853
71	0x3db4b944	0.08824399
72	0xbd8500bf	-0.06494283
73	0xbda757fa	-0.08171077
74	0xbdbd6257	-0.092472725
75	0xbdafbfac	-0.085814804
76	0x3cfd3573	0.030909276
77	0x3db3ab4a	0.08772905
78	0xbd8c380b	-0.06846627
79	0xbd6abfe5	-0.05731191
80	0xbd32c1cf	-0.04364186
81	0x3d5ff81c	0.054679975
82	0x3dd9b9cf	0.10631143
83	0x3d166de7	0.036725905
84	0xbdcc1dd0	-0.09966624
85	0xbd74e77c	-0.059791073
86	0xbd4f375a	-0.050589897
87	0x3dff0e58	0.12453908
88	0x3d16f4f0	0.036854684
89	0xbd8578e3	-0.06517198
90	0x3cf19529	0.02949007
91	0xbe1cf626	-0.15328273
92	0x3dd351f3	0.10318365
93	0x3d536001	0.05160523
94	0x3dbda41b	0.09259816
95	0x3b387b48	0.0028149653
96	0x3d80f622	0.06296946
97	0x3d8bbdad	0.06823287
98	0x3dcc63a6	0.09979944
99	0xbdc91383	-0.09818175
100	0xbd4cd07d	-0.050003517
101	0xbcfd28fa	-0.030903328
102	0x3ccc3a65	0.024930188
103	0x3d6902fa	0.056887604
104	0xbd827794	-0.06370464
105	0xbb5aedde	-0.003340594
106	0x3dc92984	0.098223716
107	0xbcc1979e	-0.023631867
108	0x3c9fa536	0.019487958
109	0xbda401a0	-0.080081224
110	0x3d7eb86a	0.06218759
111	0xbc6a7d33	-0.014312076
112	0xbd0eca18	-0.0348607
113	0xbdbe38db	-0.09288188
114	0x3d2d48ca	0.042305745
115	0x3d969713	0.07353034
116	0xbc470465	-0.012147044
117	0xbd40dc1d	-0.047084916
118	0x3d0dd864	0.034630194
119	0x3d7f612b	0.062348526
120	0x3d0c744f	0.034290608
121	0x3dcb96bf	0.09940862
122	0x3dd4dbad	0.10393462
123	0x3c6d92d3	0.014500338
124	0x3d4fb7ce	0.0507124
125	0x3cde6ac6	0.027150523
126	0x3db782fc	0.0896053
127	0x3d49267a	0.04910896
128	0x3d2404ab	0.040043514
129	0xbd0ef9c6	-0.03490617
130	0xbd3c12a6	-0.045916222
131	0xbcfc33a4	-0.030786343
132	0xbd53b335	-0.051684577
133	0x3a099633	0.00052485167
134	0x3cdfec3f	0.02733433
135	0x3c61db29	0.013785162
136	0x3cc9ed41	0.024649264
137	0xbd151039	-0.036392424
138	0xbe2ca170	-0.16858459
139	0x3d5d52bd	0.054033983
140	0xbdbb12c4	-0.09134439
141	0xbd24372d	-0.040091682
142	0x3da642c0	0.081182
143	0xbdc2de0c	-0.09515008
144	0xbcad2aa2	-0.021138493
145	0x3dbd9cab	0.09258398
146	0xbdc3e5cd	-0.095653154
147	0xbcbcccf5	-0.02304695
148	0x3ca1df38	0.01975976
149	0x3d4f20be	0.050568335
150	0x3c53a9b8	0.012918882
151	0x3e0f57f3	0.13998394
152	0xbdd43d09	-0.10363204
153	0x3d93a36b	0.07208904
154	0xbd9221be	-0.07135342
155	0xbe353b8b	-0.17698495
156	0x3e1e478b	0.15456979
157	0x3d2e3302	0.042529114
158	0x3c61c97c	0.013780948
159	0xbda79513	-0.081827305
160	0xbe17a5f4	-0.148094
161	0xbde73334	-0.11289063
162	0x3dce4789	0.10072238
163	0xbe082314	-0.13294631
164	0xbe6f3a88	-0.23362172
165	0x3db92ddf	0.09041952
166	0xbe538658	-0.20656717
167	0x3db03ad0	0.086049676
168	0x3bedd5b5	0.007258142
169	0xbd9480d7	-0.07251137
170	0x3d3f1ae4	0.046656504
171	0x3dc6cac3	0.097066425
172	0xbda778c0	-0.08177328
173	0x3e175371	0.14777924
174	0xbd9876c3	-0.07444527
175	0xbdc624b4	-0.09674969
176	0xbd0b6bbf	-0.0340383
177	0xbb0fdd30	-0.0021951906
178	0xbcaaab42	-0.020833615
179	0xbd9218fe	-0.07133673
180	0xbd893af0	-0.067006946
181	0xbd670965	-0.056405444
182	0xbd89b43a	-0.067238286
183	0x3d956710	0.07295048
184	0x3b121b25	0.0022294011
185	0x3e019abb	0.12656681
186	0x3d3c4ff1	0.045974676
187	0x3db28c7b	0.08718201
188	0xbc977432	-0.018488023
189	0xbe1b273d	-0.15151687
190	0xbd29301a	-0.04130564
191	0x3d81e47d	0.06342409
192	0xbe05095a	-0.12991849
193	0x3c23228a	0.009956965
194	0x3d090617	0.033453073
195	0xbd874ccb	-0.06606444
196	0x3e406547	0.18788634
197	0x3dbeda37	0.09318965
198	0xbd624f7b	-0.05525158
199	0x3e0c02c5	0.13672931
200	0x3d890a1c	0.06691381
201	0x3df5d168	0.12002832
202	0xbce6f75b	-0.02819412
203	0xbd4fa475	-0.050693948
204	0x3cbf283b	0.023334613
205	0x3db0f627	0.086407
206	0x3e605b15	0.21909745
207	0xbe02fbf3	-0.12791423
208	0xbd611c6b	-0.054958742
209	0x3d511a0d	0.051050235
210	0x3d6d4841	0.057930235
211	0xbd1ad536	-0.03780099
212	0x3e0b03fb	0.13575737
213	0x3c97b93c	0.018520944
214	0x3d83d8d7	0.06437843
215	0x3df994a4	0.12186554
216	0xbe195a40	-0.14975834
217	0x3d8b8a72	0.06813516
218	0xbd746879	-0.059669945
219	0xbd9ba3a4	-0.07599571
220	0xbd621976	-0.055200063
221	0xbd7de2f0	-0.061984003
222	0xbd82fc5a	-0.063957885
223	0xbcb22303	-0.02174521
224	0xbe2715f9	-0.16316976
225	0x3e1c7ec2	0.1528273
226	0x3c9b44c9	0.018953698
227	0x3dd7947a	0.105263665
228	0xbd3d9139	-0.046281073
229	0x3d6a840c	0.057254836
230	0xbbe799ad	-0.00706788
231	0x3dcb5e0d	0.09930048
232	0x3dec6827	0.11543303
233	0x3d89a1da	0.06720324
234	0x3dc78783	0.09742644
235	0xbddab9e2	-0.106799856
236	0xbcfeb138	-0.031090364
237	0xbcf2f371	-0.029657098
238	0x3dd3ae13	0.103359364
239	0x3e1d1b90	0.15342546
240	0x3d95f562	0.07322194
241	0xbdc25e0b	-0.094905935
242	0x3ba0657b	0.00489491
243	0xbcd7bc68	-0.026334956
244	0xbc8ea6e6	-0.017413568
245	0x3cd8b912	0.026455436
246	0x3d67ec80	0.05662203
247	0x3d139bb6	0.03603717
248	0xbdca76ba	-0.098859265
249	0x3cc36af2	0.023854706
250	0x3d86deb9	0.0658545
251	0xbd8ec70d	-0.0697156
252	0xbaff8b8e	-0.0019496547
253	0xbe1f6583	-0.15566067
254	0x3d2c13b1	0.042010967
255	0xbda673b6	-0.08127539

bias_ih_l0_reverse f4 [192]
0	0xbdf839b4	-0.12120381
1	0xbe444e2a	-0.19170442
2	0xbfbcf8b8	-1.4763403
3	0xbc139011	-0.009006516
4	0xbdce3a4f	-0.10069715
5	0xbd3ccd93	-0.04609449
6	0xbe5f2332	-0.2179077
7	0xbe2143bb	-0.15748493
8	0xbd422761	-0.047400836
9	0xbe473343	-0.19453149
10	0xbeab8459	-0.3349941
11	0xbd40b059	-0.04704318
12	0xbf401a44	-0.7504008
13	0xbe0b2af7	-0.13590609
14	0xbda92084	-0.08258155
15	0xbe3018c2	-0.17196944
16	0xbde5df91	-0.112242825
17	0xbe019903	-0.12656026
18	0x3dc0c737	0.09412997
19	0xbe678384	-0.22608763
20	0xbe477482	-0.19478038
21	0x3ab13465	0.0013519643
22	0xbe6fd88b	-0.23422448
23	0xbe125f70	-0.14294219
24	0xb91032d5	-0.00013751847
25	0xbcefd05d	-0.02927416
26	0xbda0cd67	-0.078516774
27	0xbeacd1a8	-0.33753705
28	0xbcde0f26	-0.027106833
29	0xbd3d2b01	-0.04618359
30	0xbb9bf64a	-0.0047595846
31	0xbda63853	-0.08116212
32	0xbe0452f7	-0.12922274
33	0x3da91f5c	0.082579345
34	0xbc8c3518	-0.01711516
35	0xbd3139cd	-0.043268014
36	0xbee35afe	-0.4440536
37	0x3c858d50	0.016302735
38	0xbe487b8c	-0.1957838
39	0xbd1b640a	-0.0379372
40	0xbe8775e6	-0.26457137
41	0xbe0c401e	-0.13696334
42	0xbd32e1a2	-0.04367221
43	0xbe47e8b4	-0.19522363
44	0x3dbfc88c	0.09364423
45	0xbd19ecbc	-0.037579283
46	0xbe2891dc	-0.16461891
47	0x3c1201c6	0.008911556
48	0x3d3aae7a	0.04557655
49	0xbe8304b0	-0.25589514
50	0xbe2870ca	-0.16449276
51	0xbe379952	-0.17929581
52	0xbf5e2eb9	-0.86790043
53	0xbe842b9c	-0.2581452
54	0xbb44e13b	-0.0030041474
55	0xbe3a3b20	-0.18186617
56	0xbdda3149	-0.10653932
57	0xbf1031dd	-0.56326085
58	0xbe2dd78a	-0.16976753
59	0x3d1260fd	0.035737026
60	0xbd60714d	-0.054795552
61	0xba322027	-0.0006794952
62	0xbd76e8d2	-0.06028063
63	0xbed8eab2	-0.42366558
64	0x3e2a080f	0.16604637
65	0x3f3a2238	0.72708464
66	0xbe839fe1	-0.25707915
67	0x3e5792dc	0.21052116
68	0xbdfb2c75	-0.12264339
69	0x3f329594	0.6975949
70	0xbdc08045	-0.093994655
71	0x3f44ca80	0.7687149
72	0x3f0ea548	0.5572095
73	0x3f3a6876	0.72815645
74	0xbe1b11c0	-0.1514349
75	0xbd134b6a	-0.035960592
76	0xbdf2c4c0	-0.11853933
77	0xbd109a29	-0.03530327
78	0xb9c21fd8	-0.0003702629
79	0xbe9df1df	-0.30848595
80	0xbdcc30aa	-0.099702194
81	0x3db185e8	0.08668119
82	0x3deef9c4	0.11668733
83	0x3f238082	0.6386796
84	0x3f0daf9b	0.5534608
85	0xbd3d0bbc	-0.04615377
86	0x3ebd5cba	0.36984807
87	0x3dd8231b	0.10553571
88	0x3d912600	0.07087326
89	0x3e1412ea	0.1446034
90	0x3dd49ffd	0.10382078
91	0x3f28073e	0.6563605
92	0xbceff84a	-0.029293198
93	0x3f7712a3	0.9651281
94	0xbddde4ec	-0.10834679
95	0x3e1d6955	0.15372212
96	0x3dee6c2d	0.11641727
97	0xbe407781	-0.18795587
98	0x3e1ea33b	0.15491955
99	0x3f808d1d	1.0043064
100	0x3cd914be	0.026499148
101	0x3f3a469c	0.7276399
102	0xbcf7e036	-0.03025828
103	0xbd157402	-0.036487587
104	0xbc03ba12	-0.008039968
105	0x3f432ac3	0.76237124
106	0x3d864df8	0.0655784
107	0xbdecad55	-0.11556498
108	0x3f4b2833	0.79358214
109	0x3e964778	0.293514
110	0x3f3192fc	0.69364905
111	0x3f5858b3	0.84510344
112	0x3d2fcaf5	0.042918164
113	0x3f72ffb0	0.949214
114	0x3f1ad7fd	0.6048582
115	0x3db757c5	0.089522876
116	0x3da8c0bd	0.08239887
117	0x3f561b04	0.8363497
118	0x3f35d5af	0.7102918
119	0xbe4ddd81	-0.20104028
120	0xbe298e0f	-0.16558097
121	0x3d82717f	0.06369304
122	0xbbdfcb61	-0.0068296646
123	0xbe8264c7	-0.25467512
124	0x3f46b8dd	0.7762583
125	0xbdac73d7	-0.08420532
126	0xbcc52785	-0.024066696
127	0x3f1ef93d	0.6209906
128	0x3d171daf	0.036893543
129	0x3bfd1f0a	0.0077246474
130	0x3dddd2ec	0.10831246
131	0x3d4be38e	0.04977756
132	0x3ddc580f	0.10758983
133	0xbd06a366	-0.032870673
134	0xbdbf95dd	-0.09354756
135	0x3bc3e691	0.0059784134
136	0xbd0c745b	-0.034290653
137	0x3bda9c24	0.0066714454
138	0x3df653c5	0.120276965
139	0x3ca136a9	0.019679384
140	0x3ddc60a8	0.10760623
141	0xbd184edc	-0.03718458
142	0x3dc9645b	0.098335944
143	0x3dcb2952	0.099199906
144	0xbdad9dc8	-0.0847736
145	0xbd626e96	-0.055281244
146	0xbcc41fdb	-0.023940971
147	0x3c9e0ce4	0.019293256
148	0x3bda70be	0.006666272
149	0xbdf34f52	-0.118803635
150	0x3cddc479	0.027071225
151	0xbd328906	-0.043587707
152	0x3dbec157	0.093142204
153	0xbce2b79c	-0.027675442
154	0x3da4bb97	0.080435924
155	0x3a68f375	0.00088863756
156	0xbda2990e	-0.07939349
157	0xbcab0c0e	-0.020879772
158	0xbd6b0f7c	-0.057387814
159	0xbdb75217	-0.08951204
160	0x3d885039	0.06655926
161	0x3c068864	0.008211229
162	0xbbddeee3	-0.0067728623
163	0x3d1829fd	0.03714942
164	0x3dddf042	0.10836841
165	0x3d3a6afb	0.04551218
166	0x3df656fd	0.120283104
167	0xbdf08037	-0.11743205
168	0xbd66de6d	-0.056364466
169	0x3c836b68	0.016042426
170	0xbd1c4a0f	-0.038156565
171	0xbd93a1f7	-0.07208627
172	0xbd6d0355	-0.057864506
173	0xbcdd9bdb	-0.027051857
174	0xbc7e4f47	-0.015521831
175	0xbc6b1d04	-0.01435018
176	0x3d13198c	0.035913035
177	0x3c890cd1	0.016729744
178	0xbc50364f	-0.012708261
179	0x3d62e2be	0.05539202
180	0x3dbc4df7	0.09194558
181	0x3985639d	0.00025441954
182	0x3d2733e4	0.04082097
183	0xbd9b5a74	-0.07585612
184	0x3d2a6bdd	0.041606773
185	0x3d750194	0.05981596
186	0xbda4d531	-0.080484755
187	0xbd3a2901	-0.04544926
188	0xbd85a079	-0.06524748
189	0x3dab8b50	0.08376181
190	0x3d1e771e	0.038687818
191	0x3bed1b7e	0.0072359433

bias_hh_l0_reverse f4 [192]
0	0xbd5985dd	-0.053106178
1	0xbe916231	-0.28395227
2	0xbfca3938	-1.5798712
3	0xbdf8ee25	-0.121547975
4	0xbdd75103	-0.10513499
5	0xbd041a6c	-0.03225176
6	0x3c348167	0.01101718
7	0xbe0d00a2	-0.13769773
8	0xbdb61253	-0.08890214
9	0xbe3c539a	-0.18391266
10	0xbe95ed9d	-0.29282847
11	0xbda6fc41	-0.08153582
12	0xbf1cd311	-0.6125956
13	0xbd4e4e57	-0.05036768
14	0xbe598656	-0.21242651
15	0xbdc092c1	-0.09402991
16	0xbd76204e	-0.060089402
17	0xbdde1e2c	-0.108455986
18	0xbd44919b	-0.047990423
19	0x3b45270f	0.0030083095
20	0xbe1cd1f5	-0.15314467
21	0xbdecbee4	-0.11559847
22	0xbe1d50cb	-0.15362851
23	0xbe600e35	-0.2188042
24	0xbe2389c1	-0.15970518
25	0x3d575bff	0.05257797
26	0xbe2c8ad3	-0.16849832
27	0xbebb21a7	-0.36549112
28	0xbe0512bf	-0.12995432
29	0xbd572533	-0.05252571
30	0xbb432c3c	-0.0029781004
31	0xbe271ebf	-0.16320322
32	0xbd010e77	-0.031507935
33	0x3d81fa07	0.06346517
34	0x3d95bc5f	0.073113196
35	0xbc69fdec	-0.014281731
36	0xbf1ef979	-0.62099415
37	0x3d886e6f	0.066616885
38	0xbd2d5643	-0.042318594
39	0xbbda7644	-0.0066669304
40	0xbef877f9	-0.48529032
41	0xbdbc52f9	-0.09195513
42	0xbd98f46a	-0.07468493
43	0xbe6ffa77	-0.23435389
44	0xbc63a09c	-0.013893273
45	0xbcc1e0a6	-0.023666691
46	0xbe4e6e2f	-0.20159219
47	0xbd51edea	-0.051252283
48	0x3c3cd746	0.011525935
49	0xbe46b069	-0.19403233
50	0xbec0aa0b	-0.37629732
51	0xbe25f910	-0.16208291
52	0xbf6f2a4f	-0.9342393
53	0xbebc654e	-0.3679604
54	0xbe33547c	-0.17512697
55	0xbe8f6dd6	-0.28013486
56	0x3c5d10cf	0.013492777
57	0xbef4e04b	-0.47827372
58	0xbcf8c940	-0.030369401
59	0xbe23acca	-0.15983883
60	0xbdb6233c	-0.08893439
61	0x3ce11aeb	0.027478656
62	0xbd40c4e2	-0.047062762
63	0xbe88fdf9	-0.26756266
64	0x3e9bfa39	0.30464342
65	0x3f3b74e0	0.7322521
66	0xbdbee4be	-0.09320973
67	0x3e1e4f3b	0.15459912
68	0xbe90dc8a	-0.28293258
69	0x3f4c35f6	0.7976984
70	0xbd7ce06f	-0.061737474
71	0x3f66886c	0.90051913
72	0x3f34283f	0.7037391
73	0x3f580a06	0.84390295
74	0xbe3645ac	-0.17800015
75	0xbdb864ac	-0.09003577
76	0xbdc316f2	-0.09525861
77	0xbb2a2761	-0.0025963413
78	0x3d2ea9d4	0.04264243
79	0xbe9eff35	-0.31054083
80	0xbe6c6be2	-0.23088029
81	0x3b6394ef	0.0034726223
82	0x3d5c1909	0.053734813
83	0x3f3593e1	0.7092877
84	0x3f38605d	0.7202204
85	0xbdfce671	-0.12348641
86	0x3ee89e9b	0.45433506
87	0x3e77d997	0.24204098
88	0x3d163641	0.036672834
89	0x3e03cd5c	0.12871307
90	0x3e3155d4	0.17317897
91	0x3f23e9a3	0.64028376
92	0xbd1dd179	-0.038529847
93	0x3f71e8f8	0.9449611
94	0xbe2d336f	-0.16914152
95	0x3e84ecb6	0.25961846
96	0x3dc9a95f	0.09846758
97	0xbdd3157c	-0.10306832
98	0x3c8319ad	0.016003454
99	0x3f5b55a6	0.85677564
100	0x3d3ce3c4	0.04611565
101	0x3f5f15a4	0.87142396
102	0xbd24f8d6	-0.04027637
103	0xbdc43c86	-0.095818564
104	0x3e16c201	0.14722444
105	0x3f540659	0.82822186
106	0x3de3e86b	0.111283146
107	0xbdd03723	-0.101667665
108	0x3f4bfd9e	0.79683864
109	0x3e6edce9	0.23326458
110	0x3f5fd62c	0.87436175
111	0x3f5cb742	0.8621713
112	0x3df8495c	0.12123367
113	0x3f3e3c20	0.74310493
114	0x3f20ab87	0.6276173
115	0x3e209011	0.15679957
116	0xbb1cc562	-0.002392136
117	0x3f3a947b	0.72882813
118	0x3f35a307	0.70951885
119	0xbe39d882	-0.18148997
120	0xbe657e33	-0.22411422
121	0x3e1e8451	0.15480162
122	0x3c8ea378	0.017411932
123	0xbe1f1ae5	-0.15537603
124	0x3f5201ce	0.82034004
125	0x3aa2045b	0.0012360917
126	0x3d00a6e6	0.031409167
127	0x3f21645b	0.63043755
128	0x3d542333	0.05179138
129	0xbc9f7977	-0.019467099
130	0x3ca7dc12	0.02049068
131	0x3d4136b2	0.047171302
132	0xbd6bfdc1	-0.057615045
133	0x3d8ddb0f	0.06926548
134	0x3d3d3d66	0.046201132
135	0xbc8a29e7	-0.016865684
136	0x3d976df0	0.07394016
137	0xbc8e368e	-0.017359998
138	0xbc5e5829	-0.013570824
139	0x3dff42ea	0.12463935
140	0xba83ecbd	-0.001006506
141	0xbdb607ab	-0.08888181
142	0xbd8ade32	-0.06780662
143	0xbd0f578f	-0.03499561
144	0x3ca0e7bf	0.019641755
145	0xbd3c1b2c	-0.04592435
146	0xbda3b2c0	-0.07993078
147	0xbd3257f3	-0.043540906
148	0xbc8d86b6	-0.01727615
149	0x3d9de7a2	0.07710196
150	0x3bc1f8e0	0.005919561
151	0xbd557105	-0.052109737
152	0xbcd76aa7	-0.026295973
153	0xbd8a12fc	-0.06741902
154	0xbd179c23	-0.037014138
155	0xbb9a8142	-0.0047151158
156	0xbd7aea9f	-0.06125891
157	0x3d2f7f13	0.042845797
158	0xbd8621e5	-0.065494336
159	0x3d405055	0.04695161
160	0x3d737649	0.059438977
161	0x3e05e0bd	0.13074012
162	0x3e0f33d0	0.13984609
163	0xbd933162	-0.071871534
164	0x3c38ed0d	0.011286986
165	0xbdaefa6e	-0.085438594
166	0xbd4e3b60	-0.050349593
167	0x3d566480	0.052341938
168	0xbce64186	-0.028107416
169	0xbd169153	-0.036759686
170	0xbdcfcc61	-0.10146404
171	0x3bc16768	0.0059022196
172	0x3de3bc60	0.11119914
173	0x3e317881	0.17331125
174	0x3d1d7cf0	0.038449228
175	0x3d005e6c	0.031340048
176	0x3d87cd76	0.066309854
177	0xbd2cea52	-0.042215653
178	0x3d06ee8b	0.032942336
179	0x3d101b42	0.035182245
180	0x3b8a94c5	0.0042291605
181	0xbb3cc8f4	-0.00288063
182	0xbdbdf37f	-0.09274959
183	0xbcf7da71	-0.030255528
184	0x3dd6fa4e	0.104969606
185	0x3ba0991b	0.004901064
186	0xbda74302	-0.081670776
187	0xbdf0b00c	-0.11752328
188	0x3e100ee8	0.14068186
189	0x3d96de91	0.0736667
190	0x3d940490	0.07227433
191	0xbcbf6d16	-0.023367446
