final_models/forecast_gru.pt (torch, 423676 bytes, 19 tensors)

weight f4 [1, 30, 1]
-0.03024076 -0.061664533 -0.07301357 0.13025056 -0.10423085 -0.1045499 0.15553522 -0.07092118
0.07295987 0.18115404 -0.1667491 0.02269741 -0.15432309 0.074785806 -0.016364539 -0.05166588
-0.07235253 0.037195597 -0.03976908 -0.034899503 0.04733058 -0.1374889 -0.15399197 0.04586992
-0.14449279 0.1543998 -0.010404581 0.17493512 -0.023576567 0.101853296
00000000: 78bb f7bc f393 7cbd 2388 95bd 6760 053e
00000010: fc76 d5bd 421e d6bd a044 1f3e 203f 91bd
00000020: fc6b 953d 7280 393e 47c0 2abe ebef b93c
00000030: df06 1ebe 4d29 993d ed0e 86bc 9a9f 53bd
00000040: 902d 94bd 695a 183d e7e4 22bd c8f2 0ebd
00000050: b6dd 413d e4c9 0cbe 12b0 1dbe 19e2 3b3d
00000060: ebf5 13be fb1a 1e3e fa77 2abc 3122 333e
00000070: a523 c1bc 7698 d03d

weight_ih_l0 f4 [192, 1]
1.1385274 -0.6608074 1.1872535 1.7115513 1.785651 0.7684195 0.13691312 -0.41855958
-0.4103813 2.127617 0.38568383 1.326341 1.2129024 1.2938056 -0.39808637 -6.798638
2.063465 1.8424199 1.669029 -0.8069138 1.2062887 -0.72636473 2.5403595 0.5620731
2.4284422 0.99947923 -0.24612056 1.8650295 -2.0111082 0.9164352 0.52978677 1.275565
-1.1887109 -1.7025402 0.23613118 -0.79964256 1.1553572 0.19406717 1.6451823 0.18922316
0.191439 -1.0619421 0.21089743 -1.3925025 0.24366723 2.1947815 1.4343067 1.0846977
1.9619849 0.9976708 0.056825846 0.35784402 1.4472653 0.18872595 1.2533077 0.77043366
1.2156986 -1.3293551 1.8054101 0.022652296 0.37729362 0.538037 -0.98043454 -1.6759863
0.7039783 2.3558981 1.2738156 1.2965792 0.3135317 -0.1770271 1.005372 1.2483491
0.06196512 1.0368872 2.7659705 2.064015 0.8168463 2.066535 0.8562022 0.29501408
0.9145875 1.7455239 0.14441718 0.5385594 1.6856004 3.2295344 0.78989506 1.7255454
0.56332445 2.4461868 -0.10342613 4.7222133 -0.7451376 1.8417954 3.0254247 2.2997463
4.3682075 1.460181 1.8759001 2.651493 1.0045096 1.94963 1.162416 0.17351805
2.7421396 -0.6208445 2.1540368 1.6632841 0.40480652 0.4329495 0.7482699 0.7889968
-0.2641128 1.499696 -0.042648192 2.663979 0.20701703 3.1134052 0.7556517 3.5605774
0.12523402 0.61488396 1.1356226 2.80155 1.1565093 2.3885581 0.50101066 1.4911493
-1.3904535 0.7447448 -0.80122703 1.8554724 0.5808909 0.40828207 1.376857 0.4536868
-1.2351788 0.042020787 0.13656127 -1.2304888 -0.1871091 -0.37972283 -0.4609476 -0.45306236
0.914104 -0.46192613 -0.3766497 -0.33413655 0.84108514 -1.7911057 0.90285295 -0.41881528
-0.6088117 -0.20846015 0.33872524 1.7392614 0.27508658 0.7965597 -0.021349061 -0.80383664
0.4455196 -1.5482984 0.4667961 -1.1530075 0.56911623 -0.36031455 0.74100876 1.233281
0.17923294 0.06126685 1.8106368 -0.03870841 -0.09862352 0.5316375 -1.0028274 -0.724512
1.2253522 -0.12355019 0.5771405 0.75296986 0.2997058 0.8082016 0.9742123 0.2718493
-0.44969666 -0.865972 0.9965864 -0.38930765 0.41303596 0.5580868 -1.2067299 -0.37296894
00000000: 44bb 913f ac2a 29bf ecf7 973f 1d14 db3f
00000010: 3690 e43f 24b7 443f f432 0c3e 714d d6be
00000020: 7f1d d2be e02a 0840 5a78 c53e 8bc5 a93f
00000030: 6340 9b3f 6c9b a53f fad1 cbbe 718e d9c0
00000040: d00f 0440 6ad4 eb3f bea2 d53f e791 4ebf
00000050: ab67 9a3f 0af3 39bf 4095 2240 06e4 0f3f
00000060: 996b 1b40 dfdd 7f3f 0707 7cbe 49b9 ee3f
00000070: ffb5 00c0 7f9b 6a3f 1ba0 073f b745 a33f
00000080: ae27 98bf d6ec d9bf 5fcc 713e 60b5 4cbf
00000090: bfe2 933f 8bb9 463e 5595 d23f b7c3 413e
000000a0: 9608 443e b8ed 87bf 7ff5 573e 863d b2bf
000000b0: e783 793e 4d77 0c40 5d97 b73f 60d7 8a3f
000000c0: 5222 fb3f 5b67 7f3f 38c2 683d 5537 b73e
000000d0: fd3f b93f 6041 413e 636c a03f 243b 453f
000000e0: 039c 9b3f 4f28 aabf ae17 e73f 4f91 b93c
000000f0: a12c c13e cbbc 093f c2fd 7abf b886 d6bf
00000100: ec37 343f 09c7 1640 640c a33f 4ff6 a53f
00000110: 3a87 a03e 9846 35be 08b0 803f e7c9 9f3f
00000120: 23cf 7d3d b8b8 843f a905 3140 d218 0440
00000130: d71c 513f 1c42 0440 1130 5b3f 160c 973e
00000140: 6822 6a3f 546d df3f 19e2 133e 07df 093f
00000150: c1c1 d73f b1b0 4e40 9036 4a3f acde dc3f
00000160: 0836 103f 538e 1c40 14d1 d3bd 5f1c 9740
00000170: 56c1 3ebf f4bf eb3f 8fa0 4140 0b2f 1340
00000180: 5bc8 8b40 36e7 ba3f 7f1d f03f 10b2 2940
00000190: c593 803f 7a8d f93f 0cca 943f b7ae 313e
000001a0: 377f 2f40 aaef 1ebf bddb 0940 7ee6 d43f
000001b0: cd42 cf3e 8fab dd3e 9e8e 3f3f b2fb 493f
000001c0: cb39 87be 0af6 bf3f dfaf 2ebd a27e 2a40
000001d0: 46fc 533e 0842 4740 6472 413f 80e0 6340
000001e0: 593d 003e 0969 1d3f 155c 913f 984c 3340
000001f0: 7f08 943f 23de 1840 3c42 003f fbdd be3f
00000200: 61fa b1bf 98a7 3e3f 371d 4dbf 1f80 ed3f
00000210: 44b5 143f 590a d13e da3c b03f a349 e83e
00000220: 571a 9ebf fd1d 2c3d b8d6 0b3e a880 9dbf
00000230: 8799 3fbe 086b c2be 5301 ecbe caf7 e7be
00000240: b802 6a3f 9581 ecbe 3bd8 c0be f213 abbe
00000250: 5b51 573f f442 e5bf 5f21 673f f56e d6be
00000260: 15db 1bbf 9476 55be 656d ad3e 1ea0 de3f
00000270: 26d8 8c3e 56eb 4b3f 3ae4 aebc 3dc8 4dbf
00000280: 251b e43e a42e c6bf e6ff ee3e c095 93bf
00000290: 9ab1 113f 267b b8be c0b2 3d3f 27dc 9d3f
000002a0: d788 373e f3f2 7a3d f2c2 e73f b68c 1ebd
000002b0: 21fb c9bd 6519 083f a65c 80bf 9e79 39bf
000002c0: 57d8 9c3f e207 fdbd 7bbf 133f a2c2 403f
000002d0: 0a73 993e 4de6 4e3f fa65 793f d52f 8b3e
000002e0: a43e e6be 57b0 5dbf 4920 7f3f 5553 c7be
000002f0: 7379 d33e c7de 0e3f 2076 9abf c9f5 bebe

weight_hh_l0 f4 [192, 64]
1.7229898 0.3575886 -0.09629482 0.1030199 -0.10111174 -0.7618483 -0.25667074 -0.56995934
-1.0093608 1.0326715 0.33681932 -1.0123879 0.22098155 0.16284168 0.6153466 0.027073247
-0.31250435 -0.31839365 0.9516304 2.565097 -0.53295416 0.1479623 0.5425958 -0.55187786
-0.21132867 1.2346956 -0.0773613 -1.2307132 -0.5664301 0.6334645 -0.12255099 -0.2968901
0.35645595 0.016136007 0.4868466 -0.32896587 -0.13023344 0.16432594 1.273082 0.12521738
-0.32914636 -0.69936126 0.37119123 0.26107466 0.41587245 1.552745 -1.8833672 -0.1703503
-0.432525 -0.27146217 0.5818917 1.0216463 -0.73599195 0.5877644 1.0041877 0.36597046
-0.39285138 -0.38086197 -0.1848015 0.7186514 0.116310224 0.02112947 -0.100524575 -0.19210537
-0.047775563 1.0410177 1.1716142 1.0306125 -0.20979305 0.05700016 -0.16241781 -0.5163575
0.43829462 1.2399615 0.53412104 0.14896858 -0.22801337 -0.7369872 0.32047343 -0.18395434
-0.40495357 0.0023310478 -0.43319017 -1.0759403 -0.43397203 -0.18624109 0.586308 0.8563067
-0.24528238 -0.18286186 -2.01431 -0.4509868 -0.29783928 0.87164164 -0.7062459 0.22526424
0.5048382 -0.50500536 -0.06698611 0.14636877 0.3486888 -0.3969232 2.4927773 0.82698184
0.010313691 -1.3804073 0.5457461 -0.7195827 -0.44978538 0.6624496 0.57681763 -0.88660306
0.47092974 -1.4919049 1.303528 0.5317833 -0.5910032 0.53814447 -1.0074651 0.020928858
0.724731 0.38497326 0.23291689 0.31739292 -0.8137665 0.22907884 -1.3203462 -0.09400568
-0.19781497 -0.35119617 -1.736457 1.5549877 -0.8615908 1.7554535 0.9203393 -0.60873526
0.07814079 1.1462815 0.59531945 1.0336453 -0.5933721 0.13668926 -0.5948354 -0.83214396
-0.09711846 0.5377167 0.261671 0.53797954 0.55098987 0.74660784 1.0669501 -0.95782334
-1.1365892 0.1841764 -0.62301505 -1.2450203 -2.4064288 1.2451571 1.0935491 0.886964
0.06535478 -1.0255541 1.2413913 -0.8435203 -0.014005322 1.3328493 0.46220532 1.6932375
-0.24033396 -0.13421267 0.6718229 -1.9380193 -0.24313982 0.89288324 0.64197975 -0.3568562
-0.114314996 0.567588 1.247502 1.8818214 0.645109 0.41091433 -1.0425719 0.48444974
-0.38141558 1.0259937 -0.2841401 -1.046718 -0.4049275 0.59133315 -0.00030200553 -0.22936238
0.46150917 -0.67383784 -0.71786356 0.47588912 0.18745425 0.85933197 0.4843335 -0.7335397
0.7261915 0.26253766 0.018603107 -0.13899352 -0.50783926 -0.8304059 0.20473033 -0.058494795
0.361549 0.37667137 0.57588536 1.3131291 0.99818915 0.06852029 0.33209264 -0.60731655
-0.3334808 0.16517217 0.57928455 -0.24682426 -0.1935443 -0.78927654 0.3242486 0.64417344
0.6168701 -1.1600763 0.022168672 -1.0895916 0.47807887 0.41499576 -0.65234363 0.8044127
-0.21347266 -0.08081272 -0.3641066 -0.6490355 1.0768614 0.14804098 -0.31342912 0.38430327
-0.7219477 -0.53373796 0.16952987 -0.23577882 0.04148971 -0.18352085 -0.32594907 -0.3026302
-0.69139814 -0.19039772 -1.3248097 -0.5664586 -0.7858318 -0.36422858 0.7325763 -0.33176604
00000000: ee8a dc3f da15 b73e 3836 c5bd 19fc d23d
00000010: ac13 cfbd 7d08 43bf 596a 83be dbe8 11bf
00000020: bc32 81bf 942e 843f 9573 ac3e ed95 81bf
00000030: fd48 623e f8bf 263e 5b87 1d3f b7c8 dd3c
00000040: 9200 a0be 7e04 a3be 0d9e 733f 8d2a 2440
00000050: af6f 08bf 6e83 173e 8fe7 0a3f de47 0dbf
00000060: 8b66 58be 810a 9e3f 9a6f 9ebd 0388 9dbf
00000070: 9001 11bf bb2a 223f 03fc fabd fb01 98be
00000080: 6581 b63e a92f 843c f543 f93e 376e a8be
00000090: ea5b 05be 0f45 283e 5af4 a23f fc38 003e
000000a0: df85 a8be 5709 33bf c70c be3e 94ab 853e
000000b0: 3ced d43e 59c0 c63f 2d12 f1bf 4f70 2ebe
000000c0: eb73 ddbe 17fd 8abe dbf6 143f 4ec5 823f
000000d0: f869 3cbf ba77 163f 3989 803f 7b60 bb3e
000000e0: d123 c9be 5700 c3be 9b3c 3dbe 8af9 373f
000000f0: 0e34 ee3d b617 ad3c d4df cdbd 45b7 44be
00000100: 4fb0 43bd 1140 853f 74f7 953f 1ceb 833f
00000110: fdd3 56be 0079 693d db50 26be 0130 04bf
00000120: 2768 e03e 0fb7 9e3f 28bc 083f 388b 183e
00000130: 567c 69be 31ab 3cbf 1815 a43e 875e 3cbe
00000140: 1356 cfbe 7ec4 183b 1acb ddbe 69b8 89bf
00000150: 9531 debe fcb5 3ebe 4818 163f ea36 5b3f
00000160: 4e2b 7bbe 2440 3bbe 74ea 00c0 bee7 e6be
00000170: 647e 98be e823 5f3f 88cc 34bf abab 663e
00000180: 143d 013f 0848 01bf 0330 89bd b2e1 153e
00000190: 5787 b23e 8539 cbbe aa89 1f40 15b5 533f
000001a0: c1fa 283c 30b1 b0bf 04b6 0b3f 9236 38bf
000001b0: 454a e6be 4c96 293f 52aa 133f 6bf8 62bf
000001c0: b41d f13e bdf6 bebf 01da a63f f322 083f
000001d0: fc4b 17bf d6c3 093f 9ef4 80bf ff72 ab3c
000001e0: f987 393f 371b c53e c481 6e3e 5381 a23e
000001f0: 0053 50bf a593 6a3e 1b01 a9bf 0d86 c0bd
00000200: 0290 4abe fccf b3be 3944 debf d609 c73f
00000210: 3791 5cbf b3b2 e03f 5b9b 6b3f 13d6 1bbf
00000220: 4708 a03d 5ab9 923f db66 183f 7d4e 843f
00000230: 3ce7 17bf 45f8 0b3e 2247 18bf 6307 55bf
00000240: 0be6 c6bd cda7 093f bef9 853e 07b9 093f
00000250: ac0d 0d3f b121 3f3f d291 883f e933 75bf
00000260: c17b 91bf bd98 3c3e ea7d 1fbf d35c 9fbf
00000270: ee02 1ac0 4f61 9f3f 6bf9 8b3f 1310 633f
00000280: bad8 853d 5b45 83bf e9e5 9e3f f2f0 57bf
00000290: 9476 65bc ce9a aa3f 2da6 ec3e 02bc d83f
000002a0: 1b1a 76be 0c6f 09be 96fc 2b3f 0411 f8bf
000002b0: a5f9 78be ff93 643f c958 243f dbb5 b6be
000002c0: fb1d eabd 724d 113f 25ae 9f3f 86df f03f
000002d0: dd25 253f 5d63 d23e ff72 85bf cc09 f83e
000002e0: e748 c3be c353 833f d07a 91be dbfa 85bf
000002f0: a852 cfbe 9c61 173f 7f56 9eb9 f9dd 6abe
00000300: ee4a ec3e a380 2cbf e8c5 37bf bda7 f33e
00000310: 02f4 3f3e 2efd 5b3f 8ffa f73e 42c9 3bbf
00000320: b0e7 393f 566b 863e 8b65 983c 5154 0ebe
00000330: c101 02bf 7b95 54bf d4a4 513e 3d98 6fbd
00000340: f31c b93e 12db c03e 396d 133f 9d14 a83f
00000350: 5389 7f3f 5e54 8c3d 0c08 aa3e 1979 1bbf
00000360: ffbd aabe e522 293e fe4b 143f 80bf 7cbe
00000370: 7a30 46be 070e 4abf ea03 a63e 8de8 243f
00000380: 33eb 1d3f 617d 94bf 139b b53c bd77 8bbf
00000390: c1c6 f43e 537a d43e feff 26bf feed 4d3f
000003a0: 9498 5abe 2481 a5bd 2e6c babe 3127 26bf
000003b0: 98d6 893f 0e98 173e c879 a0be 66c3 c43e
000003c0: 91d1 38bf 0da3 08bf 3d99 2d3e 0170 71be
000003d0: 1df1 293d e4ec 3bbe cce2 a6be 58f2 9abe
000003e0: 78ff 30bf 9ff7 42be 5d93 a9bf 6e03 11bf
000003f0: 462c 49bf 2b7c babe 1f8a 3b3f 3ddd a9be

bias_ih_l0 f4 [192]
1.2339559 0.32724637 1.6669784 0.7804462 1.8147243 0.46845052 0.7411784 0.21538398
-1.5357226 0.85232836 0.8819711 1.3671101 1.6392745 2.673315 -0.8489761 -1.935656
-0.059632495 1.9775101 0.13123925 0.77557194 2.6745467 -0.35123873 1.4351742 -0.07523426
1.499605 1.7236177 1.5233989 0.56616485 -0.94345814 0.70716256 0.7611306 1.0359921
0.054904696 -1.7427781 1.0750673 -0.28022462 0.78918093 -0.061995666 1.9861698 0.24998575
0.81963897 0.59216946 1.5315808 -0.69935465 -0.5354285 1.4239188 0.5087928 -0.7871306
1.8965764 0.8772209 0.30096614 0.8473962 1.415098 0.44962546 0.5704022 -0.5021194
2.1046417 0.0021881862 2.222515 0.18427008 -0.027402094 0.67273766 -0.46128783 -1.752476
2.1691315 3.5678272 0.7705692 1.4895031 1.0643909 -0.22267453 0.8943085 2.3912325
-1.2309718 1.1245174 3.6478748 2.598753 0.9463837 1.1858548 1.6613917 -0.9245811
0.60583186 3.3937778 0.4356379 1.1533608 1.4785922 4.3494453 1.2757666 3.422955
0.9850714 3.9308083 0.49162704 3.3256366 -0.043158244 1.9423563 4.435237 3.7318654
5.0040903 0.63294375 2.219242 4.978241 1.470363 4.2815723 1.0467345 1.2325362
3.6440685 -0.3198794 3.6596339 1.5088782 0.7238055 1.062295 1.2596561 1.5938212
0.88172096 1.0680343 -0.09086091 3.3298023 0.28382462 4.572658 2.20789 5.155027
0.32526124 0.66533977 1.1010413 3.3515162 1.3411157 4.346672 0.3430074 0.38508514
-0.9458591 -0.11402189 0.53185046 1.0589298 0.013747994 -0.17788689 0.83451873 0.885177
0.93703794 -0.9255385 1.2134488 -1.306198 1.0831566 0.47371578 -1.0514096 0.9668467
1.7784921 -1.242931 0.039196204 -1.5501593 1.4901589 -1.1165673 0.19909889 -0.07002317
-0.4560275 0.5587998 -1.2781483 -0.2423096 -1.2039986 -0.168261 -0.32386443 -1.0695298
0.46085772 -0.44483668 -0.5382666 -0.612913 0.5897764 -0.7748629 0.7985548 0.4230439
0.6812801 -1.1873474 1.459671 -1.2384312 0.09663117 -0.17013393 -0.40206578 -0.32349285
0.3015041 -0.0945983 0.8555458 0.35466504 -0.13178758 0.47392532 0.5418494 -0.1695708
-0.88553196 0.064793 1.8385389 0.7632987 0.21446505 0.20517926 -0.26581895 0.64617205
00000000: 44f2 9d3f d68c a73e 8c5f d53f 52cb 473f
00000010: e348 e83f bfd8 ef3e debd 3d3f 9e8d 5c3e
00000020: 8f92 c4bf 3132 5a3f dcc8 613f 77fd ae3f
00000030: bfd3 d13f 9817 2b40 7f56 59bf 93c3 f7bf
00000040: 3441 74bd 0d1f fd3f 9563 063e e28b 463f
00000050: c62b 2b40 90d5 b3be cab3 b73f 6b14 9abd
00000060: 0ef3 bf3f 819f dc3f bcfe c23f 2ef0 103f
00000070: 7986 71bf 9b08 353f 74d9 423f 649b 843f
00000080: bfe3 603d 5a13 dfbf ce9b 893f 9a79 8fbe
00000090: c307 4a3f 2bef 7dbd d03a fe3f 44fc 7f3e
000000a0: dcd3 513f 6b98 173f d70a c43f e808 33bf
000000b0: d811 09bf f942 b63f 3f40 023f 6481 49bf
000000c0: 04c3 f23f 8d91 603f 3c18 9a3e f5ee 583f
000000d0: ee21 b53f 4f35 e63e e105 123f e68a 00bf
000000e0: 73b2 0640 ac67 0f3b b03d 0e40 4cb1 3c3e
000000f0: 5b7a e0bc 8938 2c3f eb2d ecbe 2251 e0bf
00000100: 0dd3 0a40 4857 6440 0644 453f 0aa8 be3f
00000110: f63d 883f cb04 64be 67f1 643f f409 1940
00000120: 7c90 9dbf 30f0 8f3f c876 6940 f851 2640
00000130: 3446 723f 17ca 973f 7ca8 d43f 59b1 6cbf
00000140: cc17 1b3f a833 5940 ee0b df3e 54a1 933f
00000150: 8242 bd3f a82e 8b40 524c a33f b211 5b40
00000160: a42d 7c3f 5d92 7b40 8ab6 fb3e 3bd7 5440
00000170: b3c6 30bd 229f f83f 76ed 8d40 e2d6 6e40
00000180: 8221 a040 9a08 223f 1008 0e40 c04d 9f40
00000190: db34 bc3f a402 8940 65fb 853f bfc3 9d3f
000001a0: 6b38 6940 3cc7 a3be 7137 6a40 ec22 c13f
000001b0: 514b 393f 48f9 873f 693c a13f 5502 cc3f
000001c0: 77b8 613f 59b5 883f 4915 babd 7b1b 5540
000001d0: 7651 913e 3753 9240 124e 0d40 fbf5 a440
000001e0: a488 a63e b553 2a3f ecee 8c3f 3e7f 5640
000001f0: aea9 ab3f f017 8b40 aa9e af3e e129 c53e
00000200: d223 72bf 4f84 e9bd 5a27 083f 038b 873f
00000210: 443f 613c fb27 36be 05a3 553f f69a 623f
00000220: b8e1 6f3f 17f0 6cbf 4a52 9b3f 7f31 a7bf
00000230: e0a4 8a3f e08a f23e 9794 86bf 4483 773f
00000240: a1a5 e33f 5d18 9fbf 338c 203d 9f6b c6bf
00000250: 87bd be3f adeb 8ebf 94e0 4b3e 4f68 8fbd
00000260: 707c e9be 810d 0f3f 5d9a a3bf 0220 78be
00000270: a01c 9abf 9d4c 2cbe 8fd1 a5be 5ae6 88bf
00000280: 8bf5 eb3e a2c1 e3be d7cb 09bf dee7 1cbf
00000290: 96fb 163f 6a5d 46bf 166e 4c3f 3699 d83e
000002a0: 5f68 2e3f 00fb 97bf 80d6 ba3f ea84 9ebf
000002b0: 90e6 c53d 9737 2ebe 91db cdbe dba0 a5be
000002c0: bf5e 9a3e c1bc c1bd 0d05 5b3f a896 b53e
000002d0: 53f3 06be 57a6 f23e a4b6 0a3f f8a3 2dbe
000002e0: 39b2 62bf 31b2 843d 3e55 eb3f 8b67 433f
000002f0: ba9c 5b3e 831a 523e 6c19 88be 886b 253f

bias_hh_l0 f4 [192]
1.3540262 0.27029 1.6637512 0.7256621 1.7469534 0.44182366 0.88045776 0.22256348
-1.4849112 0.9520495 0.80754805 1.1834012 1.6980743 2.7584546 -0.7588093 -1.8558024
-0.07614872 1.9030179 0.21493863 0.7462909 2.7768776 -0.52441275 1.5239762 -0.006221459
1.5046341 1.7329559 1.3889092 0.68951017 -0.94625896 0.6456971 0.68436575 0.9989648
0.16158476 -1.7392972 1.2133837 -0.41448405 0.78273094 -0.15704174 1.9516481 0.09298956
1.0013716 0.57731354 1.4245222 -0.696111 -0.6124221 1.6410869 0.6676898 -0.7852506
1.8172817 0.78568375 0.36171624 0.84126043 1.5738151 0.62886226 0.4314966 -0.40323356
1.974167 0.041759327 2.2281485 0.31863043 0.014058701 0.5584385 -0.4283999 -1.7820415
2.2040591 3.6808848 0.7797227 1.4253215 1.023243 -0.19127308 0.85097384 2.4382827
-1.3627385 1.0561726 3.596652 2.5708058 0.91431737 1.3443725 1.6355296 -0.8769575
0.41783515 3.3672292 0.6251009 1.2097938 1.2528083 4.2777295 1.2303791 3.323579
0.79300433 3.9570987 0.39047706 3.1323464 -0.051982757 2.046176 4.392496 3.8215034
5.0603833 0.56679255 2.0733416 5.0613184 1.6738491 4.4568787 1.1274465 1.1830646
3.5875869 -0.35904375 3.7370753 1.5751951 0.7341995 1.2052338 1.3639481 1.5470972
0.8887772 1.2500658 -0.005483859 3.3118494 0.41472468 4.4986124 2.0113358 5.0362577
0.27502042 0.8575263 1.1418189 3.444348 1.3044146 4.186596 0.43236834 0.1801519
-1.7274292 0.18296589 0.473303 1.1722404 0.026296336 -0.049038082 1.9721828 1.0894182
0.78885156 -0.6702239 0.94547564 -0.84515786 0.6446357 0.3614634 -0.10384165 0.5153671
1.4696991 -1.2415154 0.23731741 -1.3055491 1.4390085 -0.7079431 -0.08558803 -0.533409
-0.63282716 0.5201981 -1.257485 -0.13450348 -0.072265804 0.14725946 -0.27543914 -1.047068
0.18690245 -0.5223552 -0.31284165 -0.6908896 0.5580636 -0.59750295 0.5950123 0.24339813
0.5706127 -0.83049244 1.6216048 -0.10026044 0.13058417 0.02427946 -0.6448202 -0.29195416
0.5632193 -0.82843286 0.5684242 0.87928146 -0.40739253 0.6105022 0.70173866 -0.19106524
-0.7571578 -0.3362602 1.6455141 0.72872263 0.76483315 0.2256798 0.08272923 0.79389995
00000000: bb50 ad3f 7363 8a3e cdf5 d43f fec4 393f
00000010: 2b9c df3f b636 e23e ae65 613f aee7 633e
00000020: 9211 bebf 84b9 733f 78bb 4e3f b179 973f
00000030: 805a d93f 858a 3040 5441 42bf ef8a edbf
00000040: dcf3 9bbd 1796 f33f df18 5c3e ec0c 3f3f
00000050: 5db8 3140 ea3f 06bf a711 c33f 61dd cbbb
00000060: da97 c03f 80d1 dd3f c7c7 b13f bd83 303f
00000070: 073e 72bf 684c 253f 9832 2f3f 28bc 7f3f
00000080: 7a76 253e 4aa1 debf 2850 9b3f 4137 d4be
00000090: 0e61 483f 8dcf 20be 9bcf f93f 4f71 be3d
000000a0: f22c 803f d2ca 133f be56 b63f 5534 32bf
000000b0: b2c7 1cbf 230f d23f b8ed 2a3f 2f06 49bf
000000c0: b09c e83f 9222 493f df32 b93e d85c 573f
000000d0: c672 c93f 1efd 203f 1fed dc3e a174 cebe
000000e0: 81b1 fc3f d40b 2b3d fc99 0e40 8723 a33e
000000f0: 7756 663c d3f5 0e3f 3b57 dbbe f019 e4bf
00000100: 4e0f 0d40 9e93 6b40 e89b 473f ef70 b63f
00000110: a0f9 823f 17dd 43be 6cd9 593f d30c 1c40
00000120: 376e aebf aa30 873f 8c2f 6640 1588 2440
00000130: b410 6a3f 6614 ac3f 0959 d13f 4980 60bf
00000140: 7dee d53e af80 5740 9d06 203f 86da 9a3f
00000150: 065c a03f 29e3 8840 107d 9d3f 85b5 5440
00000160: 5502 4b3f 1b41 7d40 9cec c73e 5d78 4840
00000170: dfeb 54bd 8cf4 0240 548f 8c40 8393 7440
00000180: a9ee a140 5119 113f a1b1 0440 52f6 a140
00000190: b040 d63f c09e 8e40 2b50 903f a96e 973f
000001a0: 069b 6540 95d4 b7be 3e2c 6f40 fe9f c93f
000001b0: 80f4 3b3f 1a45 9a3f da95 ae3f 4807 c63f
000001c0: e786 633f 2802 a03f f2b1 b3bb 57f5 5340
000001d0: cb56 d43e a2f4 8f40 bab9 0040 0629 a140
000001e0: 7acf 8c3e d886 5b3f 1f27 923f 3370 5c40
000001f0: 0ff7 a63f 98f8 8540 625f dd3e bd79 383e
00000200: 661c ddbf 695b 3b3e c554 f23e f90b 963f
00000210: 6a6b d73c 28dc 48bd 7c70 fc3f 0e72 8b3f
00000220: 2df2 493f cb93 2bbf b10a 723f 445c 58bf
00000230: d806 253f bb11 b93e eeaa d4bd 19ef 033f
00000240: 1a1f bc3f fae9 9ebf 5603 733e 3c1c a7bf
00000250: 6e31 b83f c23b 35bf c748 afbd 7e8d 08bf
00000260: f600 22bf b42b 053f 45f5 a0bf 48bb 09be
00000270: 1800 94bd 2fcb 163e 5c06 8dbe 5306 86bf
00000280: 5b63 3f3e 12b9 05bf c82c a0be 24de 30bf
00000290: 42dd 0e3f f4f5 18bf ba52 183f 5c3d 793e
000002a0: ad13 123f 279b 54bf bf90 cf3f 5855 cdbd
000002b0: dbb7 053e b8e5 c63c f012 25bf 047b 95be
000002c0: 242f 103f 2d14 54bf 4084 113f 9718 613f
000002d0: c195 d0be df49 1c3f 25a5 333f 9ba6 43be
000002e0: 18d5 41bf 4c2a acbe 35a0 d23f 918d 3a3f
000002f0: 1bcc 433f 9b18 673e f16d a93d 073d 4b3f

weight_ih_l0_reverse f4 [192, 1]
-0.6223449 -1.5376831 -0.2757983 -1.516746 -2.3686035 -1.2422038 -0.5677475 -0.9442725
-2.1230354 -0.32262027 0.40659526 0.16081542 -0.6186911 -0.8672325 -3.0851247 -0.5877821
-1.5298802 -19.605583 -0.27822796 -0.94892585 -1.3269157 -0.96125907 -0.7100859 -0.71139246
-0.3595479 -0.6675417 -1.4299229 -1.0498586 -3.9995184 -0.70216537 -5.656374 -0.97888714
-0.66022176 -1.7590604 -1.511471 -0.09108672 -0.9389537 -1.4635257 -0.272353 -1.1204318
-0.45719725 -0.046958573 -0.39854515 -0.5259773 -1.5980734 -1.8108134 -0.3891114 -1.2147249
-0.19842394 -0.1364941 -0.82061636 -0.5859535 -0.4628448 -0.4498501 -1.3928876 -0.93852854
-0.8885344 -1.5092477 0.012825953 0.2579044 -2.061146 -1.2642732 -0.87634546 -1.7700127
2.6736906 8.125373 2.9470646 3.4057436 6.1622586 3.7374108 2.2055333 2.1199577
3.9447627 2.5892088 2.397334 3.5143163 2.7170634 3.3786488 2.889337 3.965758
3.8548386 4.917899 2.4796867 4.3810415 2.9308302 3.4043918 3.062921 2.7233803
4.6472797 3.0698147 0.9044357 3.3072937 8.176911 2.8080444 3.3804677 1.7134355
2.7576332 3.2099423 -1.8159243 1.7302927 3.2427704 1.7590233 4.117388 3.3244746
2.7499254 3.0526934 2.6503618 1.953357 3.3238242 3.5785623 2.8936584 3.8832507
3.1270747 2.440318 3.6830177 2.5921538 2.5790942 3.4512894 1.1995971 9.329803
2.5740094 0.7618849 3.0334477 2.9765112 4.3642874 2.1985645 2.4651394 3.2647817
-0.6130185 2.89698 0.24736859 0.95055634 1.2931587 0.8290432 0.12791571 -0.44216564
0.62291706 -0.10028503 -1.1766344 0.013501353 0.47511494 0.32411793 -1.6679903 -1.0480323
-0.88723063 12.717568 -0.21060778 -1.0443457 -0.7321893 -1.0283556 -0.6325195 -0.5390345
0.012293754 0.8442744 0.023196919 -1.4633052 -2.5965123 0.95904577 4.077313 0.3819328
-0.39009696 -0.61429137 -1.0907997 -0.7053654 -0.459555 0.36198348 0.11703885 0.7676744
-0.24086869 -0.13139512 -0.17217201 -0.33002105 -1.3591467 0.7900083 0.17620659 0.7045401
0.4336368 0.2952391 0.76611394 0.013571367 -0.1235656 -0.4897466 -0.025962735 0.14012003
0.7096066 -0.42957288 -0.038629223 0.009917843 1.0529511 -0.54345876 0.73704046 0.44954774
00000000: ff51 1fbf cdd2 c4bf 6f35 8dbe bc24 c2bf
00000010: 3397 17c0 8900 9fbf e657 11bf d8bb 71bf
00000020: d0df 07c0 7c2e a5be 412d d03e ccac 243e
00000030: 8a62 1ebf f302 5ebf af72 45c0 e378 16bf
00000040: 1dd3 c3bf 3cd8 9cc1 e573 8ebe ceec 72bf
00000050: 60d8 a9bf 1315 76bf 31c8 35bf d11d 36bf
00000060: aa16 b8be 03e4 2abf b707 b7bf c461 86bf
00000070: 1cf8 7fc0 1cc1 33bf 0401 b5c0 5998 7abf
00000080: 4b04 29bf e428 e1bf e277 c1bf ad8b babd
00000090: 455f 70bf cf54 bbbf da71 8bbe 4f6a 8fbf
000000a0: c215 eabe a257 40bd 1c0e ccbe 73a6 06bf
000000b0: ab8d ccbf bcc8 e7bf 9c39 c7be 1b7c 9bbf
000000c0: a52f 4bbe 1cc5 0bbe ea13 52bf 0c01 16bf
000000d0: fef9 ecbe c152 e6be 244a b2bf 6843 70bf
000000e0: fe76 63bf 072f c1bf f223 523c 0c0c 843e
000000f0: d1e9 03c0 b4d3 a1bf 2d58 60bf c78f e2bf
00000100: bf1d 2b40 8701 0241 b59c 3c40 b4f7 5940
00000110: 3931 c540 bd31 6f40 7527 0d40 63ad 0740
00000120: fe76 7c40 99b5 2540 ec6d 1940 8fea 6040
00000130: 5ee4 2d40 c83b 5840 e6ea 3840 fbce 7d40
00000140: adb5 7640 6e5f 9d40 30b3 1e40 7e31 8c40
00000150: b992 3b40 8ee1 5940 e606 4440 dd4b 2e40
00000160: 84b6 9440 d877 4440 1989 673f b3aa 5340
00000170: a1d4 0241 00b7 3340 9559 5840 db51 db3f
00000180: 107d 3040 b26f 4d40 3570 e8bf 3b7a dd3f
00000190: 8d89 4f40 ad27 e13f a4c1 8340 31c4 5440
000001a0: c7fe 2f40 545f 4340 879f 2940 9a07 fa3f
000001b0: 89b9 5440 2a07 6540 b331 3940 2e87 7840
000001c0: fe21 4840 2c2e 1c40 90b6 6b40 d9e5 2540
000001d0: e10f 2540 ede1 5c40 668c 993f e046 1541
000001e0: 92bc 2440 e40a 433f 0224 4240 297f 3e40
000001f0: 3ea8 8b40 48b5 0c40 d8c4 1d40 2ff2 5040
00000200: c8ee 1cbf 1f68 3940 314e 7d3e a957 733f
00000210: 3986 a53f 2d3c 543f 56fc 023e 8963 e2be
00000220: 7e77 1f3f 3d62 cdbd f59b 96bf c734 5d3c
00000230: 4442 f33e c9f2 a53e b580 d5bf ec25 86bf
00000240: 8c21 63bf 297b 4b41 91a9 57be 1fad 85bf
00000250: c270 3bbf 28a1 83bf ccec 21bf 2afe 09bf
00000260: be6b 493c 5e22 583f 7707 be3c 964d bbbf
00000270: 422d 26c0 0684 753f 5979 8240 b28c c33e
00000280: caba c7be 3342 1dbf 539f 8bbf d492 34bf
00000290: cb4a ebbe e655 b93e 11b2 ef3d 4f86 443f
000002a0: 48a6 76be 718c 06be dc4d 30be 85f8 a8be
000002b0: 85f8 adbf fc3d 4a3f 806f 343e bd5c 343f
000002c0: a505 de3e 9429 973e 0b20 443f 705a 5e3c
000002d0: f60f fdbd 11c0 fabe cdaf d4bc a07b 0f3e
000002e0: c7a8 353f faf0 dbbe ad39 1ebd 737e 223c
000002f0: 1ac7 863f 1d20 0bbf afae 3c3f 1f2b e63e

weight_hh_l0_reverse f4 [192, 64]
-0.6849711 -0.45019594 0.5148141 0.38478568 -0.17828906 0.30949745 -0.09860581 -0.78018445
-0.12207966 -0.4458805 0.4533438 0.54325235 0.2924998 0.048666775 -0.36727715 -0.42107844
-0.18236867 0.004088819 0.17657281 -0.16666338 -0.3731111 -0.19294168 -0.51040095 -0.09202963
-0.3978362 0.50978285 -0.5136095 0.18137547 0.3745476 0.47630194 -0.14977178 0.047000237
-0.16958836 -0.2712786 -0.93850213 0.22493279 0.09753499 0.17527391 0.16222703 -0.548949
-0.0047992794 0.21807411 -0.3168152 0.22579385 -0.25919256 0.2576034 0.4653383 0.11355865
0.5909318 0.30117288 0.56579036 -0.02832787 -0.077104 -0.43931773 -0.37707403 0.45096323
0.4678288 0.40440547 0.44074118 -0.39472523 0.53467643 -0.13381937 0.27779832 0.5577208
-0.00684467 0.4583166 0.0656333 0.30270886 0.18083052 0.27107164 -0.109322004 -0.009943936
0.21998376 -0.13006924 0.42025846 0.18807921 0.018612279 0.29443792 -0.052815724 -0.0807084
-0.14544427 0.020510491 -0.94647944 -0.25035566 -0.11375613 0.276389 -0.04456295 0.58892226
-0.35646844 0.19970907 0.23681432 0.5088471 -0.73711663 0.0999986 0.39588526 -1.0355291
-0.16126904 -0.07783727 0.7216285 1.0149893 -0.03446855 -0.04338763 0.5178107 -0.7311046
-0.23165815 0.30013117 -0.46768788 0.0736997 0.014284273 0.7157687 0.294795 0.06959819
0.2677809 0.097482726 0.24233936 -0.049488164 -0.14669698 -0.45224276 0.024970084 0.6071036
-0.022275163 1.2410477 0.14299676 -0.3632303 0.33362424 0.024860594 0.16885652 0.27273503
-0.31548622 0.054005522 0.2601358 0.40121287 0.21470518 0.28711748 -0.33502108 -0.30704305
0.40413064 -0.40032703 0.62307996 0.75436455 0.24225271 0.44670892 -0.30688155 -0.20300707
-0.37186304 -0.17240174 0.17897032 -0.44665134 -0.37570825 -0.16308829 -0.22494441 -0.25563854
-0.75233257 0.41647762 -0.1202285 0.25418425 -0.044533465 0.44884267 -0.098900855 0.0015207141
-0.059940215 -0.23712729 -0.6498516 0.43853024 -0.014166473 0.059582144 0.48204276 -0.53040916
-0.26095223 0.29973373 -0.39302823 0.24291608 -0.04012378 0.43263572 0.54459786 0.3031423
0.3866083 0.58091265 0.5382362 -0.37848505 -0.38179734 -0.49578646 -0.1157998 0.5912112
0.023603676 0.48749903 0.48803318 -0.42010275 0.6878175 -0.023696013 0.101126075 0.58346504
-0.50563204 -0.5213677 0.6986082 0.34510735 -0.076924466 0.42576364 -0.107801355 -0.43352205
0.13842049 -0.46623966 0.6055355 0.37876517 0.32545212 0.44665545 -0.37458962 -0.07778574
0.072126366 -0.33526704 0.11431586 -0.22365727 -0.3982551 0.0023754411 -0.34719756 0.13950366
-0.36851957 0.46641162 -0.8007292 0.38654563 0.08634518 0.3940821 -0.001139046 0.235413
-0.38542145 -0.18598177 -0.80040616 0.15357152 0.13491748 -0.097193204 0.46836406 -0.6435767
-0.14858589 0.37872308 -0.38340113 0.1017911 -0.11952481 0.098288424 0.41969278 -0.06444452
0.4906479 0.21219765 0.36052263 -0.27361482 -0.013106371 -0.32363552 -0.2547775 0.47326183
0.22472253 0.27683747 0.5405472 -0.44268972 0.20499559 0.06293566 0.1692028 0.559372
00000000: 445a 2fbf 1580 e6be dbca 033f a102 c53e
00000010: 6891 36be 7376 9e3e d8f1 c9bd 2bba 47bf
00000020: e704 fabd 734a e4be ae1c e83e 9612 0b3f
00000030: 89c2 953e d056 473d c00b bcbe 9897 d7be
00000040: dabe 3abe 80fb 853b 81cf 343e cea9 2abe
00000050: 6b08 bfbe 8192 45be a3a9 02bf 087a bcbd
00000060: 30b1 cbbe 2181 023f ea7b 03bf 7eba 393e
00000070: b4c4 bf3e d9dd f33e c65d 19be 5283 403d
00000080: 92a8 2dbe 07e5 8abe ad41 70bf c854 663e
00000090: 6dc0 c73d 017b 333e d81e 263e ec87 0cbf
000000a0: 4643 9dbb d24e 5f3e 9a35 a2be 8136 673e
000000b0: e3b4 84be 98e4 833e d240 ee3e 7091 e83d
000000c0: 4e47 173f 5533 9a3e a3d7 103f d90f e8bc
000000d0: b4e8 9dbd 41ee e0be d90f c1be a7e4 e63e
000000e0: 4287 ef3e 3c0e cf3e d4a8 e13e 6d19 cabe
000000f0: 8ee0 083f f207 09be 953b 8e3e cac6 0e3f
00000100: 4149 e0bb 79a8 ea3e c06a 863d a8fc 9a3e
00000110: a32b 393e e7c9 8a3e 37e4 dfbd e4eb 22bc
00000120: 6c43 613e df30 05be 1e2c d73e d697 403e
00000130: c778 983c 91c0 963e 4d55 58bd 724a a5bd
00000140: 58ef 14be 9e05 a83c 7a4c 72bf 9e2e 80be
00000150: f9f8 e8bd dc82 8d3e a487 36bd 9cc3 163f
00000160: 0883 b6be 8980 4c3e 747f 723e ce43 023f
00000170: adb3 3cbf 11cc cc3d 79b1 ca3e 388c 84bf
00000180: b623 25be 2669 9fbd a5bc 383f 2beb 813f
00000190: e52e 0dbd 3ab7 31bd 3e8f 043f ac29 3bbf
000001a0: cb37 6dbe cbaa 993e c974 efbe deef 963d
000001b0: 9508 6a3c 9e3c 373f 5fef 963e 7f89 8e3d
000001c0: 941a 893e 06a5 c73d cf27 783e 1ab4 4abd
000001d0: bc37 16be 5d8c e7be 108e cc3c 246b 1b3f
000001e0: 677a b6bc a7da 9e3f be6d 123e 52f9 b9be
000001f0: ccd0 aa3e 72a8 cb3c b9e8 2c3e eda3 8b3e
00000200: 6987 a1be e534 5d3d 8530 853e c66b cd3e
00000210: addb 5b3e 1001 933e e287 abbe bf34 9dbe
00000220: 36ea ce3e aaf7 ccbe 2b82 1f3f 091e 413f
00000230: 1811 783e 08b7 e43e 941f 9dbe 16e1 4fbe
00000240: d564 bebe 158a 30be ff43 373e 7caf e4be
00000250: d55c c0be 9e00 27be d457 66be 0ee3 82be
00000260: de98 40bf 8e3c d53e 5c3a f6bd 7024 823e
00000270: b968 36bd b5ce e53e 888c cabd b352 c73a
00000280: df83 75bd 7fd1 72be ad5c 26bf 0987 e03e
00000290: 7f1a 68bc 680c 743d 4fce f63e e5c8 07bf
000002a0: 889b 85be b376 993e ff3a c9be febe 783e
000002b0: d558 24bd 6e82 dd3e c46a 0b3f 7835 9b3e
000002c0: 86f1 c53e b1b6 143f d9c9 093f cbc8 c1be
000002d0: f17a c3be b9d7 fdbe 7228 edbd 9e59 173f
000002e0: 7f5c c13c 7999 f93e 7cdf f93e b517 d7be
000002f0: cf14 303f 241e c2bc 301b cf3d f75d 153f
00000300: 1a71 01bf 5b78 05bf fdd7 323f e9b1 b03e
00000310: 938a 9dbd b1fd d93e f5c6 dcbd 9af6 ddbe
00000320: 1abe 0d3e f7b6 eebe 6004 1b3f 82ed c13e
00000330: a9a1 a63e 06b0 e43e 36ca bfbe 214e 9fbd
00000340: fdb6 933d 1fa8 abbe 6f1e ea3d 6906 65be
00000350: 18e8 cbbe 4aad 1b3b e1c3 b1be 0cda 0e3e
00000360: 99ae bcbe 81cd ee3e 97fc 4cbf 4fe9 c53e
00000370: bed5 b03d 21c5 c93e 0b4c 95ba 1b10 713e
00000380: f655 c5be 0172 3ebe 6be7 4cbf da41 1d3e
00000390: cf27 0a3e 3b0d c7bd 6acd ef3e 71c1 24bf
000003a0: e626 18be fee7 c13e 274d c4be da77 d03d
000003b0: 6cc9 f4bd 714b c93d f9e1 d63e 7dfb 83bd
000003c0: 3436 fb3e 574a 593e 6c96 b83e 3e17 8cbe
000003d0: 1bbc 56bc 8eb3 a5be 3272 82be 604f f23e
000003e0: aa1d 663e a4bd 8d3e 4d61 0a3f 3aa8 e2be
000003f0: 5dea 513e 69e4 803d 8043 2d3e 0133 0f3f

bias_ih_l0_reverse f4 [192]
-0.7218357 -0.5711362 -0.8588388 -0.27815914 0.024608219 -0.20682165 -0.44537112 -0.7252694
-0.6588589 0.17283612 1.90459 0.8043156 0.094234236 -0.20904075 -1.012061 -0.80378073
-1.4074254 -0.20712712 0.28453383 -0.4155742 -1.0283808 -0.860425 -0.33889508 -0.7325843
1.1879531 -0.8401079 -1.0656091 1.0482942 -0.37650052 -0.22095954 -0.6077934 -0.6139719
-1.1653137 -0.8431597 -1.8034174 0.56624675 -0.38732484 -2.031123 0.70108306 2.4524276
-0.39459652 0.71889776 0.26956218 -0.48732993 -1.0388085 -0.67795867 0.15354614 -0.45617196
0.4658616 0.9604919 -0.3094979 -0.5440881 -0.32061645 0.4448902 -1.1498604 2.135296
-1.253669 -1.6599445 0.77023894 1.1116629 -0.8941357 -0.97054607 -1.1730353 -0.56706333
2.9144099 1.7983239 3.388606 2.8377697 2.369619 2.763935 2.8303978 3.2309284
2.5604515 2.8445232 0.9118163 2.9646254 3.0168302 3.0681562 2.5398517 3.8993878
3.1879716 1.9291562 2.1013904 3.0249672 3.1552496 3.8491714 3.1451755 3.4400346
2.5587442 3.1744173 3.5926392 1.97093 2.144925 3.0659213 2.2383711 2.3070498
3.4245694 3.0364122 1.086603 1.9440958 3.205938 3.9655962 2.8309784 -0.9183955
2.9820948 2.7859712 2.6901035 2.946858 2.8859422 2.676111 2.8917217 3.1243284
3.228283 3.187401 3.1789916 2.865461 2.9561865 2.9605918 3.9291809 0.34152207
3.447905 3.3270133 2.9418564 3.026395 2.7056122 3.4020948 3.515477 3.1989977
0.06849825 -0.6345908 -0.073984586 -0.12464672 -0.43501446 -0.54456437 0.5437907 -0.10235636
-0.47451 1.049262 -3.0021663 -1.2991916 0.015501589 -0.8240352 -0.006941296 0.22145304
0.13173844 0.592238 0.96481854 0.39050406 0.045415286 -0.01434675 0.05999913 -0.043435294
1.7139931 -0.30088782 0.030292476 -0.9321495 0.4956645 0.030023437 -0.1319774 1.0550598
0.043909308 0.07566085 0.11133239 -1.9729147 0.45881808 -0.27307546 -1.4365745 3.40594
0.46287742 -1.5625035 1.0241222 -0.65866166 0.03624283 -0.5213464 -1.0311145 -0.29358825
-0.6989882 -0.9090065 -0.6099994 0.36255237 0.4249913 1.014589 -0.071268454 -3.137749
0.078944765 -0.46448973 -1.3794448 1.2565962 -0.42209825 -0.1398637 -0.038928878 -0.59448516
00000000: 39ca 38bf fb35 12bf dcdc 5bbf e06a 8ebe
00000010: 2d97 c93c 0ec9 53be af07 e4be 41ab 39bf
00000020: faaa 28bf f4fb 303e 9bc9 f33f a1e7 4d3f
00000030: e1fd c03d c70e 56be 378b 81bf 93c4 4dbf
00000040: 8426 b4bf 2219 54be 6bae 913e 24c6 d4be
00000050: fba1 83bf d044 5cbf a883 adbe a58a 3bbf
00000060: d90e 983f 5011 57bf e165 88bf 812e 863f
00000070: adc4 c0be 3843 62be 5998 1bbf 432d 1dbf
00000080: 0029 95bf 50d9 57bf 62d6 e6bf 8cf5 103f
00000090: 714f c6be ebfd 01c0 2e7a 333f 93f4 1c40
000000a0: 8e08 cabe af09 383f 0e04 8a3e 4f83 f9be
000000b0: adf7 84bf b38e 2dbf 333b 1d3e 5f8f e9be
000000c0: 6985 ee3e cce2 753f 8276 9ebe 5c49 0bbf
000000d0: d727 a4be a6c8 e33e a02e 93bf b1a8 0840
000000e0: 3a78 a0bf 1079 d4bf 612e 453f f84a 8e3f
000000f0: 14e6 64bf b575 78bf 0526 96bf 102b 11bf
00000100: b185 3a40 7a2f e63f ecde 5840 059e 3540
00000110: d6a7 1740 50e4 3040 3d25 3540 88c7 4e40
00000120: 70de 2340 ab0c 3640 cb6c 693f 6cbc 3d40
00000130: bf13 4140 ac5c 4440 ee8c 2240 928f 7940
00000140: ba07 4c40 97ee f63f 2e7d 0640 1099 4140
00000150: 9cef 4940 d358 7640 8e4a 4940 8729 5c40
00000160: 77c2 2340 a729 4b40 cded 6540 6f47 fc3f
00000170: 7446 0940 0e38 4440 7941 0f40 b4a6 1340
00000180: 252c 5b40 9454 4240 cf15 8b3f 22d8 f83f
00000190: 172e 4d40 54cc 7d40 c02e 3540 f81b 6bbf
000001a0: a4da 3e40 5a4d 3240 a82a 2c40 5299 3c40
000001b0: 47b3 3840 6745 2b40 f811 3940 fff4 4740
000001c0: 309c 4e40 61fe 4b40 9974 4b40 b763 3740
000001d0: 2932 3d40 567a 3d40 b377 7b40 fbdb ae3e
000001e0: 7aaa 5c40 c9ed 5440 6047 3c40 75b0 4140
000001f0: c028 2d40 ecbb 5940 93fd 6040 61bc 4c40
00000200: cf48 8c3d 8b74 22bf 3b85 97bd c846 ffbd
00000210: 37ba debe 9268 0bbf de35 0b3f 36a0 d1bd
00000220: faf2 f2be 384e 863f 7e23 40c0 e94b a6bf
00000230: 60fa 7d3c f9f3 52bf d073 e3bb 96c4 623e
00000240: 71e6 063e e99c 173f 59fe 763f 26f0 c73e
00000250: 6105 3a3d a20e 6bbc a6c1 753d 35e9 31bd
00000260: 2064 db3f f80d 9abe ed27 f83c 5aa1 6ebf
00000270: bdc7 fd3e b6f3 f53c 1525 07be 330c 873f
00000280: 3fda 333d 13f4 9a3d 3c02 e43d 7888 fcbf
00000290: 34ea ea3e 8cd0 8bbe ace1 b7bf ecfa 5940
000002a0: 45fe ec3e 1d00 c8bf 7016 833f 0d9e 28bf
000002b0: 5d73 143d f576 05bf 8ffb 83bf 3351 96be
000002c0: e4f0 32bf a6b4 68bf ec28 1cbf 77a0 b93e
000002d0: 7698 d93e 0dde 813f 32f5 91bd e1d0 48c0
000002e0: cbad a13d 99d1 edbe a691 b0bf 25d8 a03f
000002f0: 431d d8be 6e38 0fbe e373 1fbd 2e30 18bf

bias_hh_l0_reverse f4 [192]
-0.75398344 -0.6031962 -0.7426225 -0.48735735 -0.118346624 -0.21035618 -0.5262916 -0.6643215
-0.49505365 0.059756383 2.0671659 0.9514473 -0.05558108 -0.2427272 -0.870326 -0.7096838
-1.238748 -0.28729662 0.2055095 -0.24645878 -1.0376805 -0.8372193 -0.4156496 -0.77282596
1.1385648 -0.8414088 -1.0375447 0.9852922 -0.33664605 -0.16460894 -0.49088418 -0.50870055
-1.103383 -0.80650747 -1.8068365 0.6376438 -0.59564483 -1.8558762 0.79037035 2.587157
-0.5214201 0.9258125 0.18592763 -0.3996869 -1.2101772 -0.6347809 0.1783867 -0.47207028
0.27726725 0.79029 -0.1848415 -0.5438184 -0.36601052 0.5027654 -1.16771 2.0816197
-1.1652957 -1.7313783 0.80049515 0.9365327 -1.0052898 -1.0651183 -1.0171019 -0.35160768
2.9146419 1.8568932 3.4298124 2.826019 2.3811252 2.8903325 2.8747385 3.1137805
2.7123744 2.8817267 1.0675553 3.1498585 3.0941093 3.0325365 2.4537895 3.905183
3.252639 2.0483503 2.253374 2.8415759 3.1001258 3.67295 3.1500902 3.3251505
2.6718075 3.1743224 3.5965512 2.0134606 2.1177442 2.8430052 2.3189309 2.084083
3.4151351 3.01851 1.0436625 2.0062294 3.3385415 4.0724463 2.844995 -0.88143975
3.195918 2.7090993 2.6667206 2.9750047 2.9528034 2.7807336 2.8536315 3.2047832
3.319721 3.2264318 3.0296028 2.8207815 3.0834572 2.8378108 3.8789403 0.47304025
3.4223025 3.4758878 2.9488833 3.0727086 2.922961 3.2955706 3.4965384 3.0477433
0.104229905 -0.6132199 -0.08263397 -0.34019685 -0.6949751 -0.52243817 0.49781492 0.26653352
-0.60521346 0.86661583 -3.080513 -1.2962242 -0.3473664 -0.47188857 0.76454246 0.40451932
0.31242004 0.18655327 0.8428275 0.4933933 0.2369607 0.2674936 0.30775556 0.117046855
1.7071649 -0.042719036 -0.63367295 -1.0806196 0.59149885 -0.42558473 -0.11314221 0.6468224
0.10972138 0.34586766 -1.1614285 -1.681257 0.45732883 -0.047161058 -1.4352286 3.424168
0.43391606 -1.4451467 0.85617816 -0.5920937 0.3308129 -0.46543956 -0.74899656 -0.395033
-0.6752369 -1.125494 -0.50310796 0.54254884 0.27031612 0.92152244 -0.22182655 -3.1010382
-0.095662475 0.087655574 -1.2858799 1.2785771 -0.218483 0.39016062 -0.26069903 -0.36898607
00000000: 0f05 41bf 116b 1abf 821c 3ebf e786 f9be
00000010: b75f f2bd 9c67 57be 0cbb 06bf f910 2abf
00000020: ac77 fdbe 1cc3 743d 724c 0440 0d92 733f
00000030: fda8 63bd 7b8d 78be afcd 5ebf d6ad 35bf
00000040: 4b8f 9ebf 8b18 93be 1571 523e b15f 7cbe
00000050: b7d2 84bf 0154 56bf 06d0 d4be ecd7 45bf
00000060: 7ebc 913f 9166 57bf 44ce 84bf 1c3c 7c3f
00000070: df5c acbe 3f8f 28be 2c55 fbbe 333a 02bf
00000080: a73b 8dbf 4677 4ebf 6b46 e7bf a03c 233f
00000090: 2e7c 18bf 5a8d edbf b655 4a3f fb93 2540
000000a0: ca7b 05bf 0c02 6d3f d063 3e3e c3a3 ccbe
000000b0: 16e7 9abf 0081 22bf 01ab 363e 32b3 f1be
000000c0: f9f5 8d3e 7250 4a3f 1747 3dbe af37 0bbf
000000d0: bb65 bbbe 3cb5 003f 8577 95bf 4239 0540
000000e0: 6928 95bf ce9d ddbf 40ed 4c3f 9bc0 6f3f
000000f0: 56ad 80bf cc55 88bf 6530 82bf ec05 b4be
00000100: 7e89 3a40 adae ed3f 0c82 5b40 7fdd 3440
00000110: 5b64 1840 35fb 3840 b7fb 3740 2e48 4740
00000120: 8b97 2d40 366e 3840 a7a5 883f 4897 4940
00000130: e305 4640 1415 4240 e30a 1d40 85ee 7940
00000140: 3d2b 5040 2c18 0340 4837 1040 61dc 3540
00000150: 7668 4640 9d11 6b40 149b 4940 44cf 5440
00000160: e5fe 2a40 1928 4b40 e52d 6640 8adc 0040
00000170: 1f89 0740 ccf3 3540 5d69 1440 9e61 0540
00000180: 9391 5a40 452f 4140 bc96 853f 1066 0040
00000190: aaaa 5540 7b51 8240 6614 3640 09a6 61bf
000001a0: ec89 4c40 e261 2d40 8dab 2a40 7a66 3e40
000001b0: bbfa 3c40 8af7 3140 e6a1 3640 2b1b 4d40
000001c0: 4f76 5440 dc7d 4e40 03e5 4140 af87 3440
000001d0: 5d57 4540 b19e 3540 8f40 7840 5532 f23e
000001e0: 0107 5b40 f274 5e40 81ba 3c40 42a7 4440
000001f0: cb11 3b40 a1ea 5240 49c7 5f40 3a0e 4340
00000200: 7d76 d53d fbfb 1cbf 003c a9bd 482e aebe
00000210: e3e9 31bf 82be 05bf 99e1 fe3e 1577 883e
00000220: 45ef 1abf 89da 5d3f 2027 45c0 adea a5bf
00000230: 02da b1be 619b f1be 0eb9 433f 281d cf3e
00000240: 85f5 9f3e d207 3f3e 8bc3 573f 0c9e fc3e
00000250: d3a5 723e ecf4 883e 2392 9d3e 43b6 ef3d
00000260: 6184 da3f 28fa 2ebd 6438 22bf be51 8abf
00000270: 786c 173f 3ee6 d9be 1ab7 e7bd 2796 253f
00000280: 9ab5 e03d 9115 b13e b0a9 94bf 6e33 d7bf
00000290: 0127 ea3e f42b 41bd 92b5 b7bf 9225 5b40
000002a0: 3f2a de3e 91fa b8bf 7e2e 5b3f 7493 17bf
000002b0: 4f60 a93e 184e eebe 3dbe 3fbf c441 cabe
000002c0: 53dc 2cbf 3010 90bf afcb 00bf 7be4 0a3f
000002d0: e066 8a3e e5e8 6b3f 8026 63be 6977 46c0
000002e0: b0ea c3bd c484 b33d b697 a4bf 6aa8 a33f
000002f0: 02ba 5fbe 22c3 c73e 587a 85be beeb bcbe

weight_ih_l1 f4 [192, 128]
-0.05352793 0.14903343 -0.067474805 0.17569235 0.0054006195 -0.1899621 -0.15180501 0.09313605
-0.47314674 0.078337006 0.38819185 -0.25028685 0.46891612 0.021940196 0.27266857 -0.2149184
0.124826185 0.073699884 0.13541785 -0.32155484 -0.11881923 0.009934757 0.15700741 -0.02848569
0.4294759 0.11507265 -0.19259818 0.0006305543 0.08538779 0.0726339 0.04665783 0.015502919
-0.4384828 -0.40432358 -0.02138499 0.07204731 0.06292057 0.10377646 0.050164796 -0.030793717
-0.0671349 0.2083379 0.21988 -0.20414048 0.57405984 0.18500678 -0.058985263 -0.27731755
0.45849544 -0.047469575 0.7072926 0.3619088 -0.054343227 0.24477036 0.22592853 -0.1840787
-0.17164433 -0.10100307 -0.11809626 -0.02651787 -0.21430686 0.14658237 -0.5313467 -0.30061635
0.035623573 0.16508785 -0.06765146 0.06232221 0.18842863 -0.12442462 0.09121883 0.18457945
0.03375054 -0.00055987685 -0.24960513 -0.19901353 -0.050444208 0.021387925 0.03025807 0.3370196
0.20147374 0.15799177 0.0706012 -0.16722664 0.1098546 0.27396554 0.21491715 0.067046605
0.2574229 0.02366656 -0.08471393 -0.17225906 -0.0795806 -0.3172246 0.10542941 -0.07356444
0.123303406 -0.13847929 -0.36591643 0.17384413 0.16411996 0.016268468 -0.14514966 0.12212855
0.29346144 -0.22325656 0.10868386 -0.33204034 0.009037806 0.34516105 -0.123954475 0.063694715
-0.06543939 -0.033378553 0.05027422 0.016531685 -0.07392093 0.19027326 -0.113726825 -0.06989508
-0.025729325 -0.15258189 -0.19385551 0.10639719 -0.028701166 0.07921607 0.33524072 -0.14056216
-0.35989982 0.23435242 0.76472706 0.32470074 -0.67656624 0.30271608 0.009655294 -0.37316015
-0.14355725 -1.2520589 0.42268538 0.22566055 1.0149553 -0.509728 0.2075095 -0.86741424
0.8056506 0.07947516 -0.18481074 -0.6919419 0.36811844 -0.062235896 -0.13101125 0.046787452
-0.9617897 -0.037128273 -0.5986252 0.2658745 0.21827275 -0.5966977 -0.13711223 0.32559344
0.49188042 -1.4601449 0.6921492 0.18906015 0.16062635 -0.3201444 0.82453215 0.048356716
0.77516466 -0.23333417 0.22758667 -0.68703866 0.36489132 0.48484832 -0.2652823 -0.6211519
0.5453585 -0.70070535 0.4909401 -0.05727211 -0.2733664 0.15537888 0.4143482 -0.1077801
-0.4535514 -0.29466248 0.27307597 -0.7997566 -0.6400062 0.5563522 -0.056779873 -1.397223
0.7050292 -0.20646691 -0.5318408 -0.8472824 -0.36004108 -0.5267734 0.76308036 0.5522226
-0.47284716 0.64240617 -0.024270795 -0.69323254 -0.8188732 -0.61720276 0.80585206 0.50134027
0.033122797 0.25420856 -0.13851343 0.37269193 0.80212295 0.31790057 0.6209431 -0.17241165
0.42636612 -0.7370278 0.7531592 0.007143087 0.3482534 -0.85002303 0.18810906 -0.22102785
0.7611679 0.69469976 -0.869958 0.0156849 0.44041812 -0.1842201 -0.18727516 -0.12559247
0.647306 -0.7554831 0.6111353 -0.61662287 0.6704468 -0.24140921 -0.7343117 -0.7148676
-0.7355285 -0.56468755 -0.55154395 0.5326589 0.5221962 0.77766895 0.86231077 -0.07538492
-0.6240015 0.6043089 -0.60257554 0.8213971 -0.16910271 0.6887106 -0.4117441 -0.691876
00000000: 1a40 5bbd 389c 183e 3b30 8abd b2e8 333e
00000010: aef7 b03b 6d85 42be c672 1bbe 1dbe be3d
00000020: 4a40 f2be 276f a03d 15c1 c63e 9925 80be
00000030: c615 f03e edbb b33c 379b 8b3e 9213 5cbe
00000040: dfa4 ff3d f7ef 963d faaa 0a3e d6a2 a4be
00000050: 7f57 f3bd 64c5 223c 8dc6 203e d25a e9bc
00000060: 44e4 db3e 36ab eb3d 7538 45be c84b 253a
00000070: cbdf ae3d 15c1 943d 481c 3f3d f5ff 7d3c
00000080: d180 e0be 8003 cfbe 932f afbc 8a8d 933d
00000090: 80dc 803d c188 d43d 9a79 4d3d 1b43 fcbc
000000a0: 067e 89bd 8856 553e 3928 613e 340a 51be
000000b0: 96f5 123f 6b72 3d3e 889a 71bd 91fc 8dbe
000000c0: eabf ea3e 756f 42bd 2111 353f 1c4c b93e
000000d0: 0197 5ebd 15a5 7a3e cf59 673e 207f 3cbe
000000e0: 88c3 2fbe b3da cebd 74dc f1bd 013c d9bc
000000f0: 4273 5bbe b019 163e 5606 08bf 63ea 99be
00000100: 06ea 113d ca0c 293e d98c 8abd 9345 7f3d
00000110: 6ff3 403e 56d2 febd f0d0 ba3d 6502 3d3e
00000120: 023e 0a3d b3c4 12ba 7d98 7fbe 34ca 4bbe
00000130: 969e 4ebd bb35 af3c c6df f73c d58d ac3e
00000140: 224f 4e3e 98c8 213e 5d97 903d 763d 2bbe
00000150: 73fb e03d 3645 8c3e 3e13 5c3e bb4f 893d
00000160: efcc 833e 60e0 c13c 7f7e adbd ae64 30be
00000170: 27fb a2bd 436b a2be 60eb d73d f4a8 96bd
00000180: 7f86 fc3d 84cd 0dbe 6659 bbbe 3204 323e
00000190: 100f 283e 7345 853c 1da2 14be 891e fa3d
000001a0: 9440 963e 5e9d 64be a595 de3d 3101 aabe
000001b0: 4e13 143c f3b8 b03e d8db fdbd 6072 823d
000001c0: 1605 86bd f3b7 08bd 57ec 4d3d 756d 873c
000001d0: db63 97bd fed6 423e 9ce9 e8bd 2725 8fbd
000001e0: 4ec6 d2bc 6d3e 1cbe 0f82 46be c5e6 d93d
000001f0: b51e ebbc 093c a23d aca4 ab3e 87ef 0fbe
00000200: ca44 b8be 15fa 6f3e 27c5 433f 2d3f a63e
00000210: 7233 2dbf 9afd 9a3e 3d31 1e3c d90e bfbe
00000220: ac00 13be 7743 a0bf 386a d83e 8f13 673e
00000230: 0eea 813f 897d 02bf 5f7d 543e dc0e 5ebf
00000240: 1e3f 4e3f dfc3 a23d 073f 3dbe 1b23 31bf
00000250: 057a bc3e 11eb 7ebd d027 06be 33a4 3f3d
00000260: da37 76bf d113 18bd 803f 19bf b420 883e
00000270: e482 5f3e 2ec1 18bf 2667 0cbe 2fb4 a63e
00000280: c0d7 fb3e 07e6 babf b130 313f fc98 413e
00000290: 3c7b 243e f7e9 a3be 8a14 533f b111 463d
000002a0: 3171 463f 27ef 6ebe 7b0c 693e c4e1 2fbf
000002b0: 09d3 ba3e 0a3e f83e 15d3 87be d003 1fbf
000002c0: 9d9c 0b3f 6d61 33bf 805c fb3e 2996 6abd
000002d0: aef6 8bbe a41b 1f3e 7325 d43e d0bb dcbd
000002e0: e437 e8be 00de 96be 9dd0 8b3e d9bc 4cbf
000002f0: 72d7 23bf 196d 0e3f 0392 68bd 34d8 b2bf
00000300: cb7c 343f 106c 53be b826 08bf 80e7 58bf
00000310: 4e57 b8be 9fda 06bf 3c59 433f 765e 0d3f
00000320: 0619 f2be bb74 243f 8cd3 c6bc b077 31bf
00000330: ada1 51bf 0001 1ebf 524c 4e3f d657 003f
00000340: c5ab 073d a027 823e 77d6 0dbe 7ad1 be3e
00000350: ee57 4d3f ddc3 a23e 21f6 1e3f ae8c 30be
00000360: a94c da3e dbad 3cbf 0bcf 403f 8f10 ea3b
00000370: 454e b23e 1c9b 59bf a99f 403e 2055 62be
00000380: e6db 423f d8d7 313f 91b5 5ebf 9f7d 803c
00000390: 7c7e e13e 32a4 3cbe 0fc5 3fbe 509b 00be
000003a0: d9b5 253f 5767 41bf 5d73 1c3f ffda 1dbf
000003b0: 67a2 2b3f fa33 77be dafb 3bbf 9001 37bf
000003c0: 994b 3cbf 5d8f 10bf fc31 0dbf 555c 083f
000003d0: a6ae 053f 5015 473f 66c0 5c3f 6963 9abd
000003e0: 90be 1fbf fdb3 1a3f 6442 1abf 1547 523f
000003f0: 4329 2dbe 564f 303f 1fd0 d2be c91e 31bf
