final_models/forecast_rnn4.pt (torch, 361544 bytes, 35 tensors)

weight f4 [1, 30, 1]
000000 2d c3 84 bd ad c2 16 be 49 6f 8c 3d a3 1c 81 bc
       -0.06482539 -0.147227 0.068571635 -0.015760725
000010 a0 54 1f bd 44 7e d1 3d 92 ad 9e 3c 51 d8 32 3e
       -0.038899064 0.102291614 0.019369874 0.1746533
000020 45 7f f1 3c 2f 69 25 3e 6c f9 2a 3c b1 79 14 be
       0.029479632 0.16153406 0.010435443 -0.14499547
000030 e9 71 30 be 82 46 18 bb 02 22 11 be 04 30 d3 bd
       -0.17230953 -0.0023235385 -0.14173129 -0.10311893
000040 0c 5f 28 bd 9e 7f f2 3d 1e c4 2e be dd e7 e0 3b
       -0.04110627 0.11840747 -0.17067 0.0068635778
000050 80 c3 56 bd 53 98 11 be ac fc ec 3b 1b 4f d1 bc
       -0.052432537 -0.14218263 0.0072322693 -0.025550416
000060 cf ff 49 bd 1f e6 13 bd 25 ab df bd 1a 89 34 3e
       -0.049316224 -0.036108132 -0.10921315 0.17630425
000070 6c 81 e8 3c 51 0f 7b bc
       0.028382026 -0.015323476

weight_ih_l0 f4 [64, 1]
000000 c0 ac b7 3c 94 f2 80 bd fc c6 f4 bd 0e 7a ef bd
       0.02242124 -0.06296268 -0.11952016 -0.11693202
000010 80 80 47 bb 40 a5 6e bb 40 f2 6e 3d 9c ba 8f 3d
       -0.0030441582 -0.0036414415 0.058336496 0.07018015
000020 bc 29 76 3d 0c e3 db 3d f4 85 c8 bd 54 b2 e6 3d
       0.060098395 0.10736665 -0.097911745 0.11264482
000030 d6 e0 ff 3d ca 5d a3 bd a4 ea 8f bd 84 c0 b5 bd
       0.12494056 -0.07976873 -0.07027176 -0.0887461
000040 52 af 9d bd 6c ad ef bd c0 26 b9 bd 62 52 9e bd
       -0.07699455 -0.117029995 -0.09040594 -0.07730557
000050 4e 19 bc 3d 96 2c ab bd de f8 96 3d 1c 03 3f 3d
       0.09184514 -0.083581135 0.073716864 0.046633825
000060 72 46 e9 3d b0 5b 13 bc d8 ab bc 3d ba 43 a2 3d
       0.113903895 -0.008994028 0.09212464 0.07923074
000070 1c 93 15 bd 9c 69 a7 bd e8 4d a0 bd c8 75 40 3d
       -0.036517248 -0.0817444 -0.078273594 0.046987325
000080 20 60 8d 3b ec fb 19 3d cc aa e7 bd 6c 43 b7 3d
       0.0043144375 0.037593767 -0.11311874 0.089484066
000090 c0 8d fa 3c 80 3b ad 3d ec 2c a0 bd 86 e0 ca 3d
       0.03058517 0.08458614 -0.07821068 0.09906106
0000a0 a0 40 0d 3c 90 dc 7d 3d 20 b9 b9 3d 9c a3 e9 3d
       0.008621365 0.061977923 0.09068513 0.11408159
0000b0 80 97 82 ba 10 90 a2 bc 40 f2 cb 3c 70 ba 35 3c
       -0.0009963363 -0.019844085 0.024895787 0.011091813
0000c0 4a da 82 3d be 03 e8 bd 02 8f 9e 3d ee c5 c5 3d
       0.063892916 -0.11328839 0.0774212 0.09656893
0000d0 00 bd 87 bb bc 6a 84 3d 88 0e a6 3c 8a 5e b7 3d
       -0.0041424036 0.064656705 0.0202706 0.08953579
0000e0 b8 15 c6 bc e0 cd 29 bd c2 43 cc bd 94 c0 4a 3d
       -0.024180278 -0.041456103 -0.09973861 0.049500063
0000f0 e4 8e 20 bd 20 e3 50 bd 54 fd 26 3d 30 3b 45 bd
       -0.03919877 -0.050997853 0.040768936 -0.04815215

weight_hh_l0 f4 [64, 64]
000000 da b7 55 be 8d 4f d7 3c 5f 07 82 3d 11 33 bc bd
       -0.20870915 0.02628305 0.06349062 -0.09189428
000010 a1 a8 a5 3a d3 b4 fb bd fe 5f bc 3e 41 f5 29 be
       0.0012638756 -0.12290349 0.36791986 -0.16597463
000020 eb 99 a9 3c 90 27 f9 3d 50 05 02 be 81 08 b2 3d
       0.020703277 0.12165749 -0.12697339 0.08693028
000030 1d a8 22 be 9a b9 8a 3d 57 0e 0c 3d d3 e3 bb 3d
       -0.15884443 0.06773682 0.034193363 0.091743134
000040 8d c0 a5 bd f6 c7 a7 bd 25 9c f0 bc 46 6b ac 3e
       -0.08093367 -0.081924364 -0.02937133 0.33675593
000050 eb 9c eb 3c ac 64 72 be c9 84 8b bd ee be 1f 3e
       0.028761348 -0.23671216 -0.06812436 0.15600178
000060 51 97 48 bd 4f 0b 50 3d 0b 2a 14 3e 99 97 1b be
       -0.04897243 0.050792035 0.14469163 -0.15194549
000070 3a 99 1d 3e 49 50 88 bc e0 f7 58 be 75 e4 05 bf
       0.15390483 -0.016639845 -0.21188307 -0.5230172
000080 f8 40 df 3d e5 39 6a 3e 94 27 0a be c7 24 c8 bc
       0.10901064 0.22873648 -0.1349166 -0.0244316
000090 a8 1b 57 bd 63 97 01 3e 5d 5d 44 bd a8 13 10 3d
       -0.05251661 0.12655406 -0.0479406 0.035174996
0000a0 ac 57 bb be 5f 85 0a bd 32 00 f3 bd 30 55 15 3c
       -0.36590326 -0.0338186 -0.11865272 0.009114549
0000b0 69 27 06 be 62 21 c4 3c 9b 20 58 3e 73 7f 4c be
       -0.13100971 0.0239417 0.21106188 -0.19970493
0000c0 b9 c5 f1 bd b3 41 27 3e b3 8d 1e be 5b 78 7e bd
       -0.11805291 0.16333656 -0.15483741 -0.0621265
0000d0 d2 9f c3 3c cb 10 8b 3d 01 3a fa bd f3 d2 37 3e
       0.02387992 0.067903124 -0.122180946 0.17951564
0000e0 6a bd 0e 3c 33 b6 e9 3c f3 c3 84 3d bc 51 03 3e
       0.008712152 0.028529262 0.06482687 0.12824148
0000f0 d3 24 da 3e 8c aa 18 3d bc 6b d9 bc 23 6c 78 bd
       0.4260622 0.03727202 -0.02654063 -0.060650002
000100 35 a2 fa bd 1a 66 94 be 97 3d dc 3d 65 51 8c bd
       -0.1223797 -0.28984147 0.10753935 -0.06851462
000110 22 9f 82 bd b7 ac d3 bd ff 25 32 3e 05 7e 23 3e
       -0.063780084 -0.10335677 0.17397307 0.15966041
000120 00 3b 0c 3f 89 fd 0a bd 2e 54 47 be 69 eb 97 bd
       0.54777527 -0.033933196 -0.19465706 -0.07417948
000130 ea 44 76 be 54 aa 32 3d 2a d2 3a 3d 36 be 1d be
       -0.24049726 0.04361947 0.045610584 -0.15404591
000140 c5 c1 88 bd 24 6b f9 3c 99 78 f2 3c 94 e6 69 bd
       -0.066775836 0.030446596 0.029598521 -0.057104662
000150 5d 21 ad 3c 08 91 06 be b6 13 a0 bd 97 ef 99 3d
       0.021134073 -0.13141263 -0.078162596 0.07516401
000160 78 14 d4 3d 61 6e b3 bd b0 77 27 3d 4d 1e b5 be
       0.103554666 -0.087612875 0.040885627 -0.3537468
000170 8b d2 e4 bd 20 be 53 3e 69 a7 78 3b 78 c8 6a 3d
       -0.111729704 0.20677996 0.003794158 0.05732009
000180 c9 ad 7d bd be 88 18 be 9b c4 03 be a1 37 a5 bd
       -0.061933313 -0.14895913 -0.12867968 -0.08067251
000190 93 b9 e2 3d 5e d4 fd 3e 9f 39 8f 3b 61 fc 85 be
       0.11070552 0.49576086 0.0043708826 -0.26169112
0001a0 10 8f 14 be 97 e0 54 be 1f d1 5e bd 73 d8 40 be
       -0.14507699 -0.20788799 -0.054398652 -0.18832569
0001b0 10 cd f1 3d de 35 6a bc 0e 58 57 bc 32 bc 05 bd
       0.11806691 -0.0142950695 -0.0131435525 -0.03265018
0001c0 24 e0 a3 bc 31 c0 ca 3d 6e 6a 9d bc fb 82 13 3d
       -0.02000434 0.09899939 -0.019215789 0.036013585
0001d0 e0 44 1a be 18 25 b1 3b 6f f2 6f bd 65 5f ae 3e
       -0.15065336 0.0054060332 -0.058580812 0.34057155
0001e0 80 f1 a7 3d c3 8e e7 be 1a b4 af 3e d0 3b 5d 3e
       0.08200359 -0.45226106 0.34317094 0.21604848
0001f0 10 24 14 3d 33 3b e5 bd 91 33 87 bc 5a 12 d8 bc
       0.036167204 -0.11192932 -0.016504081 -0.026375938
000200 60 14 1b 3e fa c5 13 3e 36 8a 87 be e4 16 0e 3d
       0.15144491 0.14430991 -0.26472634 0.0346898
000210 24 e0 e8 bc 6e 1d 2c be 97 f4 9b be 44 82 e0 3d
       -0.028427191 -0.16808102 -0.30460045 0.10962346
000220 56 1a 92 bc c1 ea 07 be ab fb 46 3e 73 93 a9 bd
       -0.017834824 -0.13273145 0.19431941 -0.08280077
000230 16 15 b1 bc da ab ad bd ff 57 42 3b 14 d8 ae 3d
       -0.0216165 -0.08480044 0.00296545 0.085373074
000240 6f f5 75 bb 83 b7 80 3e 31 bb 2b be 19 03 01 bf
       -0.0037530323 0.25140008 -0.16770627 -0.5039535
000250 fe de 06 3e ae 71 45 3e d9 f5 25 3e 4f aa a1 3a
       0.13171002 0.19281647 0.16207065 0.0012334081
000260 d1 4d 03 3e 04 a8 ef bd ca a1 92 3d de be 26 3d
       0.12822653 -0.11701968 0.07159765 0.04070937
000270 7c a8 13 be 68 a8 2a be 2c 6f db 3d 73 9b 0e 3f
       -0.1441974 -0.16665804 0.10714564 0.55705947
000280 19 d6 2a bd fb f1 8d be a9 cf f4 3d de 7f 73 bd
       -0.041708086 -0.2772368 0.119536705 -0.059448116
000290 24 d6 57 3d a9 69 07 bd 91 ac 58 be 84 4f 1d bd
       0.052694455 -0.03305975 -0.21159579 -0.03840591
0002a0 49 bb 88 3e 85 59 8f bd 71 f4 e8 3d 9a 7c 17 3e
       0.26705387 -0.06999496 0.113747485 0.14793625
0002b0 06 31 87 3e 02 27 65 bd 27 27 cc be 24 65 87 3e
       0.2640459 -0.055945404 -0.3987362 0.26444352
0002c0 5c 14 ad 3c f5 c6 4b 3d 21 04 e9 3d f1 b0 dd bd
       0.021127872 0.049750287 0.11377741 -0.108247645
0002d0 5f 68 f1 3d ca fc cd 3c c1 8f df 3c 08 47 0d 3d
       0.11787485 0.025144953 0.027290227 0.03449157
0002e0 1a 08 3a 3b 1b d7 d8 bd 83 ca 7a bd 78 22 6a be
       0.0028386177 -0.10587903 -0.061228286 -0.22864711
0002f0 7b ae c8 be 70 93 a6 bd 6c e1 0c bc 0a 6b 35 bd
       -0.39195618 -0.0813359 -0.008598667 -0.044291534
000300 76 46 93 bd 7f 7c f2 3e 57 28 57 3c ae 54 ed bd
       -0.07191174 0.47360608 0.013132176 -0.11588417
000310 87 c7 0e be 52 88 61 bd d6 17 8c bd 21 2c d0 bd
       -0.13943301 -0.055061646 -0.06840484 -0.10164667
000320 8e 45 46 3c 17 ee 33 3e 89 6d 8f 3c 28 e2 43 be
       0.012101544 0.17571293 0.017508285 -0.1912924
000330 0c e2 4d bd 6e 90 5b 3e f0 50 d7 bc 73 8c c7 3d
       -0.050264403 0.21441814 -0.026283711 0.097435854
000340 85 23 91 3d e2 b3 81 be 21 fc 93 3d ad 70 a3 bd
       0.07086853 -0.25332552 0.07225824 -0.079804756
000350 81 d2 fa 3a a5 42 0d 3e 65 67 0e be de 04 cb 3d
       0.0019136221 0.13794954 -0.1390663 0.09913038
000360 f8 62 94 bd 0e dd 03 3c 43 bd c5 bd 40 31 1b 3e
       -0.07245439 0.008048309 -0.096552394 0.15155506
000370 e9 db 81 bd 1c f7 0e bf f0 7c 38 bd 67 fa 74 3c
       -0.06340773 -0.5584581 -0.045041025 0.014952279
000380 bb 2f 50 bd ee 9c d8 3d cc 14 52 bd 40 0b 76 3d
       -0.05082677 0.10576807 -0.051289365 0.060069323
000390 1b a6 3d 3e 60 89 2a be 5e 62 48 3d 55 c2 2a 3e
       0.18520395 -0.16653967 0.048921935 0.16675694
0003a0 56 01 e3 bc 5e c4 d0 3d c0 52 0d be 5d f5 68 3d
       -0.027710598 0.10193704 -0.13801098 0.05687462
0003b0 30 19 85 3d f3 3a cc 3d a6 80 6f 3d 17 38 06 3d
       0.06498945 0.09972181 0.058472298 0.032768335
0003c0 75 0b 0d 3c 56 0e 31 be 17 25 1b 3d 41 59 bf 3c
       0.008608689 -0.17290625 0.03787717 0.02335799
0003d0 d3 72 83 3c 93 24 c9 3e c5 a7 8d 3d a2 aa 2e be
       0.016045963 0.39285716 0.06916765 -0.17057279
0003e0 e8 ca a3 3c d1 34 e5 3d 57 13 24 be 59 4d 8b bd
       0.019994214 0.111917146 -0.16023003 -0.06801862
0003f0 20 79 8d bc 01 5d 17 3f eb 35 2b 3c 03 67 19 3d
       -0.017269671 0.5912629 0.010449867 0.037451755

bias_ih_l0 f4 [64]
000000 60 cf 30 be 2f 33 32 3e 25 80 53 3e 9b c9 25 be
       -0.17266607 0.17402337 0.20654352 -0.16190188
000010 07 fa 59 bd d0 ef aa 3a 32 f7 98 3d 08 ab bd bd
       -0.05321696 0.001304144 0.07469024 -0.09261137
000020 a7 3f 13 3e 38 9f e6 3d de 34 fe bd ad 5e 29 be
       0.1437975 0.11260837 -0.12412427 -0.16540022
000030 6a c0 b0 bc ab 1a 26 3e 74 5f 27 3e 33 b8 a5 bd
       -0.021576125 0.1622111 0.16345006 -0.08091774
000040 62 2e f7 3d be 04 2a be 9e 83 43 3e 35 55 0b 3e
       0.12069394 -0.16603372 0.19093177 0.13606723
000050 44 b2 4c be b6 a7 24 be 7a 18 49 be 2a 36 d4 3d
       -0.19989878 -0.16079602 -0.19638243 0.103618935
000060 24 e7 3a be 36 6c 09 3d 75 94 ef 3d ba cc 0c be
       -0.18252236 0.033550464 0.11698238 -0.13749972
000070 79 ee 16 3e 61 46 73 be 5e 49 3b be 83 68 34 bd
       0.14739408 -0.23757316 -0.18289706 -0.044044983
000080 24 b0 33 3e 9a b1 71 3d 40 76 74 be eb 28 79 3e
       0.17547661 0.059007265 -0.23873234 0.24332015
000090 b0 1d 32 bd 83 26 54 3e 0e fb 39 3e fe 38 aa bd
       -0.043485343 0.20717816 0.18162176 -0.08311652
0000a0 4a 41 41 be 48 80 d0 bd 2f f4 61 bd ee ea 47 be
       -0.18872562 -0.10180718 -0.055164512 -0.19523212
0000b0 6e fe 04 be a4 c8 14 3e b0 82 58 3e 23 a8 72 bd
       -0.12987682 0.14529663 0.21143603 -0.05924238
0000c0 9e b6 fe bd 63 69 38 3e 91 ac 6a be de ae 1b 3e
       -0.12437175 0.18008952 -0.22917391 0.15203425
0000d0 57 3e 09 3e 48 6a 48 3e 3c 13 ee 3d ba 5c 2d 3e
       0.13402687 0.19571793 0.116247624 0.16929904
0000e0 06 72 81 be 32 e5 c4 bd 38 a9 2e 3d 6d 02 64 3e
       -0.25282305 -0.09614028 0.04264185 0.2226655
0000f0 f2 81 07 3e e0 3e 55 3e f7 dd 20 3e 8f 75 aa bd
       0.13233164 0.20824766 0.15709673 -0.08323204

bias_hh_l0 f4 [64]
000000 88 72 5e be a9 5a ee 3d 07 c7 0d 3e fd de cd bd
       -0.21723378 0.11638386 0.13845454 -0.10052297
000010 41 d6 d3 bd 60 4f 13 be ee e3 bb 3d 1c 8f 11 be
       -0.103436 -0.14385748 0.091743335 -0.14214748
000020 0e 48 4d 3e f0 23 61 3e 8d 3e 3c be 62 9b 77 bd
       0.20047018 0.21986365 -0.18383236 -0.06045092
000030 ee 98 42 be f6 98 2e 3e 6a 51 23 3e 8f 38 f7 bd
       -0.1900365 0.17050537 0.15949026 -0.120713346
000040 f4 09 e1 3d 08 c3 27 be 56 5c 3c 3e 4f 2a 96 3d
       0.109882265 -0.16382992 0.18394598 0.073322885
000050 a3 0d 06 be d2 ce 3c bd e8 00 09 be 81 28 dc 3d
       -0.1309114 -0.046095677 -0.13379252 0.10749913
000060 0f 0d 53 be fd 43 ee bd 81 75 15 3e 61 13 2c be
       -0.2061045 -0.116340615 0.14595605 -0.16804267
000070 5d da 78 3e 3f e1 2a be 3a 3b 4d be 2e 9e 3c be
       0.24302049 -0.16687487 -0.20042124 -0.18419716
000080 d6 b9 3b 3e 17 6b f7 3d fb fd f2 bd 2a 04 d2 3d
       0.1833261 0.12080973 -0.11864849 0.102547005
000090 14 e1 4d be 6c a8 7e 3e ec a5 89 3e 74 86 14 3d
       -0.20105392 0.24868935 0.268844 0.036261037
0000a0 3d 27 8b bd 16 2b f2 3a 69 0a 36 be 8e 75 1c bd
       -0.067945935 0.0018475975 -0.17777409 -0.038198046
0000b0 9a 99 37 be 9b 41 5c 3e b3 62 eb 3d 6a 2c 32 3d
       -0.17929688 0.21509402 0.11493435 0.043499388
0000c0 47 d0 7f be 9a f7 82 3e f0 a4 7a be 1a ee e9 3d
       -0.24981795 0.2557953 -0.24476981 0.114223674
0000d0 02 8c 39 3e d2 2e 83 3e 92 c3 dc 3d 40 16 2c 3d
       0.18119815 0.2562166 0.107794896 0.042013407
0000e0 af 71 c2 bd c5 a7 74 be de 67 bd 3c 24 f5 27 3e
       -0.0949434 -0.23892124 0.023120817 0.16402107
0000f0 0d e2 fc 3d 18 ce 2b 3e 52 29 b5 3d 52 4d 36 be
       0.12347803 0.16777837 0.08845772 -0.17802933

weight_ih_l0_reverse f4 [64, 1]
000000 d8 d9 66 bd b8 66 69 3d c0 15 0e 3d c2 49 b9 bd
       -0.056360096 0.056982726 0.03468871 -0.09047271
000010 f6 da ae bd 98 4f 8f 3c a0 5b 40 bd 70 9a 4d bd
       -0.08537857 0.017494008 -0.04696238 -0.05019611
000020 68 df f2 3d e8 63 53 3d 80 36 38 3d 60 33 d1 bc
       0.118590176 0.05160895 0.04497385 -0.025537193
000030 e8 e2 3f 3d a2 5b 8c 3d 78 42 a4 3c 00 86 69 bd
       0.046847254 0.06853415 0.020051226 -0.057012558
000040 56 76 de 3d de 10 bb bd 24 b2 c0 3d a4 12 d3 3d
       0.108624145 -0.091340765 0.09408978 0.1030629
000050 02 32 a7 bd c0 a1 ba 3c c4 76 56 bd 38 6a cb 3d
       -0.08163835 0.022782207 -0.052359357 0.09932369
000060 00 1e 87 bd 70 b0 6b 3d 9c 64 88 3d 58 92 e6 bd
       -0.06597519 0.05754131 0.06659815 -0.112583816
000070 f8 25 07 bd 6e f0 b3 bd b2 ef e9 bd 30 42 37 bc
       -0.032995194 -0.08786093 -0.114226714 -0.011185214
000080 be ac 95 bd 38 09 af bd b8 ff 58 3d 82 2a b6 bd
       -0.073083386 -0.0854668 0.052978247 -0.088948265
000090 3c 03 f9 bd 96 4a e1 bd fc fa 83 bd 70 0e 46 bd
       -0.1215882 -0.11000554 -0.06444356 -0.048353612
0000a0 c0 ca d9 bd 08 2b f5 3c 00 3e 04 3a 96 94 e2 bd
       -0.106343746 0.029927745 0.0005044639 -0.11063497
0000b0 ca 1d fb 3d 1c 6d ce 3d 30 08 ee 3c f0 5b 2e bd
       0.12261541 0.10079405 0.029056638 -0.042568147
0000c0 84 6d c2 3d 68 8e b8 3d ce 42 bf 3d 98 95 fe 3c
       0.09493545 0.09011537 0.09338914 0.031077191
0000d0 68 cb e0 3c 92 0d d9 bd c0 87 f7 bd d0 28 d0 3d
       0.027440742 -0.105982915 -0.12086439 0.10164034
0000e0 fc ca db 3d 08 d5 1d bd 6c 5f fb 3d 04 7b 37 3d
       0.107320756 -0.03853324 0.1227406 0.04479505
0000f0 3c 3e 21 3d c0 2a e2 3b 7c dc f7 3d 12 fa 87 3d
       0.039365992 0.006902069 0.12102601 0.06639494

weight_hh_l0_reverse f4 [64, 64]
000000 b0 5d af 3e 2a e8 98 be 75 cd 88 bd 7e 7a 17 bd
       0.34251165 -0.29864627 -0.06679813 -0.036982052
000010 4e 47 c6 3d ac 6f 50 3e 26 1b 39 be 21 12 f9 bd
       0.09681569 0.203551 -0.18076763 -0.12161661
000020 b7 d5 0b 3e f0 73 91 be 63 fa f1 3d a4 53 18 be
       0.13655744 -0.28408766 0.118153356 -0.14875656
000030 29 f9 8c bd 9b 26 9f be 97 96 b7 3e 30 03 1e 3e
       -0.06883461 -0.3108414 0.35857078 0.15430903
000040 00 92 20 3e 44 8c 9b 3e 9f 55 48 be bf ca 9b 3e
       0.15680695 0.30380452 -0.19563912 0.3042812
000050 26 99 3c 3e 6c d4 64 bd b2 73 24 3e 3c f5 9e 3e
       0.18417796 -0.055866644 0.1605976 0.31046474
000060 c4 0b 57 be 06 cb ac bc 1f 9e f9 bd 7a 6f 77 be
       -0.21000582 -0.021092903 -0.12188362 -0.24163619
000070 99 e7 0d be 4b f4 d1 bd 46 3e 47 3e ad 1e 51 3e
       -0.13857879 -0.10251673 0.19457349 0.20421858
000080 cd 50 8b 3e 88 a6 b5 3d f3 eb 2f 3e 52 59 c1 bd
       0.27210084 0.08869654 0.17179851 -0.094408646
000090 48 73 9f 3d b2 6b 4f be c4 90 3d be cf ff 66 be
       0.0778566 -0.20255926 -0.18512255 -0.2255852
0000a0 c5 98 7d 3e 7f 29 82 be f2 cd 87 be cd ad 1b 3e
       0.24765308 -0.25422284 -0.2652431 0.15203018
0000b0 cc a8 68 3e 37 90 9c be 46 27 0c be 71 6b 83 3d
       0.22720641 -0.30578777 -0.13686857 0.06416977
0000c0 50 07 b9 3e 57 f3 9f be 06 e1 89 be 91 ff 54 be
       0.36138391 -0.3124034 -0.26929492 -0.20800616
0000d0 32 61 37 bd c0 92 9a 3e a4 67 3d 3d 4b 14 9e 3d
       -0.044770427 0.30190086 0.046241418 0.07718714
0000e0 29 36 91 3e 6b 15 94 3e 1a b1 24 be cd 9b ef bd
       0.28361633 0.2892259 -0.16083184 -0.116996385
0000f0 3b b8 28 3e dc 8b 5c be 49 85 0f 3e 90 b2 92 3e
       0.16476528 -0.21537727 0.14015688 0.28651857
000100 9f c5 1c be da c5 47 3e 58 25 d2 3d d3 bf 15 3e
       -0.15309761 0.19509068 0.10261029 0.14623956
000110 90 8f d6 bd 95 a3 3a be ea df cd 3d cc 1b 83 bd
       -0.10476601 -0.18226464 0.10052474 -0.06401786
000120 e1 33 91 be 61 bc 3f 3e c1 d4 b2 bd bf 5e 1a 3e
       -0.28359893 0.18724205 -0.08731986 0.15075205
000130 26 40 57 3d a4 f0 72 3e 1b e9 aa be 8a 46 fc bd
       0.05255141 0.2372461 -0.3338097 -0.12318142
000140 21 9d c9 bd 97 88 6f be d7 95 0d 3e 7a 31 40 be
       -0.09844423 -0.23391949 0.1382669 -0.18768874
000150 34 f5 91 be f1 8e e6 3d e8 1b a1 be 6b 24 6a be
       -0.28507388 0.11257733 -0.31466603 -0.22865455
000160 b3 d6 26 3d 90 fc 77 3d 01 60 fc 3d 46 32 27 3e
       0.040732097 0.060543597 0.12322999 0.16327772
000170 22 47 10 3d 9f fe 4c 3d 90 8d 8a be 48 6c 44 be
       0.035224088 0.050047513 -0.2706113 -0.19181931
000180 12 15 fe bd 83 ce 96 be 57 cc 93 be c6 fb f7 bd
       -0.124063626 -0.2945443 -0.28866836 -0.12108569
000190 61 7d 40 bd d2 4d 85 3e a2 81 d3 3c 01 93 8d 3e
       -0.04699457 0.26035935 0.02581865 0.27651218
0001a0 bf 54 4c be 4b c1 3a 3e 75 7b 2d 3e 08 13 ce bd
       -0.19954203 0.18237798 0.16941626 -0.10062224
0001b0 04 8a 77 be 52 f1 15 3e 8c 5b 0b 3e f2 82 50 bd
       -0.24173743 0.14642838 0.13609141 -0.05090613
0001c0 b3 10 95 be 29 39 dc 3d b4 20 96 3e 32 24 9a 3d
       -0.29114303 0.1075309 0.29321826 0.07526435
0001d0 d8 45 c5 bc 1d f4 e6 bd c1 ed d0 bd 2b 24 b0 3d
       -0.024081156 -0.1127703 -0.10201598 0.086006485
0001e0 05 15 6e be 26 cc 5d be 32 bd 82 3e b5 1d a0 bd
       -0.23250206 -0.21659908 0.2553497 -0.07818166
0001f0 54 60 18 be 94 de 3e 3e 8c d2 48 be 4d c8 68 be
       -0.14880496 0.18639594 -0.19611567 -0.22732659
000200 96 63 9f be da 0e 95 3e 93 9f 0f 3d f9 cb 21 3e
       -0.31130666 0.29112893 0.03506429 0.15800466
000210 76 b5 c7 bd 39 64 5c bd d1 f5 41 3e 72 85 9d 3e
       -0.09751408 -0.053806517 0.18941428 0.30765873
000220 fa 5d c7 bd 88 64 74 3e 88 8e 16 be d6 96 1f 3e
       -0.097347215 0.23866475 -0.14702809 0.15584883
000230 1c 05 4e bd 3a e7 31 3e 25 36 93 be c4 ad 6c be
       -0.05029784 0.17373362 -0.28752246 -0.23113161
000240 fd c6 14 be 8e 27 59 be 5e ba 83 3e b8 df 88 be
       -0.14529033 -0.21206495 0.25728124 -0.26733184
000250 2c ee 5a be 99 65 29 3e 76 2e 70 be 09 f2 0f be
       -0.21379918 0.16542663 -0.23455223 -0.14057173
000260 69 8e 18 3e ff e6 2f 3d dd 02 1e 3e fe 0d 8f 3d
       0.14898075 0.042944904 0.1543078 0.06985091
000270 91 8a 83 3e 69 af e9 3d ee a0 8a be 09 d2 92 be
       0.25691655 0.1141041 -0.27075905 -0.2867587
000280 ee 90 cc bd 06 85 1d be 19 71 f4 bd 2c dd 4b 3d
       -0.09988581 -0.15382776 -0.11935634 0.049771473
000290 2b 44 3a bb 46 60 75 3e 7f 84 85 3d c9 b0 90 3e
       -0.002842198 0.23962507 0.06519412 0.28259876
0002a0 71 f0 68 be 75 7c fc 3d 2e cf 8a 3e 19 70 2a be
       -0.22747971 0.12328426 0.2711119 -0.16644324
0002b0 c9 2a 2b be 6d 2f 81 3e 0e e5 24 3e 58 ac 7e bd
       -0.1671554 0.25231495 0.16103002 -0.06217608
0002c0 bf ba 73 be 96 cd 76 3e ea d2 19 3e 19 34 8c 3e
       -0.23801707 0.24101862 0.15021864 0.27383497
0002d0 d6 02 e1 bc 0e a0 17 be 3d e5 83 bd 08 9e 2f be
       -0.027467173 -0.1480715 -0.06440208 -0.17150128
0002e0 a7 24 70 be 9e 07 70 be b9 0b 83 3e d1 ce b1 bd
       -0.23451482 -0.23440406 0.2559488 -0.08682025
0002f0 ce d1 5c be 79 16 24 3e 42 e1 98 be 28 91 8a be
       -0.21564409 0.16024198 -0.29859358 -0.2706387
000300 04 db 94 3d cf 19 31 be 7d f1 b3 bc db 91 13 bd
       0.072683364 -0.17295001 -0.021965737 -0.03602777
000310 67 94 10 3e 43 e6 2e bd 45 bf 09 be 84 83 3c 3d
       0.14119111 -0.042700063 -0.1345187 0.04602386
000320 17 36 18 3d b1 0a 3f be 64 47 ec 3d 98 fd 88 bd
       0.03716096 -0.18656422 0.11537054 -0.06688994
000330 c2 08 37 3e 55 9f 1a be 5e d3 90 3d dc 6c 9b 3d
       0.17874435 -0.15099843 0.07071565 0.07589123
000340 86 dc 23 3e fd 20 56 3d 08 f1 2d be c3 23 56 3d
       0.16002092 0.052277554 -0.16986477 0.0522802
000350 49 63 ca 3c 68 19 0c bd 44 0e 4f 3e e3 98 79 3e
       0.024705546 -0.034203917 0.20220286 0.24374728
000360 61 4c 08 bc 83 33 44 bd 8b f2 6c be 33 ef 1a be
       -0.008318991 -0.047900688 -0.23139398 -0.1513031
000370 a1 48 14 3c 84 a8 82 be 6e 58 cc 3d a0 1f 42 3e
       0.009050519 -0.25519192 0.09977804 0.18957376
000380 a5 6c 03 3d f8 7e f1 3d 99 9a 38 3e 24 94 68 3d
       0.032086033 0.117917955 0.18027724 0.056781903
000390 35 45 07 3d 41 99 52 be 1c 80 37 be 92 65 17 be
       0.033024985 -0.20566274 -0.17919964 -0.1478484
0003a0 9f aa 15 3e 33 36 69 be ed 37 4b 3a 12 c9 51 3e
       0.14615868 -0.22774582 0.0007752169 0.20486858
0003b0 12 0d 30 3e c6 49 3d be aa 19 cd 3c 0a 6f 14 3e
       0.17192486 -0.18485174 0.025036652 0.14495483
0003c0 c6 b5 af 3c ba 69 12 bd bc 31 14 be 0c 52 a9 bd
       0.021448981 -0.03574536 -0.14472097 -0.08267602
0003d0 e9 61 0c bd bb 2c 35 3e fc 0b cf 3c b2 97 bc 3d
       -0.034273062 0.17692845 0.02527427 0.09208621
0003e0 9e 75 b8 3d fe d2 e2 3d ac e1 c1 bd 42 10 c4 3d
       0.09006809 0.110754 -0.094668716 0.095734134
0003f0 42 09 56 3e 2b 54 56 bc a2 b0 07 3e 4f 7a ca 3d
       0.20901969 -0.013081591 0.13250974 0.0988661

bias_ih_l0_reverse f4 [64]
000000 84 21 39 be 71 7d 00 3e 55 70 02 3e 7f c3 93 bd
       -0.18079191 0.12547852 0.12738164 -0.07215022
000010 62 5c 8e bd 88 6a e9 3c 2b 3f 2e 3e 70 3e 94 3c
       -0.069512144 0.02849318 0.17016284 0.018096179
000020 92 1a d6 bd 4f ee 9c 3d 07 79 8a bd c8 b4 b5 3c
       -0.10454287 0.07662641 -0.067613654 0.02218093
000030 9e 9f 80 bd 85 bf 72 3d 73 37 76 be 4a 51 03 bd
       -0.062804446 0.05926468 -0.2404459 -0.032059945
000040 77 d6 8b bd a0 da 81 be f1 a1 0f 3e 47 51 1c be
       -0.06828015 -0.2536211 0.1402662 -0.1526538
000050 68 e6 1f be 8f 34 1e bd 75 ca 28 be 8a 96 88 be
       -0.15615237 -0.038624343 -0.16483481 -0.26677352
000060 a2 46 46 3d 1f 8d 2f bd 9c b2 8c 3d ad 4b 47 3e
       0.048407204 -0.042859193 0.068700045 0.19462462
000070 cb f9 53 3d 41 9c e6 3d 87 0c 1b be f0 6b f7 bd
       0.051751893 0.11260272 -0.15141498 -0.12081134
000080 8e 19 3e be cc 15 85 bd 84 85 fe bd fa 9b f3 ba
       -0.18564436 -0.06498298 -0.1242781 -0.0018585913
000090 77 65 f8 ba f7 85 04 3e 7f 00 07 3e 10 bd ef 3d
       -0.0018951137 0.12941729 0.13183783 0.11705983
0000a0 4a b1 4f be 8b 17 88 3d 18 23 c1 3d 54 4d 17 be
       -0.20282474 0.066451155 0.09430522 -0.14775592
0000b0 98 7a fa bd 00 51 00 3e c7 26 64 3d 6b 15 b6 bd
       -0.12230414 0.12530899 0.055701043 -0.08890804
0000c0 e1 1d 56 be 88 89 07 3e 77 d7 e1 3d 9e 61 1f 3e
       -0.20909835 0.13236058 0.11027425 0.15564582
0000d0 a3 20 00 3d 53 47 2a be 1b 5b b4 bd 2e 38 ff 3b
       0.031281125 -0.1662877 -0.088064395 0.0077886796
0000e0 1c 7f 89 be 13 d7 6a be ab 44 dc 3d de 5b e3 bc
       -0.2685479 -0.22933607 0.10755285 -0.027753767
0000f0 5e 37 21 be b4 06 d6 3d e4 fd b0 bd ef dd 3e be
       -0.15743777 0.10450497 -0.08642176 -0.18639348

bias_hh_l0_reverse f4 [64]
000000 e7 1a 16 be 0f b9 a4 3d 3b b8 04 3e fd af a4 3d
       -0.146587 0.080431096 0.12960903 0.080413796
000010 84 6c 26 bd 84 23 44 3d 00 46 24 3d c3 5c f7 bc
       -0.040630832 0.047885433 0.04010582 -0.0301956
000020 f0 ba e4 bd a2 7a 41 3e 54 f3 34 be 84 77 25 3e
       -0.11168468 0.18894437 -0.17670947 0.16158873
000030 80 4a e4 bd b5 8d 7f 3e aa fc a0 bd 30 f4 4a be
       -0.11147022 0.249564 -0.07860692 -0.19819713
000040 55 28 5a bd b5 cf c8 bd a6 31 4c 3e 3e c6 14 bd
       -0.05326112 -0.09805242 0.19940814 -0.03632187
000050 60 8a 0f be b3 4c 21 3d 83 82 4a be c5 e5 a5 bd
       -0.1401763 0.039379787 -0.19776349 -0.08100466
000060 1c 01 25 3e fb b3 6d 3d cb 0e f3 3d 3e 07 41 3d
       0.16113704 0.05803297 0.11868056 0.047126047
000070 c2 01 61 3a 8d e5 4a 3e fd ce 7a be c6 e4 70 be
       0.0008583331 0.19814129 -0.24493022 -0.2352477
000080 77 44 fc bd 24 59 47 be 19 60 4c be 8c 34 eb 3c
       -0.12317746 -0.19467598 -0.19958533 0.02871158
000090 6a 3c dd bc a8 9f 1d 3e 46 66 2c 3e 32 de 83 3e
       -0.027006347 0.15392935 0.16835889 0.2575546
0000a0 62 50 bd bd 53 de 3a 3e e2 bb 7d 3e a0 a1 04 3d
       -0.092438474 0.18248872 0.24778703 0.0323807
0000b0 cf 11 33 be 90 b3 e3 3b 85 c2 de bd 2f c1 05 be
       -0.17487262 0.0069488958 -0.108769454 -0.13061975
0000c0 95 20 26 bd 13 b7 74 3e c6 41 7c 3e f2 32 7a 3c
       -0.040558416 0.23897962 0.24634466 0.015270935
0000d0 9a ae 7f 3b 5e e0 09 be 0a b4 00 bc f2 8a 92 bd
       0.0039013983 -0.13464496 -0.007855425 -0.07155408
0000e0 da 9c 15 be 52 32 29 bd 12 84 eb 3d 2f b6 a1 3d
       -0.14610615 -0.041307755 0.114998 0.07896077
0000f0 ff 56 42 be 46 65 21 3e 63 8a 9b bd 86 82 8c bd
       -0.18978499 0.15761289 -0.075947545 -0.06860833

weight_ih_l1 f4 [64, 128]
000000 7b af eb bd d7 0b 26 be d3 39 ec 3d 48 78 2c 3d
       -0.115080796 -0.16215454 0.115344666 0.042106897
000010 4c a3 27 3e 42 ce 6b be 8c 83 9d 3e 36 be 11 be
       0.16370887 -0.230279 0.30764425 -0.14232716
000020 82 4d 6f bd b0 10 81 bd 9e b7 40 be 28 d2 0a 3d
       -0.058423527 -0.06302011 -0.18820044 0.033891827
000030 77 85 0b be 4d f7 75 bd 16 0e c1 bc 13 62 29 be
       -0.13625132 -0.060050298 -0.023566287 -0.16541319
000040 c6 7e 0e bd 17 7b 0f be e9 6e 8b 3d 60 bc a1 3e
       -0.03478887 -0.14011799 0.06808264 0.3158903
000050 91 5b e2 bd 77 5f 29 be 2b 1e e6 bd 92 cc c4 3d
       -0.11052621 -0.16540323 -0.11236223 0.09609331
000060 79 ef 79 bd 74 e7 8b bd 2c e5 0b bd cb 09 7a bd
       -0.061019395 -0.068312556 -0.034154102 -0.061044496
000070 9d 85 09 3d 7c 8f 13 3e c1 cf 01 be 64 32 26 be
       0.03357469 0.14410204 -0.12676908 -0.1623016
000080 be 38 f2 bc ae 24 47 3e 94 9d 9b bd 88 e7 2a bd
       -0.029568072 0.19447586 -0.07598415 -0.04172471
000090 df 20 de bd 7c 9c e8 3c be cb 53 3d 20 9d 6c 3c
       -0.108461134 0.02839493 0.051707976 0.014441758
0000a0 01 f0 93 be d1 f3 d2 bc 51 b0 20 be ab 03 f9 bd
       -0.28894046 -0.025751026 -0.1569226 -0.12158903
0000b0 a2 6c a5 bd f1 a9 a6 bd 03 93 b6 3e 0d 17 80 be
       -0.08077361 -0.081378825 0.35659036 -0.25017586
0000c0 5d c1 bd 3b f7 cb 50 3e 69 cb 4f be c7 fe 27 bc
       0.005790873 0.20390306 -0.20292439 -0.010253615
0000d0 a6 ca d9 bd d8 58 da bc 8c 12 2d 3d 10 d6 1b 3d
       -0.10634355 -0.026653692 0.042254016 0.038045943
0000e0 bb 3e 5d bd 83 74 98 bd a0 e9 a1 3d b6 be 19 3e
       -0.054014903 -0.07444098 0.079058886 0.15014157
0000f0 ee 83 cd 3e 52 af 5d bd 59 72 c3 3c 4e 9d 15 3e
       0.40139717 -0.054122277 0.023858236 0.14610788
000100 7d 79 7c bd 4e 5c ef 3c 84 39 dd 3d 41 b0 f3 bd
       -0.061639298 0.029218819 0.10801986 -0.11898852
000110 b0 a3 ca bd e7 21 5a 3e 8e f8 0d 3e e6 2d 65 be
       -0.09894502 0.21301995 0.13864347 -0.2238079
000120 3f 3d cf bd 25 41 3b 3e aa 03 77 be 73 b6 23 3e
       -0.10119104 0.1828657 -0.24122491 0.15987568
000130 79 7e 71 be f0 d5 3a 3e 83 d3 6a be 49 eb 13 be
       -0.23583402 0.18245673 -0.22932248 -0.14445223
000140 65 a3 09 be cc b0 e5 bd ef 6b 65 3e db 0a 1a be
       -0.13441236 -0.11215362 0.22404455 -0.15043204
000150 ab a9 03 be c5 85 10 be 51 5f 43 be c5 c5 8f bd
       -0.12857692 -0.14113529 -0.19079329 -0.070201434
000160 be d5 ed 3d e4 54 01 be e7 e6 0d 3e 55 e6 de 3d
       0.11613034 -0.1263004 0.13857614 0.10883776
000170 a2 22 62 be 5a b2 1e 3e 5e 03 d8 bd 3e 98 f4 bd
       -0.22083524 0.15497723 -0.10547517 -0.119431004
000180 27 59 08 be bb 08 76 be b8 95 e3 bc 79 90 26 be
       -0.13315259 -0.24026768 -0.027781352 -0.1626605
000190 b0 95 0b 3d 46 f7 e5 3d c0 6a 8c 3d 38 7c 01 3e
       0.0340783 0.11228804 0.068562984 0.12645042
0001a0 af fe 06 be f7 a2 4e 3e a5 9c 29 3e 30 78 a1 bd
       -0.13183092 0.20179354 0.16563661 -0.07884252
0001b0 28 05 33 bd da 90 12 3e 2c 3e 7c be 9d 42 c9 bd
       -0.04370609 0.14313069 -0.24633092 -0.098271586
0001c0 b5 61 62 bd 9e 96 d8 3d 25 8e 06 3e b1 8e 53 3e
       -0.055268962 0.10575603 0.13140161 0.20659901
0001d0 1b a9 cc 3d ac fc 3d be 1f 06 05 be 5b 1b 25 3d
       0.09993192 -0.18553418 -0.12990616 0.04030929
0001e0 c9 df 15 be 98 e5 33 be c6 31 5f 3d 3a ca 0c be
       -0.14636149 -0.17568052 0.054490827 -0.13749018
0001f0 35 91 e4 bd b1 70 21 3d 1f ef b5 bd aa 57 77 bd
       -0.111605085 0.03941411 -0.08883499 -0.060386337
000200 b7 7c 0a be 7f 13 b1 3d f9 54 d4 3c fa b3 f4 bd
       -0.13524137 0.08646297 0.025919424 -0.1194839
000210 d1 c0 ac bd c9 d9 e5 bc 04 2a 07 3d ef af a5 bd
       -0.08435214 -0.02805795 0.032999054 -0.08090197
000220 82 32 9c bc 97 24 15 bd 1d 57 08 be 0d 22 7c bb
       -0.019067053 -0.036411848 -0.13314481 -0.0038472444
000230 01 45 b1 3d 7d 9b 45 3d a3 73 b5 bd 97 05 33 be
       0.086557396 0.04824399 -0.088599466 -0.17482601
000240 e3 8a 26 bd a7 1e 39 3b c6 b9 f4 3d ae e6 98 bd
       -0.040659796 0.002824703 0.11949496 -0.07465874
000250 5a 94 f4 bd 8a 30 11 be ac e7 fe 3d 54 6b 6d bd
       -0.11942358 -0.14178672 0.12446532 -0.057963684
000260 8f 58 33 bd 52 bb 9f 3d 5a 2e 53 3c 44 7b 3b be
       -0.043785628 0.077994004 0.012889469 -0.18308741
000270 5a 28 be 3d 57 7c 60 3d 30 41 bc 3d 71 6c 39 3d
       0.0928504 0.05480608 0.09192121 0.045269433
000280 c2 4c 97 3c 94 f2 68 bd 26 17 88 bd 48 ec 4c bd
       0.018469218 -0.056871966 -0.0664504 -0.050030023
000290 72 35 89 3c fb 11 44 3d 8c 0f 6a bd f4 16 9d 3d
       0.016749118 0.04786871 -0.057143733 0.076703936
0002a0 98 f1 dd 3d 71 47 c2 bd 36 2a fa 3b ac f6 1c 3e
       0.10837096 -0.094862826 0.0076344265 0.15328473
0002b0 4f 93 3a 3d 97 b5 70 3d b1 1f 59 bd ec 0d 8b bc
       0.04555064 0.058766928 -0.05300874 -0.016974412
0002c0 01 22 7a 3d 87 25 90 3d 60 5e 0e 3d 9f 3c 9d 3d
       0.061067585 0.07038408 0.03475797 0.07677578
0002d0 2e 9a d9 3c 33 ac ff bc 85 5c e8 3d 11 4a 62 3d
       0.026562776 -0.03121004 0.11345772 0.055246416
0002e0 4e 3f 5a bd 45 90 a8 bd 3e 75 d2 bd 4d c8 a0 3d
       -0.05328303 -0.08230642 -0.102762684 0.07850704
0002f0 b4 01 61 bd 38 fd 91 bd 79 83 02 3e 75 5c aa bd
       -0.054933265 -0.07128376 0.12745465 -0.08318416
000300 e2 ae 91 3d 12 f4 26 be 9f 09 52 be dd 57 11 3e
       0.071134344 -0.16304043 -0.20511483 0.14193673
000310 4e 4a 83 3d 21 a7 62 3d a9 7a 87 be f2 3e fa 3d
       0.06410657 0.055335168 -0.2646077 0.12219037
000320 f5 f3 02 3e f1 c6 89 be 64 3a 46 3e f9 b2 30 be
       0.12788375 -0.26909593 0.19358212 -0.17255773
000330 f4 58 8b 3d 7a 0d 87 be 1b cd 30 3e 7d d1 0d 3e
       0.06804076 -0.2637747 0.17265742 0.13849445
000340 08 0d 50 3e e2 f1 87 3d ef 60 45 be 1c 98 c1 3d
       0.20317471 0.06637932 -0.19275258 0.09452841
000350 17 bb 76 3e 71 b0 b0 3d 9b f6 dd 3d a4 e6 ae 3d
       0.24094807 0.086274035 0.10838052 0.08540085
000360 25 37 25 be 94 f8 96 3d a6 2d 72 be 74 b8 9f bd
       -0.16134317 0.07371631 -0.23650226 -0.077988535
000370 d2 b4 34 3e 0e 68 d5 3c b2 95 66 3e dd f8 62 3e
       0.17647102 0.026050594 0.22518042 0.22165246
000380 1a 2d 74 3e bf 60 3b 3e 39 37 3f 3e 3e 4b 99 3c
       0.2384533 0.18298624 0.1867341 0.018712636
000390 ff be b2 3b d4 6e a2 bd 94 95 03 be 12 28 10 be
       0.0054548974 -0.07931295 -0.12850028 -0.14077786
0003a0 5f cd 4f 3e e1 73 6e be 6e 0d 84 bd 1a cb 93 3e
       0.20293187 -0.23286392 -0.06447874 0.28865892
0003b0 ef 04 6e 3e cc 92 0a be 4e d6 34 3e da 57 76 3e
       0.2324407 -0.13532561 0.17659876 0.2405695
0003c0 fa 81 13 3e 58 35 48 be a4 8d 63 be de e8 8c be
       0.14405051 -0.19551599 -0.22222 -0.27521414
0003d0 db 40 cc bd 86 af 37 3e 6b b4 3a 3d bb ae f2 bc
       -0.09973308 0.1793805 0.045582216 -0.029624334
0003e0 28 0f ad 3d 52 63 53 3e a8 57 7c be e1 f3 ae bd
       0.084501565 0.20643356 -0.24642813 -0.0854261
0003f0 d2 29 3c 3e 67 83 ad be 72 8e ec 3d 83 b9 9b 3e
       0.18375328 -0.33889315 0.11550607 0.30414972

weight_hh_l1 f4 [64, 64]
000000 cb 7a 83 be 70 01 0d 3e bd 85 f7 3d 74 ed 88 bd
       -0.2567962 0.1377008 0.120860554 -0.066859156
000010 a0 1f 3e 3d 52 39 a5 bd 99 0f be 3d ed fe 82 3d
       0.04641688 -0.080675736 0.09280319 0.063962795
000020 55 40 30 3e da 59 83 3c 08 06 a9 3d a8 f2 86 bd
       0.1721204 0.016034056 0.082531035 -0.06589252
000030 5b 08 c4 bd c2 c1 a7 bd 36 ad bc 3d fa 6c 02 3d
       -0.09571906 -0.08191253 0.09212725 0.03184221
000040 69 20 16 bd 4f ad 14 bc 4a 1f 36 be 0b 74 59 3c
       -0.036652002 -0.009074523 -0.17785373 0.013272296
000050 6b fd 99 3d a5 0e 02 be b2 05 91 bd 3f 53 d5 3d
       0.07519039 -0.12700899 -0.070811644 0.104162686
000060 7f 52 84 3d 10 01 92 bd 26 0a be bd 8a 84 b7 3c
       0.064610474 -0.07129109 -0.092792794 0.022402067
000070 7d 75 09 3e df 97 ab bc 87 06 a4 3d ad b0 d2 3d
       0.13423724 -0.020946441 0.080090575 0.102876045
000080 37 07 0a be 75 5f f9 3c c3 8f 32 3d 38 dc 99 bd
       -0.13479315 0.030441025 0.043594133 -0.075127065
000090 74 a4 52 3d 36 8f 8e bd 4c 34 9f 3d f9 ca a8 3c
       0.051426366 -0.06960909 0.07773647 0.020604597
0000a0 0a 2b 1d 3e 64 79 a4 bd 02 59 72 3d fb 6c 79 3d
       0.1534845 -0.08030966 0.059166916 0.060894947
0000b0 b7 c5 b4 3d 43 5f 30 3d b5 3b da 3c 40 98 06 3e
       0.088267736 0.0430596 0.026639799 0.13144016
0000c0 e2 23 85 bd ce 9c 90 3d 26 b1 d3 3d 72 db 2c 3e
       -0.06500985 0.07061158 0.10336523 0.16880587
0000d0 cb ad ef 3d a3 c8 c0 3d 53 47 c1 bc 71 f8 ef 3d
       0.1170307 0.094132684 -0.02359358 0.11717308
0000e0 70 e6 53 bd 40 a0 22 be 39 18 26 3a 57 1c 49 3d
       -0.051733434 -0.15881443 0.0006336007 0.049099293
0000f0 8c 04 dd bd b0 bb 36 3d a9 2f b5 3c 69 64 4c be
       -0.10791883 0.044612586 0.022117453 -0.19960178
000100 d6 47 04 bd e3 73 1a bd 92 2d 8e bd f6 f1 82 3c
       -0.03229507 -0.037708174 -0.069422856 0.015984517
000110 fb 30 04 3d 78 3c 45 bc dc 11 5c bc 63 1a d9 bd
       0.032273274 -0.012038343 -0.013431992 -0.10600736
000120 57 7b fb bd fc 0e 1b 3e 52 ae be 3d b5 85 03 3e
       -0.122793846 0.15142435 0.09310593 0.12843974
000130 8d 97 86 bd bf 2e 01 bd 3e cc 34 3e de 39 d9 bd
       -0.06571875 -0.03153872 0.17656037 -0.106067404
000140 19 9d 37 be 29 06 7b be 9b d3 14 3e 08 2b c3 3d
       -0.17931022 -0.24514069 0.14533846 0.09529692
000150 ad 53 86 bd 4f a1 a2 3d fc b8 f1 3d 41 d2 de bd
       -0.06558929 0.079409234 0.11802861 -0.108799465
000160 f6 40 b3 3d 56 85 ab bd 49 64 aa 3d 51 b7 a0 bd
       0.08752625 -0.08375041 0.08319909 -0.07847465
000170 5d ce 5f be a9 65 3c be 2d d3 12 3d b7 bf 42 bd
       -0.21856065 -0.18398155 0.035845924 -0.047546115
000180 9a 2d 57 3d 6e 0b b5 bd eb 47 1a 3e 76 40 b9 bd
       0.052533723 -0.08840071 0.15066497 -0.09045498
000190 80 8a 1a be bf e2 28 bd 34 15 da bd 20 14 b4 bd
       -0.15091896 -0.041231867 -0.106485754 -0.08792901
0001a0 c6 c2 61 be 76 2b 7e 3d 22 40 70 be f2 eb 03 3c
       -0.22046956 0.062053166 -0.23461965 0.008051859
0001b0 a2 05 89 be 7e ab 55 be 82 b1 52 3e d7 35 36 be
       -0.2676211 -0.208662 0.20575526 -0.17793976
0001c0 c8 05 fa bd 43 ea c1 3e ed f3 9b 3d dd 28 2b be
       -0.12208134 0.3787404 0.076148845 -0.16714807
0001d0 6e 44 50 3d 93 7a fd 3d 8a 45 b0 bc 67 68 a4 3e
       0.05084651 0.12376895 -0.021517534 0.32110903
0001e0 09 6e 4f 3e 65 55 89 3e d1 3d 1e bd 0a d4 13 3e
       0.20256819 0.26822963 -0.03863317 0.14436355
0001f0 c3 35 03 3e ba 3e f3 bc 94 9f 91 3d 9d b1 97 3d
       0.12813477 -0.029692996 0.07110515 0.07406924
000200 cb de e7 bc b4 98 5e be 52 8d 7f be 3c 8a 2f be
       -0.028304478 -0.21737939 -0.24956253 -0.17142576
000210 3b 6c ef bd d6 f7 af 3d 24 c1 a7 3e ee 89 a4 3c
       -0.11690565 0.08592193 0.32764542 0.020085301
000220 dd 2d 20 3e 6a bb d6 bd b2 70 f6 3c 02 ce a6 bd
       0.15642495 -0.10484965 0.030083034 -0.081447616
000230 69 82 93 3d 25 c7 ba bd 97 04 f1 bd c2 23 0e be
       0.07202608 -0.09120015 -0.117684536 -0.13880828
000240 83 8a f1 3d 09 00 8b 3c 05 19 7d bd da 4c 54 be
       0.11793997 0.01696779 -0.06179144 -0.20732442
000250 9c 65 0a 3e f5 8c bc 3d e8 f0 d0 bd d2 cc e8 bd
       0.13515323 0.09206573 -0.10202199 -0.113671914
000260 69 5f 9d bd 3a dc ec 3d 20 43 d6 3d 5c 6e 39 3e
       -0.07684214 0.115654424 0.10462022 0.18108505
000270 e4 f0 8b 3d 8d 3f 2e bc a6 e2 a2 3d 57 8c 90 bd
       0.068330556 -0.010635269 0.07953386 -0.07058018
000280 8b bd 5f 3c 27 39 71 be 47 b4 5e 3b 24 87 15 3e
       0.01365603 -0.23556958 0.0033981965 0.14602333
000290 3b d7 e6 3d e3 99 25 3e 5c 07 8f 3d e9 2b 5d bd
       0.11271521 0.16171984 0.069838256 -0.053996954
0002a0 6c 14 c2 3d af cb e8 bb 8c 10 03 bb 36 bb f3 3d
       0.094765514 -0.007104359 -0.0019998876 0.11900942
0002b0 f5 21 c8 3d 49 a8 06 3e 1d 12 24 bd 14 99 8c bc
       0.09772102 0.13150133 -0.040056337 -0.017162837
0002c0 96 e9 37 3e ad eb 9e bc fd 1f 2a 3d 72 35 a1 3d
       0.179602 -0.019399488 0.041534413 0.07871522
0002d0 ed ca d1 bd fb ba 04 3d 3c 4f 00 be dc 1a 9e 3d
       -0.10243783 0.03240488 -0.12530226 0.07719967
0002e0 ce c8 6c bd cb 4b 34 bd 40 07 06 3e bc 66 58 be
       -0.05780869 -0.044017594 0.13088703 -0.2113294
0002f0 9b bd a7 bd fd 80 c1 3d 32 44 dd bd c7 01 a9 bd
       -0.08190461 0.09448431 -0.10804023 -0.08252292
000300 b2 88 b1 bc 1b 89 78 3e bf 5c 8d 3d 3e 2e 23 be
       -0.021671627 0.24271052 0.069024555 -0.15935609
000310 7f 92 05 3e c6 a7 b9 bd 97 b1 90 be 0a 83 d0 bc
       0.13044165 -0.09065203 -0.2826049 -0.02545311
000320 13 79 51 3d 92 d4 3b bd 43 55 32 be 5e f3 75 3e
       0.051140856 -0.04585702 -0.17415337 0.24018618
000330 a4 14 9c be ce 3c 64 bd f3 e2 26 3c d7 dc 18 3d
       -0.30484498 -0.05572205 0.010185945 0.037319984
000340 2a 02 5e be 80 93 38 be ba 45 b9 3d 60 26 12 bc
       -0.21680513 -0.18025017 0.090465024 -0.008920282
000350 c5 1c 81 be ed ee 8c bd e6 bb b7 3d 2b 65 57 bc
       -0.25217262 -0.06881509 0.08971386 -0.013146679
000360 88 a8 8d 3e 78 f0 f7 bc cc cb 8b 3d f3 12 a4 be
       0.27667642 -0.030266032 0.068259805 -0.32045707
000370 c9 6b 35 be 11 0d de bc 2b e2 a1 bc 93 64 94 bd
       -0.17716898 -0.02710584 -0.019761166 -0.072457455
000380 d8 ce 6c bd eb 70 01 3e 95 89 5f 3d c3 db a8 be
       -0.05781445 0.12640731 0.054574568 -0.32980165
000390 85 8b 17 bd f9 9b 1c be d0 99 d1 bd b1 b4 07 3e
       -0.03699829 -0.15293874 -0.102344155 0.13252522
0003a0 dd bd 5b be 6d dd 93 bd 22 c5 83 3c e8 1c af bb
       -0.21459146 -0.07219968 0.016085211 -0.005344022
0003b0 a6 82 80 be bb ab 1b bd 31 fc 14 3e 59 ec 4f bc
       -0.25099677 -0.03800557 0.14549328 -0.012690627
0003c0 c5 5e f4 bd 68 9d 23 3c c4 a6 e8 3c ec 69 2a bd
       -0.11932138 0.009986259 0.028399833 -0.04160492
0003d0 07 73 86 3e e5 45 0c 3e bd b9 3f 3e 7a a0 da 3d
       0.26259634 0.13698538 0.18723197 0.1067514
0003e0 49 2c a4 3d 88 20 76 3d bf 53 49 3d 52 8a f9 3d
       0.08016259 0.060089618 0.049152132 0.12184586
0003f0 9a 57 1a be bc e5 65 3d ef 25 72 3d 2b c1 54 bd
       -0.1507248 0.056127295 0.059118208 -0.05194203

bias_ih_l1 f4 [64]
000000 44 b4 13 bd fb df 91 bd 07 5c 06 3e 5f 4b 4b be
       -0.036060587 -0.07122799 0.13121043 -0.1985297
000010 b2 ef 2d bc e8 77 2a bd a8 03 5a bc a0 01 d0 bd
       -0.01061623 -0.041618258 -0.013306536 -0.1015656
000020 cb 25 85 bd 44 43 8b bd 3d 8a ec bd 49 9b 59 bd
       -0.06501349 -0.06799939 -0.11549804 -0.053126607
000030 f2 e6 04 3e 08 bd dd bc c9 11 0e bd 78 c6 dd 3b
       0.12978724 -0.027067676 -0.03468493 0.006768044
000040 86 51 9a bb 02 14 0b 3e 01 fa 99 ba be 70 43 3d
       -0.0047094254 0.13581851 -0.0011747481 0.04771494
000050 27 ff d1 3d d1 c8 81 3e f2 1b 92 bd bb 28 1e 3d
       0.102537446 0.25348523 -0.071342364 0.038613062
000060 b4 37 32 be 6b f3 4b 3e 50 18 33 3d c8 15 15 bd
       -0.17404062 0.19917075 0.043724358 -0.036397725
000070 ef b7 74 bd d4 bf d5 3d e8 d2 5b 3e 07 97 b3 bd
       -0.059745725 0.10436979 0.21467173 -0.087690406
000080 70 db e9 3c 8f 10 25 3e cc 5c 11 be 64 39 5a bd
       0.028547019 0.16119598 -0.14195555 -0.05327739
000090 d3 1f e4 3d 35 e1 29 3e 09 ca ad 3d fb 9f 8e 3d
       0.111388825 0.16589816 0.08485801 0.069641076
0000a0 79 2b 87 3d db 1e 4b be be 6d 1f 3e fd b4 ba bd
       0.066000886 -0.19835989 0.15569207 -0.09116552
0000b0 0e 79 1a bd 7c 09 a5 3d 37 d9 65 bb be 2a 80 3e
       -0.037713103 0.080584496 -0.0035072097 0.2503261
0000c0 72 a6 91 bd 96 11 e5 3d 6e 8b 29 3e ea c2 70 3d
       -0.07111825 0.11184995 0.16557094 0.058779635
0000d0 30 71 80 bd 98 cc 8c 3d e4 37 12 bd 32 60 e2 bc
       -0.06271589 0.06874961 -0.035697833 -0.02763376
0000e0 7e bd 65 be b7 a2 0e bd d2 e9 e6 3d 8a e4 1e be
       -0.22435567 -0.034823146 0.112750664 -0.15516868
0000f0 04 bb 80 be c7 a8 2e 3e 99 06 3e be 03 82 d7 3c
       -0.25142682 0.17056571 -0.18557204 0.026307112

bias_hh_l1 f4 [64]
000000 55 0c 89 3d f8 11 da bd 98 86 1a 3e 3d da 5c be
       0.06691805 -0.106479585 0.15090406 -0.21567626
000010 e7 df 14 bd 66 d0 7b bd cc 57 33 3e a2 f2 25 be
       -0.036346342 -0.06147804 0.1751396 -0.16205838
000020 a4 e5 91 bc e6 95 15 bd 2d 8a ad bd b7 50 54 be
       -0.017809696 -0.036519907 -0.084736206 -0.20733915
000030 9b fa e5 3d 2b d6 84 bd 13 9e 36 bd 31 c3 cc 3d
       0.1122944 -0.06486162 -0.044584345 0.09998167
000040 8e 2d a1 bd a2 a0 bb 3d e7 a3 e5 bd 98 6d 3c bd
       -0.07870017 0.09161498 -0.112129025 -0.046002954
000050 85 03 0e 3d 99 fe 78 3d 6b dd eb bd 05 c3 8f 3d
       0.034671325 0.06078968 -0.115168415 0.07019619
000060 e6 ae f4 bc c7 ea 6e 3d 45 bd 2f 3e e3 fa ee bd
       -0.029868554 0.05832937 0.17162044 -0.116689466
000070 79 c2 32 bc ac e6 ec 3c 8d 74 e4 3d 04 ae 78 bd
       -0.010910624 0.028918587 0.11155043 -0.06071283
000080 86 85 1d 3e 1b 7d b3 3e cc 92 dc bd 1e 5f cf bd
       0.15382966 0.35056385 -0.10770187 -0.10125564
000090 99 bc 22 ba 00 56 e1 3d 10 90 53 3d ce 6c 33 3e
       -0.0006207913 0.11002731 0.05165106 0.17521974
0000a0 fe e4 20 3e ff d1 ef bd ef 7e 6f 3d 24 83 01 be
       0.15712354 -0.117099755 0.058470663 -0.12647682
0000b0 16 40 17 bd 49 7b ad 3d f2 83 0c be 25 d5 14 3c
       -0.03692635 0.084707804 -0.13722208 0.009084021
0000c0 39 41 13 3e 64 57 2b bd 33 44 a0 3d ac 7d 56 3e
       0.14380349 -0.04183139 0.07825508 0.20946378
0000d0 4d b9 23 be eb 2a 55 3c b9 5c e7 bd 0e b8 f9 bd
       -0.15988655 0.013010721 -0.11296982 -0.12193309
0000e0 fc 7b 0e be 70 33 d0 3d fc da 17 3e c2 75 d4 3c
       -0.13914484 0.10166061 0.1482963 0.025935058
0000f0 1d ba 13 be 39 4f ae 3c cc b6 f7 bc 88 c1 04 be
       -0.14426465 0.02127801 -0.030238532 -0.12964451

weight_ih_l1_reverse f4 [64, 128]
000000 87 ee b4 3d 04 73 68 3e 06 d4 ce bd cd bf 22 bd
       0.08834558 0.22700125 -0.10099034 -0.039733697
000010 72 59 54 bd e4 7d 91 3d 58 5c 9b bc 92 dd cc 3c
       -0.051843114 0.0710409 -0.018964931 0.025007997
000020 52 1e ab 3c 1a ac 51 3c 33 a0 49 3d 76 f9 27 3d
       0.020888481 0.01279738 0.049225044 0.04100939
000030 53 cb 9c 3d d6 b7 ab bd 94 95 3d 3d 67 9c b1 3c
       0.076559685 -0.08384673 0.046285227 0.021681024
000040 a5 9c e5 bc 7f b2 b7 bd bd 0f 20 bd c7 f5 84 bd
       -0.028028795 -0.08969592 -0.03907751 -0.06492191
000050 9c 7d b4 3d 98 de a9 3d 02 83 73 3d 5e ee a9 3b
       0.088130206 0.082944095 0.05945111 0.0051858863
000060 e3 bc 1b 3d 47 62 e4 3c 22 d7 e1 bb 5d 55 7f 3d
       0.038021933 0.027878894 -0.006892101 0.06233727
000070 a1 a4 6f 3d 19 1d e5 bd c4 93 68 3d 04 e2 03 3c
       0.05850661 -0.111871906 0.056781545 0.008049492
000080 b5 89 98 bd 1a b5 b2 bc 67 cf a3 b7 e5 23 e0 bd
       -0.074481405 -0.021814872 -1.9527693e-05 -0.10944346
000090 d9 1d 84 bd 1a 61 80 bc 90 13 8b 3c f5 76 8d bd
       -0.064510055 -0.015671302 0.016977102 -0.06907455
0000a0 3a 62 90 3d 6a 2d 29 3e 54 c6 f3 bc be 40 a3 3b
       0.07049985 0.1652123 -0.029757656 0.004982083
0000b0 f7 31 fb 39 5c eb 32 3c ff 51 53 3d 28 83 da bd
       0.00047911677 0.010920372 0.05159187 -0.10669547
0000c0 6f ff 78 bd ce e9 17 be 43 26 50 bd f4 9a 75 3c
       -0.060790475 -0.14835283 -0.05081774 0.014990557
0000d0 bd aa 84 bc b9 0c f7 3d 3d 2e 81 bd f3 bc b9 b9
       -0.016194696 0.120629735 -0.063076474 -0.00035426728
0000e0 c4 0f c9 3d 75 9d 86 bc 77 3c 18 3d b5 15 39 3d
       0.0981746 -0.016432503 0.03716704 0.045186717
0000f0 2f 55 39 3d ea 2e fa 3d 3b 54 d1 bc 1f be 3b 3d
       0.045247253 0.122159794 -0.02555286 0.04583561
000100 7c ef 3f be 1f 61 03 3e 1a b4 08 be 9b 16 90 bd
       -0.187437 0.12830018 -0.13349953 -0.07035562
000110 2d e1 16 be b7 d2 b6 3d 5a 7c 3e 3e c2 3f a6 3d
       -0.14734335 0.089269094 0.18602124 0.081176296
000120 a6 f1 e1 bd 7c 17 88 3e d5 e8 ef bd db cf 0d 3e
       -0.11032419 0.26580417 -0.11714331 0.13848822
000130 27 b2 f4 bd 8d fc 4b 3e 06 6e 25 be 06 2b 3d be
       -0.11948042 0.19920559 -0.16155252 -0.18473443
000140 a1 82 47 be 6d c3 fb bd aa 4a 40 3e c0 87 50 be
       -0.19483425 -0.12293134 0.18778482 -0.20364285
000150 31 a3 47 be 89 30 43 be 7f db 5f be 7a d1 af bd
       -0.19495846 -0.19061483 -0.21861075 -0.08584876
000160 dd f1 30 3d 07 c5 47 bd 6a 01 44 3e 83 fd 78 3e
       0.04319941 -0.048771884 0.19141164 0.24315457
000170 23 39 b9 bd 66 e2 d3 3d 3d 11 7c be 53 6f 84 be
       -0.09044101 0.103459165 -0.24615951 -0.25866184
000180 73 41 73 be 90 a0 67 be 3a b0 38 be dd 33 e2 3c
       -0.23755436 -0.22619843 -0.18035975 0.027612621
000190 b7 94 9c 3d 5e 61 38 3e 93 b2 e3 3d e6 b0 83 3e
       0.076455526 0.18005893 0.11118045 0.257209
0001a0 f2 39 2f be c6 51 63 3e 0a 2e 6e 3e 07 3c ac bd
       -0.17111948 0.22199163 0.2325975 -0.08409887
0001b0 04 41 f0 bd 34 f2 2b 3e 63 d4 43 bd 3c 04 af bd
       -0.11731151 0.16791612 -0.04780997 -0.085457295
0001c0 b0 bf 8b be 89 5b 3c 3e 63 3d 13 3e 21 60 86 3e
       -0.27294683 0.18394293 0.14378886 0.26245216
0001d0 01 ec 02 3e aa 35 cc bd 33 f8 a8 bd 48 47 88 3d
       0.12785341 -0.09971173 -0.08250465 0.06654221
0001e0 9a 99 5e be c4 e7 45 be f3 8d 0e 3e df 7d 99 3c
       -0.21738282 -0.19326693 0.13921337 0.018736778
0001f0 67 92 95 be fc 34 82 3e 95 34 3d be 90 b5 53 be
       -0.2921326 0.2543105 -0.1847709 -0.2067473
000200 1e c6 74 be 72 7e c7 bd c4 18 9f 3e ef 01 6a 3c
       -0.239037 -0.097409144 0.31073582 0.014282688
000210 ad a7 1b 3e 30 ee 47 be fe 84 29 3e 67 f7 23 bd
       0.15200682 -0.19524455 0.16554639 -0.040030863
000220 e2 94 36 3c af 44 bb bd 29 7c d3 be e5 85 3c bd
       0.011143895 -0.0914396 -0.41305664 -0.04602613
000230 ba 37 99 bd ea 94 bb 3d 44 55 91 3c c7 d2 a3 be
       -0.07481332 0.091592625 0.017740853 -0.31996748
000240 04 43 dc 3c 5e 0f ec bc 77 62 4e 3e 3c 0a 50 3e
       0.026887424 -0.028815921 0.20154749 0.20316404
000250 26 97 13 bd fd b0 c2 be 40 1c 87 bd 26 77 d5 3d
       -0.03603282 -0.38025656 -0.06597185 0.104231164
000260 13 4d 63 be dc 83 0e be fe fb fb 3d a6 36 0b be
       -0.2219737 -0.13917488 0.12303923 -0.13595065
000270 a1 40 2e 3d b6 a8 44 3d 34 04 90 bd af 1a 4e be
       0.042542104 0.048012458 -0.07032052 -0.20127366
000280 c3 e6 11 3e 54 d5 f0 3d f6 ed 50 be 3b c0 cc bc
       0.14248185 0.11759439 -0.20403275 -0.024994006
000290 67 d5 4c be a3 84 45 3e 92 10 c3 3d dc 53 04 be
       -0.20003282 0.19288878 0.09524645 -0.12922615
0002a0 22 1c 90 be e5 46 df be 03 05 1c be 99 1b a7 bd
       -0.28146464 -0.43608776 -0.15236287 -0.08159561
0002b0 0f db cd 3c b8 78 9c 3d d6 07 c9 3d 41 d9 01 be
       0.02512887 0.07640213 0.09815948 -0.12680532
0002c0 16 66 80 be 81 4b 7a 3e 0b b8 d2 bd b4 13 a3 bc
       -0.25077885 0.24442865 -0.1028901 -0.019906856
0002d0 44 a4 a8 3d 86 fb 0c be 79 cb f9 3d 4e 45 17 3e
       0.08234456 -0.13767824 0.121970125 0.14772531
0002e0 cc ae 09 be fb cd 84 bd 04 03 97 bd bc ae 3d 3d
       -0.13445586 -0.064846 -0.07373622 0.046309218
0002f0 3c 02 07 3e 02 57 c7 bd d4 7a b9 3d e5 44 f9 bd
       0.13184446 -0.09733392 0.09056631 -0.12171344
000300 72 7a 98 bd ce 77 a8 bc 2e 74 cd 3b d7 dd 4d 3e
       -0.074452296 -0.02056494 0.006269953 0.20104156
000310 78 d1 48 3a 6e fc c0 bd 72 b7 db bc c9 32 11 3e
       0.0007660608 -0.09423147 -0.026820872 0.14179529
000320 a7 24 34 bd 61 99 7a bd c4 c4 ae bd e1 c1 ab bd
       -0.043980267 -0.06118143 -0.08533624 -0.08386589
000330 f3 cf 19 3d 3c f8 d1 3d 33 31 d0 3d 4a 1c a4 bc
       0.03755183 0.10252425 0.10165634 -0.02003302
000340 14 8f 9a bd 29 c6 79 bd b7 0a 7b 3d 7b c0 69 bd
       -0.07546821 -0.060979996 0.061289515 -0.05706833
000350 1d 96 16 bd 1e 1a 63 3e e5 ce 95 bd 06 65 2e bd
       -0.036764253 0.22177932 -0.073148526 -0.042576812
000360 22 46 2a 3d cc d5 1a 3d 99 bc ce 3d f5 8a fc bc
       0.04157079 0.03780155 0.10094566 -0.030827979
000370 13 8e 64 3e 7c 43 71 3d 2f ee 90 bd 9c 43 5a bd
       0.22319822 0.05890225 -0.0707668 -0.053287134
000380 6b 3d b6 bd 01 66 a6 bc b3 58 f9 3c 10 c2 66 bd
       -0.08898433 -0.020312311 0.030437803 -0.056337416
000390 da c0 ce bb 28 16 a0 3c e8 7a 8e 3c 78 07 cc 3d
       -0.006309611 0.019541815 0.01739259 0.09962362
0003a0 20 b5 f9 bc c0 66 fb 3c f7 f0 94 3d d8 90 ae 3d
       -0.030481875 0.030688643 0.07272523 0.085237205
0003b0 17 e0 87 3c 5b cf f4 3c 75 82 11 3e 68 ad cb 3c
       0.016586347 0.029884031 0.14209922 0.02486296
0003c0 37 cd ea bd 41 ee d5 bc 5c 49 13 3e f7 56 29 bc
       -0.11464923 -0.026114585 0.14383453 -0.010335675
0003d0 7d cc 83 bd af a6 d6 bd e9 fd b7 bc 9e d3 90 bd
       -0.064354874 -0.10481011 -0.022459941 -0.07071613
0003e0 85 8b 6e bd 4b 32 e1 bd dd 71 50 3d a2 07 06 bb
       -0.058238525 -0.10995921 0.05088984 -0.0020451327
0003f0 dd 2c 03 bd 41 51 53 3d c8 d2 1e 3d 3c ff 12 3d
       -0.032025207 0.05159116 0.038775235 0.03588794
