final_models/forecast_rnn.pt (torch, 147196 bytes, 19 tensors)

weight f4 [1, 30, 1]
-0.10042883 0.097788244 -0.046307277 0.10276114 0.0015400588 0.039273087 0.015738526 -0.046548907
0.05436105 -0.10641184 -0.07522227 -0.13566187 0.08480396 0.043012083 0.12110749 0.0022359581
-0.08456557 0.12752531 -0.12886707 -0.10022374 -0.024423774 0.17222567 0.0051134476 -0.0030084685
0.09135182 0.045817576 0.06012321 0.09860557 0.039225902 0.123436496
00000000: a1ad cdbd 3445 c83d b3ac 3dbd 6f74 d23d
00000010: ccdb c93a d1dc 203d 15ee 803c 11aa 3ebd
00000020: b1a9 5e3d 73ee d9bd 220e 9abd f2ea 0abe
00000030: b3ad ad3d 702d 303d 3407 f83d 2789 123b
00000040: b730 adbd ff95 023e bbf5 03be 1b42 cdbd
00000050: 5e14 c8bc ed5b 303e b58e a73b ba29 45bb
00000060: aa16 bb3d 36ab 3b3d c143 763d b8f1 c93d
00000070: 57ab 203d 46cc fc3d

weight_ih_l0 f4 [64, 1]
0.02473443 0.00040587163 -0.0010280882 0.0067414604 -0.027301442 -0.035894677 0.0010334433 -0.010825877
0.025643468 -0.030026166 -0.011009683 0.03383936 0.016252179 -0.0055227415 0.0113868965 -0.003914644
-0.033220142 0.035857093 0.039219227 -0.021404656 0.031910665 0.06459977 -0.037804298 -0.02076949
-0.01905618 0.016187908 0.05397008 -0.045131788 -0.021421164 0.008587391 -0.03705643 0.016009998
0.014775004 0.007930868 -0.017487476 0.030074086 -0.010494369 0.010778122 -0.01642303 0.008134308
-0.04147274 -0.010703665 0.026269497 -0.00016248513 -0.007933378 0.007561045 0.009474418 0.016666802
0.008018276 -0.11211082 0.012544233 0.017430352 -0.024744144 0.014689586 -0.05509373 -0.011783354
-0.02197957 -0.007301296 0.012965479 0.012191024 0.041802574 -0.022954453 0.00505425 0.0002728342
00000000: dc9f ca3c 2bcb d439 eac0 86ba 78e7 dc3b
00000010: 46a7 dfbc 4c06 13bd 9a74 873a 055f 31bc
00000020: 4012 d23c 6ff9 f5bc f561 34bc 249b 0a3d
00000030: 4a23 853c 1df8 b4bb 1b90 3a3c 6a46 80bb
00000040: d811 08bd e3de 123d 57a4 203d d158 afbc
00000050: c2b4 023d e24c 843d aed8 1abd c724 aabc
00000060: b51b 9cbc 819c 843c bb0f 5d3d 1cdc 38bd
00000070: 707b afbc 21b2 0c3c 7cc8 17bd 6627 833c
00000080: dc12 723c 79f0 013c e541 8fbc ee5d f63c
00000090: 93f0 2bbc b896 303c 9789 86bc c345 053c
000000a0: 52df 29bd 6d5e 2fbc 2133 d73c c560 2ab9
000000b0: 00fb 01bc a4c2 f73b 973a 1b3c d188 883c
000000c0: 165f 033c 5c9a e5bd 5486 4d3c 19ca 8e3c
000000d0: 3bb4 cabc 97ac 703c f7a9 61bd f80e 41bc
000000e0: 800e b4bc b63f efbb 296d 543c dcbc 473c
000000f0: 2d39 2b3d fa0a bcbc 1f9e a53b 300b 8f39

weight_hh_l0 f4 [64, 64]
-0.334275 -0.005394899 -0.10800233 -0.03922664 -0.015333319 -0.14854006 -0.008507223 -0.11750449
-0.06435326 0.0044642463 0.05175408 -0.026665285 -0.08054937 -0.20333187 0.010439771 0.026123589
-0.017286459 0.03653815 -0.016664974 -0.056163717 0.18506004 0.051181868 0.06365534 0.009025512
0.005617755 -0.17788228 -0.00066538685 -0.052979242 0.09441176 0.036451697 0.09539091 0.0014091211
0.06612192 0.013085664 0.052400276 -0.09265197 0.021749109 -0.01514532 -0.124817304 0.048652973
-0.06159323 0.17480089 0.083945915 0.018306777 -0.1188326 0.1137827 0.06050571 0.021674938
-0.1591135 0.04049917 -0.0035030216 -0.085453406 0.08010229 0.10206805 0.034900565 -0.020214047
0.17659736 0.035540536 -0.029816054 -0.007056991 -0.1423034 -0.15033734 -0.069561444 0.0427202
0.0032658884 -0.34771734 0.04445352 0.20411171 0.10820649 0.06800187 0.10120813 -0.15253778
0.009850579 0.013910729 -0.01169955 0.07362113 0.14489368 -0.010818753 -0.17460328 0.022507306
-0.044952095 -0.1059001 -0.045600537 0.018998219 -0.06008651 -0.094446756 -0.07437449 -0.03027847
-0.08861999 -0.12061932 0.10066812 0.012779943 0.10487923 0.126341 -0.07357954 0.057927273
-0.009579087 -0.009156674 0.07286112 -0.028243436 0.028687809 -0.10146218 0.00937137 -0.004482054
-0.12789422 -0.18305923 -0.049603958 -0.06405326 0.05466655 0.018140515 0.12870142 0.023250904
-0.062291164 -0.047166564 -0.0897534 0.088370115 -0.035876844 0.10415052 0.12581608 0.07953459
0.091010466 -0.035268966 -0.09633985 -0.014151378 0.014286185 -0.0068236766 0.051852312 -0.06871849
0.021242958 -0.016111897 -0.34025738 -0.104167655 0.093389906 0.048444025 -0.012488857 0.0066325674
0.0048678415 -0.09241005 -0.15446755 -0.043825444 -0.012813114 -0.036826797 -0.06190585 -0.039964974
0.06750076 -0.20229885 -0.06803503 -0.08338308 0.026516648 -0.07122191 0.07478486 -0.034175746
-0.0730348 -0.09259726 -0.05148632 -0.019127473 -0.14453973 0.043332294 0.10170002 0.0027191075
-0.007424062 0.03226971 0.070727415 -0.018630134 -0.0040766774 0.012268897 0.09080646 0.010355565
-0.13788322 0.10278945 -0.042567465 -0.118720986 -0.04517112 -0.0409404 0.10339604 0.12448435
-0.10954811 -0.043417573 -0.028292779 -0.009327336 -0.114368565 0.14875844 -0.012403276 -0.013966919
0.088793404 0.06450672 -0.071312875 0.06619178 -0.05906762 0.01615695 -0.015953526 0.029812464
0.028950358 -0.0822334 0.009830468 -0.34960935 -0.11147668 0.008494311 0.054204512 -0.17581283
-0.12678951 0.18429224 0.022963867 0.057776242 0.1798883 0.10831304 -0.07576974 -0.01999986
-0.089666076 0.104544796 0.11146599 0.10088522 -0.08515163 0.15088807 -0.11477878 -0.038015205
-0.01595869 -0.0037899432 -0.06998164 -0.1052589 -0.185444 -0.048326217 0.21338923 -0.08716354
0.08953879 0.017790686 0.08146563 0.012632207 -0.04360018 -0.12837468 -0.09487361 0.0331196
0.19017026 0.00344445 0.083600126 -0.053956077 0.018050777 -0.08298392 -0.03278959 0.044973295
0.03080939 0.00020904986 0.021573804 0.117426924 0.052733548 0.12007272 -0.05949142 -0.18715717
-0.012657045 0.014939556 -0.0035735983 0.024296079 -0.046948165 -0.010826633 0.08393837 -0.15544917
00000000: 1826 abbe b1c7 b0bb 5330 ddbd 1dac 20bd
00000010: 9a38 7bbc e31a 18be e161 0bbc 32a6 f0bd
00000020: a4cb 83bd d048 923b 16fc 533d 2871 dabc
00000030: 11f7 a4bd 3b36 50be 930b 2b3c 2301 d63c
00000040: 559c 8dbc 07a9 153d fc84 88bc ed0b 66bd
00000050: 6180 3d3e 14a4 513d bb5d 823d bedf 133c
00000060: 2515 b83b c626 36be 5b6d 2eba c300 59bd
00000070: f45a c13d 604e 153d 4f5c c33d 42b2 b83a
00000080: ee6a 873d 4165 563c aca1 563d 51c0 bdbd
00000090: 302b b23c 1424 78bc 37a0 ffbd 5748 473d
000000a0: 2f49 7cbd 01ff 323e d6eb ab3d 18f8 953c
000000b0: 825e f3bd e706 e93d d6d4 773d a48f b13c
000000c0: a6ee 22be 75e2 253d f392 65bb 3202 afbd
000000d0: ab0c a43d 0e09 d13d e5f3 0e3d ee97 a5bc
000000e0: f0d5 343e f492 113d cc40 f4bc 553e e7bb
000000f0: fcb7 11be 08f2 19be 3b76 8ebd 60fb 2e3d
00000100: 8408 563b 0208 b2be e514 363d a902 513e
00000110: 5d9b dd3d 9044 8b3d 3546 cf3d dd32 1cbe
00000120: 5364 213c d4e9 633c 78af 3fbc adc6 963d
00000130: 025f 143e 2441 31bc 34cb 32be 3e61 b83c
00000140: b01f 38bd 27e2 d8bd a1c7 3abd 27a2 9b3c
00000150: 461d 76bd 4d6d c1bd a751 98bd 8e0a f8bc
00000160: 667e b5bd 4307 f7bd 162b ce3d f762 513c
00000170: ecca d63d 895f 013e dfb0 96bd 2645 6d3d
00000180: 9af1 1cbc e005 16bc 3638 953d c75e e7bc
00000190: b202 eb3c 67cb cfbd 608a 193c 32de 92bb
000001a0: b4f6 02be e173 3bbe 852d 4bbd 5b2e 83bd
000001b0: 08ea 5f3d 6b9b 943c 4eca 033e ae78 be3c
000001c0: 0525 7fbd ba31 41bd a1d0 b7bd 64fb b43d
000001d0: 99f3 12bd de4c d53d eed5 003e 08e3 a23d
000001e0: b263 ba3d 3176 10bd d44d c5bd 2edb 67bc
000001f0: 9a10 6a3c 2699 dfbb 1763 543d 48bc 8cbd
00000200: b605 ae3c 19fd 83bc 3736 aebe da55 d5bd
00000210: 3543 bf3d 3e6d 463d 109e 4cbc 0256 d93b
00000220: 6a82 9f3b 7b41 bdbd be2c 1ebe 4f82 33bd
00000230: 18ee 51bc b2d7 16bd fd90 7dbd 50b2 23bd
00000240: d73d 8a3d 6e27 4fbe f355 8bbd c0c4 aabd
00000250: 7139 d93c cbdc 91bd ce28 993d defb 0bbd
00000260: 4593 95bd a2a3 bdbd 52e3 52bd 38b1 9cbc
00000270: 3902 14be 347d 313d 1a48 d03d 0e33 323b
00000280: 8c45 f3bb 3e2d 043d 89d9 903d 399e 98bc
00000290: a695 85bb 7c03 493c bdf8 b93d 63aa 293c
000002a0: 4231 0dbe 4683 d23d 395b 2ebd fd23 f3bd
000002b0: 5a05 39bd 1fb1 27bd 4ec1 d33d a7f1 fe3d
000002c0: c25a e0bd a0d6 31bd 42c6 e7bc afd1 18bc
000002d0: 113a eabd 2254 183e 1c37 4bbc 81d5 64bc
000002e0: 51d9 b53d 191c 843d 7c0c 92bd 8e8f 873d
000002f0: e4f0 71bd 945b 843c f8b0 82bc 4539 f43c
00000300: 4d29 ed3c fc69 a8bd f90f 213c ffff b2be
00000310: e34d e4bd b92b 0b3c 8d05 5e3d 4708 34be
00000320: 1cd5 01be 1bb7 3c3e b81e bc3c c8a6 6c3d
00000330: a334 383e 3ad3 dd3d 2a2d 9bbd bfd6 a3bc
00000340: d9a2 b7bd 951b d63d 4848 e43d e99c ce3d
00000350: fa63 aebd 6782 1a3e 2311 ebbd d5b5 1bbd
00000360: ccbb 82bc b260 78bb 8952 8fbd fa91 d7bd
00000370: 08e5 3dbe b6f1 45bd b582 5a3e cc82 b2bd
00000380: 1d60 b73d c6bd 913c 74d7 a63d 51f7 4e3c
00000390: 1a96 32bd a774 03be 184d c2bd 6ba8 073d
000003a0: febb 423e 48bc 613b 8b36 ab3d 0c01 5dbd
000003b0: 39df 933c 79f3 a9bd 614e 06bd eb35 383d
000003c0: f963 fc3c 6534 5b39 8cbb b03c 877d f03d
000003d0: 22ff 573d b0e8 f53d 46ad 73bd 21a6 3fbe
000003e0: 7f5f 4fbc 0ac5 743c 0833 6abb 9208 c73c
000003f0: b84c 40bd 3162 31bc e1e7 ab3d 112e 1fbe

bias_ih_l0 f4 [64]
-0.037277583 -0.023823733 0.017438581 -0.008301913 -0.039830767 0.0036159079 -0.027503366 0.036104023
0.024914216 -0.09315972 0.0009141183 -0.0069900835 0.044051472 0.02019434 -0.061707262 0.057853226
0.07555337 0.026481118 0.005211824 -0.06994215 -0.053173386 0.029706253 0.028194882 -0.058273524
-0.05453938 0.0032218012 -0.037698403 0.028242838 -0.027402425 0.004289278 0.063756205 0.09267451
0.016594868 0.03548891 0.0031321023 0.010741458 -0.027411856 -0.050436027 -0.09451904 -0.077965274
-0.0955153 -0.020241981 0.060278658 -0.014421882 0.08551945 0.05979955 -0.028661657 0.021563534
-0.08921337 -0.060382485 0.035684057 0.0048512844 0.10285144 -0.05003215 -0.036521126 0.03519379
0.03173924 -0.010626483 0.009715705 0.06450809 -0.046238452 0.006380077 0.09549921 0.008451664
00000000: 61b0 18bd fd29 c3bc 5bdb 8e3c bf04 08bc
00000010: 9625 23bd def8 6c3b bd4e e1bc d0e1 133d
00000020: e618 cc3c 86ca bebd 71a1 6f3a 120d e5bb
00000030: 516f 343d 9a6e a53c c1c0 7cbd 81f7 6c3d
00000040: babb 9a3d eeee d83c f3c7 aa3b d43d 8fbd
00000050: 56cc 59bd 875a f33c f4f8 e63c 38b0 6ebd
00000060: af64 5fbd db24 533b a469 1abd 865d e73c
00000070: 0d7b e0bc 128d 8c3b 9d92 823d 22cc bd3d
00000080: f6f1 873c d25c 113d f543 4d3b f1fc 2f3c
00000090: d48e e0bc 0296 4ebd 3393 c1bd 42ac 9fbd
000000a0: 879d c3bd 83d2 a5bc c1e6 763d c249 6cbc
000000b0: d224 af3d 5ff0 743d dacb eabc 02a6 b03c
000000c0: 80b5 b6bd a053 77bd 7229 123d 86f7 9e3b
000000d0: c7a3 d23d 83ee 4cbd 2d97 15bd 5d27 103d
000000e0: 0101 023d b31a 2ebc 9f2e 1f3c d11c 843d
000000f0: 8864 3dbd f70f d13b 1795 c33d d978 0a3c

bias_hh_l0 f4 [64]
0.046235777 0.048100688 0.029383244 -0.021049393 0.04978346 0.012576132 0.03653032 -0.028024249
0.021520238 0.097146675 0.011124439 0.047759052 -0.048635103 0.014213033 0.0068771658 -0.026385847
-0.09923404 -0.05037624 0.0004671489 0.104162835 0.008490015 0.009203991 -0.12056175 0.028456226
0.09256423 -0.043205492 0.10436506 -0.04729484 0.07020393 0.010286726 -0.09101003 -0.071358375
-0.015385355 0.028896237 0.037953146 -0.012291088 0.020309808 0.026511602 0.06545771 0.006287264
0.06413234 0.012018251 -0.058676656 0.023153722 -0.06275442 -0.05228018 0.020359084 -0.04171763
0.07219919 0.008471037 -0.097962044 -0.0032474035 -0.0922884 0.03844036 -0.0054531954 -0.07305473
0.015024375 0.037720162 -0.021821084 -0.059970688 0.03763353 -0.03797179 -0.096226834 0.013102386
00000000: ba61 3d3d 3a05 453d 21b5 f03c c76f acbc
00000010: bee9 4b3d 1f0c 4e3c d1a0 153d 1c93 e5bc
00000020: 364b b03c d6f4 c63d 4743 363c ff9e 433d
00000030: 9a35 47bd c8dd 683c d959 e13b 2227 d8bc
00000040: 373b cbbd 5157 4ebd aaeb f439 5353 d53d
00000050: b419 0b3c 56cc 163c 14e9 f6bd 081d e93c
00000060: 5192 bd3d 3ef8 30bd 59bd d53d 3cb8 41bd
00000070: 14c7 8f3d a889 283c 7763 babd 5724 92bd
00000080: db12 7cbc cdb7 ec3c c274 1b3d 8f60 49bc
00000090: c160 a63c dc2e d93c b10e 863d 6505 ce3b
000000a0: d157 833d 33e8 443c ef56 70bd e0ac bd3c
000000b0: 6485 80bd be23 56bd 18c8 a63c 1be0 2abd
000000c0: 2bdd 933d 1bca 0a3c 53a0 c8bd 64d2 54bb
000000d0: b301 bdbd a473 1d3d b8b0 b2bb b89d 95bd
000000e0: cc28 763c 7580 1a3d 21c2 b2bc d3a3 75bd
000000f0: 9e25 1a3d 4f88 1bbd 9312 c5bd 64ab 563c

weight_ih_l0_reverse f4 [64, 1]
-4.6493966e-05 0.0079734875 0.00021110121 0.0015073516 -0.015555407 0.027374888 0.027120871 -0.014681298
0.0057506436 -0.0041544293 -0.8305632 -0.0020433478 -0.014989609 0.008964407 0.0024994095 0.0059716096
0.0017837501 0.016180411 -0.008003032 0.00758711 -0.007956127 0.005669867 -0.017358012 0.026652716
0.0011874784 0.010311366 -0.022186166 -0.0023612836 0.019202441 -0.01813933 0.0037368129 0.0082307
0.006308345 0.015058348 0.0027971305 -0.001015251 0.004569904 -0.009777211 0.006633336 0.009046679
0.0071159992 -0.01715503 0.0068159797 -0.011528885 0.007376312 -0.002992088 -0.0069213 0.010205532
0.007253371 -0.028172722 -0.011805228 0.0038586338 -0.005747056 -0.0029866062 0.0020582087 0.0065325955
0.01425291 0.018313337 -0.0018959111 -0.013931039 -0.008958494 -0.7188291 0.010281893 0.015727011
00000000: 8402 43b8 3ba3 023c 0d5b 5d39 5492 c53a
00000010: 1bdc 7ebc 4d41 e03c 972c de3c d489 70bc
00000020: e56f bc3b e121 88bb ca9f 54bf b0e9 05bb
00000030: fa96 75bc 73df 123c 22cd 233b 7ead c33b
00000040: b9cc e93a c88c 843c 261f 03bc 4b9d f83b
00000050: 6a5a 02bc 4bca b93b 6432 8ebc cc56 da3c
00000060: 2aa5 9b3a 01f1 283c c3bf b5bc c4bf 1abb
00000070: 704e 9d3c ef98 94bc 51e5 743b 0fda 063c
00000080: 3cb6 ce3b 4ab7 763c 1050 373b 2c12 85ba
00000090: 22bf 953b 9830 20bc 755c d93b 8638 143c
000000a0: 542d e93b b588 8cbc 9558 df3b a6e3 3cbc
000000b0: fdb4 f13b e816 44bb 13cc e2bb 1b35 273c
000000c0: b0ad ed3b 7bca e6bc b76a 41bc 22e1 7c3b
000000d0: cd51 bcbb f0ba 43bb 03e3 063b 620f d63b
000000e0: 0a85 693c da05 963c 3880 f8ba 033f 64bc
000000f0: a6c6 12bc 2f05 38bf 6375 283c efd5 803c

weight_hh_l0_reverse f4 [64, 64]
0.4659104 0.09012667 0.061141513 -0.019750249 0.06516183 -0.038056713 -0.060389087 -0.0001415631
0.00435864 -0.037557606 -0.014712814 -0.050561786 0.021670796 -0.010224953 -0.121858545 -0.019005615
-0.13247408 -0.22740072 0.06761778 -0.062365167 -0.0089457 -0.122406654 -0.10092282 0.022154015
0.05432298 -0.23286559 0.06759596 -0.06386173 0.036073126 0.16005838 0.040414665 0.13352045
0.11890201 -0.04903391 -0.19968975 -0.050193213 0.1155215 0.12479737 -0.19389404 0.24262466
-0.0015069719 0.21345377 0.16325468 0.0046262485 0.17625858 0.005899025 -0.04079114 -0.08689829
-0.101882726 -0.10595951 -0.021643419 0.015988758 0.11899041 0.11198503 -0.00026816604 0.0152452085
-0.027912876 0.10916355 -0.09352337 0.19644299 0.0022486802 0.004228803 0.028884942 0.08626539
0.073269285 0.43840376 0.011567886 -0.12082349 -0.1392022 0.036622204 -0.13530962 0.12740812
0.13512765 0.21676743 -0.012962376 0.10365913 -0.118165396 -0.047245815 0.016113266 0.14972891
-0.087745346 0.078876525 0.009574585 0.03816756 -0.14177155 0.15959701 -0.014762461 -0.02082099
0.13873222 -0.10129943 -0.034558352 0.12832236 -0.062216744 0.13117465 -0.13791978 0.099365026
-0.1322413 0.111436784 0.14130959 0.09212148 -0.0039176773 -0.015787575 -0.20760237 0.046601597
-0.14626461 0.16853917 0.116997786 0.068687625 0.043355074 -0.014413088 0.22352369 -0.051555466
0.06189005 -0.08289618 0.06938899 -0.05719541 -0.06188982 0.03401282 -0.0016969065 -0.23319663
0.071739435 -0.04133464 -0.23302129 0.1616048 0.394876 0.0049816957 -0.019590339 0.063461624
0.03340957 -0.058070626 0.5410859 0.06375734 -0.22017229 -0.02428886 0.005504141 0.0075294487
-0.15111311 -0.15347013 0.015971119 0.09681728 -0.09876324 0.05767346 -0.19502054 -0.10866138
-0.19761145 -0.1895903 -0.11419365 0.4076168 -0.051651314 -0.04724834 -0.055644836 0.08516102
0.046491593 -0.09967331 0.20585577 -0.07894244 0.060334824 0.1637461 0.059829168 0.24162899
0.065542236 0.030556146 0.140987 -0.081381276 0.10122226 0.13556705 -0.010968683 0.03019283
0.060901053 0.038873777 -0.154069 -0.050676536 -0.013849441 0.02541259 0.0683981 0.15796228
0.1311451 -0.17164923 -0.020829836 -0.012660078 0.15533128 -0.0032156662 0.010389359 -0.08919889
0.13882937 0.08054007 -0.19184108 0.046690293 -0.050902 -0.009075097 0.12145274 0.12922198
0.060615305 0.21984003 -0.042402916 0.5051665 -0.19225033 0.13164808 0.15356982 0.11256832
-0.105422564 -0.22105591 -0.02383937 0.067378946 -0.061588448 -0.020925231 -0.1288975 0.15202804
0.1723077 0.27277368 0.02688845 0.12322854 -0.17098214 0.05122988 0.05698066 -0.04415768
0.17174406 0.02682302 0.09428558 -0.063113496 0.0064155 0.06755939 0.008626561 0.06316441
-0.12122247 0.05733053 -0.06414825 -0.0012197433 -0.04307033 0.17015861 0.12076462 0.05847325
-0.050216082 0.022473322 0.027481506 -0.009576801 -0.08652665 -0.15472066 0.06201425 0.0038951484
0.08649227 0.05601465 0.11685131 0.013843706 -0.0731502 -0.018591382 -0.103750944 -0.08994343
0.06440718 0.10001905 0.05678528 -0.15671672 0.16177772 -0.00088423106 -0.008725468 0.09633183
00000000: cf8b ee3e 5594 b83d 866f 7a3d 46cb a1bc
00000010: 9173 853d 5be1 1bbd 8c5a 77bd 8e70 14b9
00000020: ecd2 8e3b 01d6 19bd 040e 71bc e019 4fbd
00000030: f486 b13c 9086 27bc f990 f9bd aab1 9bbc
00000040: 49a7 07be bcdb 68be 317b 8a3d 9e72 7fbd
00000050: fc90 12bc 57b0 fabd a0b0 cebd 567c b53c
00000060: c681 5e3d 5174 6ebe c06f 8a3d f0c9 82bd
00000070: 6ac1 133d 58e6 233e d989 253d 96b9 083e
00000080: e682 f33d c8d7 48bd 787b 4cbe 6697 4dbd
00000090: 8996 ec3d c395 ff3d 298c 46be 9972 783e
000000a0: 9685 c5ba a093 5a3e 3c2c 273e c997 973b
000000b0: 217d 343e 9c4c c13b 9c14 27bd bbf7 b1bd
000000c0: e4a7 d0bd 4d01 d9bd 8a4d b1bc dbfa 823c
000000d0: 3eb1 f33d 6858 e53d a398 8cb9 0ac7 793c
000000e0: 8ba9 e4bc 2491 df3d 2e89 bfbd 5a28 493e
000000f0: 985e 133b c591 8a3b 1da0 ec3c e9ab b03d
00000100: 350e 963d 7576 e03e 3b87 3d3c 4e72 f7bd
00000110: 068b 0ebe 2a01 163d 9b8e 0abe 4677 023e
00000120: e75e 0a3e 48f8 5d3e 2560 54bc 3d4b d43d
00000130: b300 f2bd d484 41bd f8ff 833c 8952 193e
00000140: d5b3 b3bd 048a a13d b8de 1c3c 9655 1c3d
00000150: 902c 11be 666d 233e 40de 71bc c890 aabc
00000160: d20f 0e3e 1376 cfbd 0f8d 0dbd f066 033e
00000170: fcd6 7ebd a652 063e d83a 0dbe e47f cb3d
00000180: 436a 07be f838 e43d 76b3 103e 30aa bc3d
00000190: dc5f 80bb f254 81bc b795 54be 51e1 3e3d
000001a0: 64c6 15be 8895 2c3e 899c ef3d 19ac 8c3d
000001b0: 1795 313d df24 6cbc 65e3 643e d32b 53bd
000001c0: 6c80 7d3d 79c5 a9bd d11b 8e3d bc45 6abd
000001d0: 2e80 7dbd 0751 0b3d bc6a deba 19cb 6ebe
000001e0: 20ec 923d 834e 29bd 229d 6ebe bb7b 253e
000001f0: 302d ca3e 7e3d a33b eb7b a0bc 2bf8 813d
00000200: 79d8 083d 77db 6dbd 9b84 0a3f 3593 823d
00000210: d874 61be 6ef9 c6bc 155c b43b 98b9 f63b
00000220: 65bd 1abe 4627 1dbe ddd5 823c 2348 c63d
00000230: 6244 cabd 023b 6c3d 77b3 47be dc89 debd
00000240: a85a 4abe f623 42be 5cde e9bd 26b3 d03e
00000250: 5490 53bd 7a87 41bd d7eb 63bd e768 ae3d
00000260: f86d 3e3d 8521 ccbd dbcb 523e 93ac a1bd
00000270: a621 773d 0fad 273e 6e0f 753d 976d 773e
00000280: 023b 863d e250 fa3c e55e 103e 3aab a6bd
00000290: 9e4d cf3d 17d2 0a3e feb5 33bc f456 f73c
000002a0: 6273 793d 1c3a 1f3d 44c4 1dbe 3392 4fbd
000002b0: c4e8 62bc 102e d03c 4e14 8c3d ddc0 213e
000002c0: e74a 063e d1c4 2fbe 55a3 aabc 376c 4fbc
000002d0: 2a0f 1f3e edbd 52bb 2138 2a3c e8ad b6bd
000002e0: 4929 0e3e 31f2 a43d fd71 44be 523e 3f3d
000002f0: 9e7e 50bd b7af 14bc 37bc f83d c452 043e
00000300: c147 783d bf1d 613e aeae 2dbd 9752 013f
00000310: 45dd 44be c1ce 063e 6841 1d3e 388a e63d
00000320: c9e7 d7bd 7b5c 62be c84a c3bc f9fd 893d
00000330: 2b44 7cbd 646b abbc b5fd 03be 3dad 1b3e
00000340: 6e71 303e fea8 8b3e 2b45 dc3c 3f5f fc3d
00000350: f115 2fbe 6cd6 513d 8d64 693d afde 34bd
00000360: addd 2f3e f3bb db3c cc18 c13d a641 81bd
00000370: 1d39 d23b 945c 8a3d 6b56 0d3c 585c 813d
00000380: 7d43 f8bd 6bd3 6a3d 2860 83bd cbdf 9fba
00000390: 846a 30bd 0f3e 2e3e 7153 f73d a681 6f3d
000003a0: 61af 4dbd f919 b83c e520 e13c 04e8 1cbc
000003b0: e234 b1bd 186f 1ebe a702 7e3d bf45 7f3b
000003c0: dc22 b13d 9e6f 653d bd4f ef3d b6d0 623c
000003d0: c6cf 95bd f44c 98bc 607b d4bd 4334 b8bd
000003e0: e9e7 833d cad6 cc3d af97 683d 597a 20be
000003f0: 0fa9 253e becb 67ba 44f5 0ebc 9f49 c53d

bias_ih_l0_reverse f4 [64]
0.11208747 -0.0018954027 -0.029195985 -0.022955325 -0.043545127 -0.06369379 -0.008705654 0.018120663
-0.083068624 0.009943842 0.2581527 -0.041803304 0.005349195 0.0051687276 -0.010873852 0.05427573
-0.015014608 0.001990651 -0.0070692976 -0.076081656 -0.03171841 0.071266636 0.017926477 0.03500967
-0.016085913 -0.08210483 -0.084312595 0.017570347 -0.07594207 0.040593978 -0.06864432 -0.0033022447
-0.04945347 -0.04569252 0.046556 -0.02262439 -0.0063686147 -0.03528521 0.059850074 0.04918296
-0.03739312 -0.01643724 0.030550512 0.07538192 -0.0017679118 0.04378422 0.016455375 0.00067291124
0.021896232 -0.026314937 -0.081816085 0.0077413977 -0.044144575 -0.01954388 -0.021183418 -0.013267592
-0.044873655 0.06755007 0.017243754 0.01597621 -0.045006733 0.21431562 -0.054211464 0.015454277
00000000: 1e8e e53d 296f f8ba 6b2c efbc ce0c bcbc
00000010: 605c 32bd e471 82bd 29a2 0ebc c971 943c
00000020: e21f aabd 7feb 223c 972c 843e f139 2bbd
00000030: 4d48 af3b 6e5e a93b 3e28 32bc 3a50 5e3d
00000040: d5ff 75bc 9575 023b 91a5 e7bb b3d0 9bbd
00000050: 2aeb 01bd 3ef4 913d 8cda 923c 4d66 0f3d
00000060: 9bc6 83bc 9426 a8bd 15ac acbd b0ef 8f3c
00000070: 8487 9bbd df45 263d 6595 8cbd 796a 58bb
00000080: b98f 4abd 1428 3bbd 81b1 3e3d c956 b9bc
00000090: d0af d0bb 3987 10bd 5a25 753d 1274 493d
000000a0: 8729 19bd 64a7 86bc 1145 fa3c d661 9a3d
000000b0: 47b9 e7ba 1557 333d 6ccd 863c 4f66 303a
000000c0: ba5f b33c 6c92 d7bc 318f a7bd 8dab fd3b
000000d0: f1d0 34bd 7d1a a0bc d988 adbc 5060 59bc
000000e0: 70cd 37bd b157 8a3d c642 8d3c 8ae0 823c
000000f0: fb58 38bd 8e75 5b3e d70c 5ebd f033 7d3c

bias_hh_l0_reverse f4 [64]
-0.09523577 -0.00767819 0.032163568 0.0197428 0.056732938 0.04515858 -0.020587876 0.0022761344
0.082285486 -0.012516498 0.28001678 0.043683477 0.012505181 -0.01292842 0.0027713254 -0.030478595
0.019962871 -0.021161888 0.01282994 0.062260225 0.04362008 -0.07551216 -0.005280342 -0.059892718
0.020941306 0.05485938 0.115617685 -0.012768709 0.055498034 -0.013071984 0.06306466 -0.003931346
0.038603257 0.022129724 -0.048353285 0.02611238 -9.907976e-05 0.04932032 -0.072004415 -0.057983752
0.029060982 0.026835244 -0.039547857 -0.059044056 -0.01361373 -0.043673683 0.0035284082 -0.007268721
-0.026442109 0.06301729 0.099079944 -0.02567295 0.0497576 0.017907167 0.02357148 0.0021831046
0.030457025 -0.08943417 -0.028878763 0.00057703594 0.06081193 0.2684215 0.039076976 -0.033546448
00000000: f90a c3bd 5399 fbbb f2bd 033d a7bb a13c
00000010: cc60 683d 34f8 383d e8a7 a8bc 332b 153b
00000020: 4b85 a83d ff11 4dbc 5c5e 8f3e 72ed 323d
00000030: 88e2 4c3c b9d1 53bc 209f 353b 3fae f9bc
00000040: 2d89 a33c b25b adbc ab34 523c 9404 7f3d
00000050: f8aa 323d 1fa6 9abd b806 adbb 1152 75bd
00000060: 1a8d ab3c 3bb4 603d f7c8 ec3d d933 51bc
00000070: e851 633d e02b 56bc 0b28 813d 85d2 80bb
00000080: 731e 1e3d 6549 b53c 180e 46bd a1e9 d53c
00000090: 0bc9 cfb8 1b04 4a3d 0d77 93bd 5f80 6dbd
000000a0: 4c11 ee3c 96d5 db3c effc 21bd 2ed8 71bd
000000b0: 1f0c 5fbc 2de3 32bd de3c 673b 732e eebb
000000c0: 1f9d d8bc 350f 813d 6dea ca3d 1450 d2bc
000000d0: a0ce 4b3d 0db2 923c fa18 c13c 6b12 0f3b
000000e0: 0381 f93c 4329 b7bd 2893 ecbc 3a44 173a
000000f0: ee15 793d 8b6e 893e 2e0f 203d 0068 09bd

weight_ih_l1 f4 [64, 128]
-0.06462399 -0.025815252 -0.006820985 0.011242968 -0.0020939282 0.022951555 -0.011908173 0.02112065
0.038791962 -0.049520064 -0.06387043 0.029731214 0.015328738 -0.038224265 -0.0032065397 -0.012523604
-0.061453316 -0.046443187 -0.036684286 0.03801039 -0.08573086 0.056560624 0.0281422 -0.03587232
-0.014606971 -0.06758476 0.0055502383 -0.030245537 -0.009186161 -0.0029658608 0.0022336745 0.023221742
0.006808754 0.13112955 -0.03349013 0.026613778 -0.06673014 -0.0008758515 0.01888943 -0.07286802
-0.011954865 -0.0664274 -0.062308274 0.038914558 -0.057513673 0.00036172295 -0.003159625 0.000396675
-0.007544312 -0.022789156 -0.020682026 -0.0154288765 -0.052878212 -0.0166984 -0.044251416 -0.04390972
-0.022045925 -0.028727626 -0.04472654 0.045477793 -0.02327509 -0.05578615 0.017653903 0.052562803
0.055507775 0.027447758 -0.02545634 0.08143654 0.12788817 -0.023885326 0.03795347 0.041148152
-0.0800292 -0.048073187 -0.028296603 -0.047354486 0.033257753 -0.07382337 0.013187763 -0.07734525
0.075373285 0.009022103 0.0036939217 0.011250374 -0.04007279 -0.11975996 0.15141307 -0.017795749
0.048130065 0.0207941 0.0042358804 0.094790764 -0.1071826 -0.031771693 0.060812447 -0.085989185
0.11673732 0.0076170224 -0.012349946 0.0155345835 0.05055414 -0.049377482 -0.07098609 -0.04362817
0.017015083 0.08719288 0.12591317 -0.08096975 -0.031170104 -0.054431457 -0.067710996 -0.019394787
-0.067565195 0.0271954 -0.09269887 -0.024427196 0.07257628 0.07100988 -0.012818028 0.005672646
0.048978604 -0.026739085 0.042726282 0.04591113 0.05621735 -0.044172615 -0.05011108 -0.025292568
0.0026509657 -0.03039262 -0.0736773 -0.05541385 -0.065777704 -0.019433307 -0.016255151 0.039510567
-0.08345314 0.06860168 0.036007572 0.02983629 0.027153293 0.06566018 0.021522824 -0.015647197
-0.040393952 0.02676471 0.047837123 0.036590744 0.0004989585 0.07753295 -0.0020637168 0.059221316
0.0030570838 0.04222054 0.024051337 0.019706678 0.062221736 -0.058169432 0.0047406973 0.06265799
0.02382719 -0.0029669683 -0.02142201 0.031865843 0.080112524 -0.010475731 0.029582264 0.027071126
0.04040212 0.033074234 0.017364167 0.040687934 0.022819912 -0.038862895 0.02379015 -0.0035507556
0.053137887 0.06701278 -0.06252266 0.02645771 0.021376304 -0.053691305 0.046580248 -0.04448505
0.040541824 0.012122343 0.029476155 -0.0046743453 -0.047158733 -0.034892336 -0.02664883 -0.0077681514
0.0118904365 0.11747098 -0.0027594818 0.005305582 -0.121099345 -0.0595219 -0.054346543 0.04811728
0.016635073 0.043625854 0.006591557 -0.010749805 -0.05027908 -0.03343271 0.05446362 -0.071897
0.056025818 0.021295907 0.017947756 0.028762864 0.055077326 -0.013125388 0.021692334 0.038347308
0.09013016 0.08189065 0.022052987 -0.047384575 0.084117465 -0.020306697 -0.056865178 -0.013988227
-0.040038783 -0.0025681097 0.07552936 -0.02188058 -0.037338335 0.029849738 0.098291196 -0.017220495
-0.04759366 -0.022599459 -0.060506742 0.042264003 -0.0033145915 0.039421268 -0.01503329 0.019623809
0.04091547 -0.08056807 0.10056044 -0.004311748 0.001958667 -0.03143652 0.0860394 -0.06249041
-0.06304456 -7.64376e-06 0.04016951 -0.10829928 0.002912874 0.042163573 0.049050838 0.072646365
00000000: 9559 84bd 827a d3bc 9282 dfbb 6d34 383c
00000010: 493a 09bb e604 bc3c 7f1a 43bc 3705 ad3c
00000020: 52e4 1e3d 8dd5 4abd 80ce 82bd e08e f33c
00000030: 6325 7b3c 0c91 1cbd cf24 52bb cd2f 4dbc
00000040: 79b6 7bbd 363b 3ebd 4342 16bd c8b0 1b3d
00000050: a993 afbd 1dac 673d 798a e63c dbee 12bd
00000060: 1452 6fbc e169 8abd c6de b53b 7dc5 f7bc
00000070: 8d81 16bc e35e 42bb d762 123b 863b be3c
00000080: f81b df3b d346 063e f22c 09bd 2305 da3c
00000090: d0a9 88bd 6699 65ba 02be 9a3c d43b 95bd
000000a0: 57de 43bc 170b 88bd f636 7fbd df64 1f3d
000000b0: 7593 6bbd a2a5 bd39 b611 4fbb d1f8 cf39
000000c0: 4736 f7bb 53b0 babc 5a6d a9bc 66c9 7cbc
000000d0: d396 58bd 15cb 88bc f940 35bd aeda 33bd
000000e0: a899 b4bc 3356 ebbc 2d33 37bd ec46 3a3d
000000f0: 67ab bebc 0580 64bd eb9e 903c 184c 573d
00000100: 1f5c 633d 1fda e03c d089 d0bc 33c8 a63d
00000110: 1ef5 023e 29ab c3bc 1975 1b3d f78a 283d
00000120: 59e6 a3bd 64e8 44bd 47ce e7bc c7f6 41bd
00000130: 4839 083d b530 97bd 7d11 583c 3067 9ebd
00000140: 4f5d 9a3d 71d1 133c b915 723b 7d53 383c
00000150: 5e23 24bd b644 f5bd 070c 1b3e 64c8 91bc
00000160: 0824 453d 6358 aa3c 24cd 8a3b a921 c23d
00000170: 8d82 dbbd 0923 02bd 7916 793d 191b b0bd
00000180: fa13 ef3d 3798 f93b 6e57 4abc c484 7e3c
00000190: dc11 4f3d 0b40 4abd 2861 91bd 74b3 32bd
000001a0: 3763 8b3c 2e92 b23d 62ef 003e 78d3 a5bd
000001b0: 7258 ffbc 85f3 5ebd 10ac 8abd d1e1 9ebc
000001c0: 9f5f 8abd e3c8 de3c e8d8 bdbd 8b1b c8bc
000001d0: dfa2 943d a16d 913d b502 52bc 9be1 b93b
000001e0: ca9d 483d ed0b dbbc c101 2f3d 4f0d 3c3d
000001f0: 2a44 663d 58ee 34bd 4741 4dbd 5c32 cfbc
00000200: d3bb 2d3b f2f9 f8bc 20e4 96bd a2f9 62bd
00000210: 76b6 86bd 9932 9fbc 8629 85bc d5d5 213d
00000220: 7be9 aabd 0a7f 8c3d ad7c 133d 3c6b f43c
00000230: 9570 de3c d878 863d a250 b03c 8d2e 80bc
00000240: 2174 25bd aa41 db3c dcf0 433d 2de0 153d
00000250: 8acc 023a 98c9 9e3d 6c3f 07bb 0d92 723d
00000260: 5b59 483b 72ef 2c3d 4f07 c53c e66f a13c
00000270: 38dc 7e3d 1243 6ebd da57 9b3b d552 803d
00000280: 3d31 c33c 7871 42bb 367d afbc c285 023d
00000290: 0912 a43d 67a2 2bbc 8156 f23c 44c4 dd3c
000002a0: b27c 253d d978 073d 4c3f 8e3c 64a8 263d
000002b0: d3f0 ba3c b32e 1fbd 90e3 c23c cbb3 68bb
000002c0: 1da7 593d ff3d 893d e10b 80bd d7bd d83c
000002d0: 5c1d af3c 6aeb 5bbd eeca 3e3d f535 36bd
000002e0: 2f0f 263d cb9c 463c fa77 f13c 402b 99bb
000002f0: 8429 41bd 44eb 0ebd a64e dabc fa8b febb
00000300: 1bd0 423c a094 f03d 6cd8 34bb 73da ad3b
00000310: ef02 f8bd 3ccd 73bd 7b9a 5ebd a016 453d
00000320: 4746 883c 06b1 323d fdfd d73b f31f 30bc
00000330: 70f1 4dbd bdf0 08bd 3f15 5f3d bc3e 93bd
00000340: 547b 653d c174 ae3c 2c07 933c 19a0 eb3c
00000350: c398 613d de0b 57bc 1fb4 b13c 1112 1d3d
00000360: 2996 b83d 49b6 a73d 77a8 b43c 5416 42bd
00000370: c745 ac3d 3b5a a6bc 76eb 68bd e02e 65bc
00000380: b5ff 23bd bb4d 28bb 23af 9a3d e73e b3bc
00000390: 15f0 18bd 7087 f43c e54c c93d ff11 8dbc
000003a0: 92f1 42bd 8022 b9bc ebd5 77bd 051d 2d3d
000003b0: 9e39 59bb 3278 213d 304e 76bc 1cc2 a03c
000003c0: fb96 273d df00 a5bd a2f2 cd3d 9049 8dbb
000003d0: fb5c 003b 95c3 00bd 6d35 b03d f2f5 7fbd
000003e0: 821d 81bd b33d 00b7 c988 243d 03cc ddbd
000003f0: ebe5 3e3b b6b3 2c3d 88e9 483d 9ec7 943d

weight_hh_l1 f4 [64, 64]
-0.62202525 -0.028573046 -0.027683334 0.022612257 0.047419876 0.042252384 -0.014647654 -0.00054950814
-0.03135629 -0.019058155 0.0049277134 0.053647015 0.010410924 -0.126964 -0.0049331347 0.046214998
0.042574737 -0.058966342 0.032738958 -0.040097866 -0.0294076 0.034419794 0.016461596 -0.052941687
0.07125468 -0.026863977 -0.04811681 0.028205741 0.0027408358 0.023357844 0.03215685 -0.050064616
0.10872314 0.016089177 0.053341374 0.08326755 -0.006737943 -0.0039880867 -0.050292823 0.09005725
0.0019308716 -0.029417222 -0.11025578 0.049623944 0.07769808 0.008969284 -0.056001425 0.013756973
0.045306556 0.08065909 0.013361578 0.0953348 0.022916388 0.03731441 0.016836856 -0.0038788123
-0.020668384 -0.043647666 -0.057933398 -0.0103341155 -0.03378016 -0.020084618 0.054688837 0.0040067798
0.046320356 -0.50717646 0.032333132 0.03799392 0.039571464 -0.029186806 -0.13331237 -0.0069027073
-0.09462946 -0.014062694 0.12821281 0.02471722 0.009110275 -0.01645936 -0.0024095438 0.023978278
-0.03465969 0.0011258554 0.048852857 0.09602663 -0.042203028 -0.00082685583 -0.05931068 0.05910287
-0.13115765 0.046215024 0.057253595 -0.027163923 -0.12817715 0.038365524 0.00046358927 0.11857207
-0.07556275 0.049396854 0.04703791 0.014221613 0.005711508 -0.011183399 -0.018253366 -0.07279652
-0.0020466275 0.05505056 0.05218766 0.030973604 0.016069504 0.0819569 0.060662203 0.0034830268
-0.015338039 -0.02829924 0.011653409 0.05394187 -0.0004087709 0.011401315 0.0235534 0.13861433
0.10457629 0.119145915 0.10607769 0.15924142 -0.02650856 -0.03709645 -0.027585942 0.0053031673
0.06055875 -0.08364958 -0.5961732 0.03150685 0.042329095 0.010699257 -0.062167484 -0.0016030363
-0.06382567 -0.048110582 -0.028360168 -0.026166731 0.08516532 0.012574613 0.03893743 0.0057155555
0.003299449 -0.095680945 -0.10436289 -0.058678668 -0.07318656 0.08790343 0.051662426 -0.008125946
0.10255082 -0.015222513 -0.026254017 -0.00045995368 0.07748445 0.043882716 0.021621345 -0.03213489
0.06272276 -0.03758568 0.107126355 -0.01796507 0.0373883 -0.027768368 0.01578705 0.1497076
0.04021217 -0.03512409 0.06092842 -0.0029855978 -0.011039478 -0.029417027 0.1538522 -0.027153982
0.015190772 0.06988895 -0.0051117386 -0.019945038 -0.010586505 0.06619959 0.052827753 0.038296375
0.072367 -0.04701867 -0.03279287 -0.024298428 0.09196553 -0.04282061 0.048661605 -0.013240391
0.067256026 -0.010373152 0.022262406 -0.59001637 -0.042233724 0.08585202 -0.02416234 -0.02505851
0.016267901 0.02020214 -0.0035981312 0.034559812 0.028774364 0.072632 0.034897342 -0.0061856275
0.015346802 -0.06454129 0.114879325 0.072451204 -0.078814305 0.07863612 0.054725695 -0.038925603
-0.005034415 -0.041266613 -0.038811196 0.077671625 -0.083955325 -0.0050422573 0.1033165 -0.12732773
-0.047903836 -0.011300616 -0.010715242 -0.022612868 -0.09301552 0.0034672339 -0.00665748 -0.009812971
-0.03773726 0.022016805 -0.033975963 0.01972259 -0.02642275 0.06709001 -0.0047178827 -0.07055536
0.021938749 0.00071046886 0.06331511 0.028520748 -0.05451391 -0.0038733436 -0.040294487 0.02837887
-0.050029546 -0.01992933 0.06637221 -0.020330055 0.032805443 -0.01671602 0.016203385 0.0044009318
00000000: 0c3d 1fbf 0512 eabc 29c8 e2bc 573d b93c
00000010: 583b 423d d610 2d3d b7fc 6fbc de0c 10ba
00000020: 746f 00bd d91f 9cbc a878 a13b f9bc 5b3d
00000030: 9592 2a3c da02 02be 22a6 a1bb f04b 3d3d
00000040: d962 2e3d b186 71bd 4919 063d a93d 24bd
00000050: 35e8 f0bc c5fb 0c3d 78da 863c 62d9 58bd
00000060: f9ed 913d d811 dcbc 2216 45bd ba0f e73c
00000070: 989f 333b f358 bf3c e7b6 033d 8e10 4dbd
00000080: 3daa de3d 73cd 833c 7c7c 5a3d 2d88 aa3d
00000090: f6c9 dcbb 7fae 82bb d9ff 4dbd ef6f b83d
000000a0: 4d15 fd3a 63fc f0bc c8cd e1bd 7a42 4b3d
000000b0: 2c20 9f3d e7f3 123c c061 65bd ed64 613c
000000c0: 5e93 393d 9830 a53d 85ea 5a3c e43e c33d
000000d0: 26bb bb3c ffd6 183d 72ed 893c ac33 7ebb
000000e0: be50 a9bc e5c7 32bd 924b 6dbd 6c50 29bc
000000f0: 115d 0abd 7f88 a4bc 6701 603d 4e4b 833b
00000100: 6aba 3d3d 51d6 01bf bf6f 043d 839f 1b3d
00000110: b015 223d 2b19 efbc 0a83 08be 1b30 e2bb
00000120: 17cd c1bd 3767 66bc 384a 033e c47b ca3c
00000130: 4343 153c c8d5 86bc 70e9 1dbb 186e c43c
00000140: 52f7 0dbd 7091 933a ef19 483d 9ca9 c43d
00000150: 15dd 2cbd 5bc1 58ba c1ef 72bd da15 723d
00000160: 314e 06be f74b 3d3d bf82 6a3d e086 debc
00000170: df40 03be 2b25 1d3d e60d f339 ead5 f23d
00000180: a5c0 9abd 5b54 4a3d d3aa 403d c501 693c
00000190: 9a27 bb3b 933a 37bc 1588 95bc 5816 95bd
000001a0: b620 06bb b27c 613d bac2 553d 5bbc fd3c
000001b0: 31a4 833c 05d9 a73d ee78 783d 7e43 643b
000001c0: 664c 7bbc cfd3 e7bc f1ed 3e3c 26f2 5c3d
000001d0: 4d50 d6b9 95cc 3a3c 0ff3 c03c eaf0 0d3e
000001e0: 182c d63d c602 f43d 433f d93d 2f10 233e
000001f0: 7b28 d9bc 72f2 17bd eafb e1bc 31c6 ad3b
00000200: 740c 783d 7950 abbd cf9e 18bf 540d 013d
00000210: 4661 2d3d f04b 2f3c 55a3 7ebd f91c d2ba
00000220: 08b7 82bd 9a0f 45bd 9553 e8bc 9d5b d6bc
00000230: 286b ae3d c005 4e3c db7c 1f3d 8e49 bb3b
00000240: 923b 583b 5ff4 c3bd 36bc d5bd 0b59 70bd
00000250: d6e2 95bd b706 b43d fb9b 533d b022 05bc
00000260: 2a06 d23d d967 79bc aa12 d7bc f025 f1b9
00000270: 2bb0 9e3d 5dbe 333d 3f1f b13c e09f 03bd
00000280: ca74 803d 71f3 19bd 1065 db3d 7c2b 93bc
00000290: 7924 193d 7d7a e3bc d853 813c f34c 193e
000002a0: 84b5 243d 47de 0fbd 1490 793d 05aa 43bb
000002b0: edde 34bc fafb f0bc 6e8b 1d3e 0772 debc
000002c0: b7e2 783c f021 8f3d 5f80 a7bb c763 a3bc
000002d0: 0573 2dbc a793 873d ea61 583d a9dc 1c3d
000002e0: 2635 943d a696 40bd d151 06bd 7f0d c7bc
000002f0: 6c58 bc3d aa64 2fbd 6451 473d 3aee 58bc
00000300: 87bd 893d 27f4 29bc a65f b63c 500b 17bf
00000310: 45fd 2cbd 2fd3 af3d 1af0 c5bc 8147 cdbc
00000320: 4344 853c f57e a53c a0ce 6bbb 978e 0d3d
00000330: 37b8 eb3c 16c0 943d 84f0 0e3d ceb0 cabb
00000340: 2771 7b3c 392e 84bd da45 eb3d 4c61 943d
00000350: 6569 a1bd f90b a13d 0d28 603d 7470 1fbd
00000360: bcf7 a4bb 2e07 29bd 7df8 1ebd 4d12 9f3d
00000370: c5f0 abbd 8539 a5bb 9a97 d33d 3362 02be
00000380: d036 44bd 3826 39bc fb8e 2fbc 9f3e b9bc
00000390: ec7e bebd 883a 633b fd26 dabb 95c6 20bc
000003a0: 6392 1abd 965c b43c 612a 0bbd 4591 a13c
000003b0: 8674 d8bc 7d66 893d 7898 9abb 547f 90bd
000003c0: e4b8 b33c c23e 3a3a 5aab 813d 58a4 e93c
000003d0: fa49 5fbd ecd7 7dbb d50b 25bd ce7a e83c
000003e0: c8eb 4cbd d642 a3bc 27ee 873d 378b a6bc
000003f0: 005f 063d 09f0 88bc f6bc 843c b135 903b

bias_ih_l1 f4 [64]
-0.005731557 -0.07501009 -0.057467245 -0.05854153 0.07238045 0.012370066 0.09682238 -0.020283068
-0.026728962 0.012430527 0.014379655 -0.07117001 -0.004843042 0.042176165 -0.06816591 0.055224672
-0.023915725 -0.086256064 -0.038963668 -0.058925986 -0.08726876 -0.017264515 0.033706024 -0.0077662356
-0.037631676 -0.023782086 0.054923736 -0.033396643 0.02381074 -0.04773333 -0.03984627 0.050353866
-0.028495515 0.025539815 -0.0010653033 -0.015317957 0.04657773 0.033003025 -0.029324375 -0.0497728
-0.009477189 0.08707731 0.045426577 -0.021203738 -0.056822274 0.042925414 0.026763575 0.032723565
0.025549732 -0.0067665423 0.033726946 -0.05955144 0.054121263 -0.07303405 0.018046916 0.095101155
-0.016585585 -0.067266144 -0.011407234 0.00010458419 -0.04296491 -0.026690528 -0.024542397 -0.049064357
00000000: c9cf bbbb e49e 99bd c662 6bbd 3ec9 6fbd
00000010: 343c 943d d1ab 4a3c d04a c63d ad28 a6bc
00000020: b2f6 dabc 69a9 4b3c a598 6b3c 95c1 91bd
00000030: 62b2 9ebb eac0 2c3d 929a 8bbd 4433 623d
00000040: e9ea c3bc 05a7 b0bd 5e98 1fbd 605c 71bd
00000050: f7b9 b2bd 506e 8dbc 540f 0a3d e87b febb
00000060: ac23 1abd a6d2 c2bc b6f7 603d ebca 08bd
00000070: be0e c33c 0684 43bd d835 23bd db3f 4e3d
00000080: 6d6f e9bc e038 d13c a6a1 8bba 2bf8 7abc
00000090: 4ac8 3e3d 2e2e 073d ac39 f0bc 90de 4bbd
000000a0: 3646 1bbc 9755 b23d 3811 3a3d 76b3 adbc
000000b0: 79be 68bd 8fd2 2f3d 493f db3c 2509 063d
000000c0: ac4d d13c dfb9 ddbb 4425 0a3d 36ec 73bd
000000d0: 42ae 5d3d e092 95bd 20d7 933c 65c4 c23d
000000e0: 7ede 87bc d5c2 89bd 68e5 3abc 3654 db38
000000f0: f9fb 2fbd 18a6 dabc 230d c9bc b5f7 48bd

bias_hh_l1 f4 [64]
-0.007237844 0.08566001 0.065372124 0.0711402 -0.07676971 -0.0138135925 -0.12136374 0.016314628
0.0017091121 -0.043507975 -0.009690969 0.07598176 0.017100392 -0.04697256 0.07752578 -0.043781478
0.008997763 0.10467488 0.04297447 0.059538327 0.078515515 -0.026128527 -0.011925096 0.023214672
0.03429528 -0.004266165 -0.04375654 0.022023967 -0.0048684287 0.030472733 0.023283798 -0.038204424
0.03139856 -0.019996021 -0.0035382472 0.009468962 -0.0216175 -0.09410417 0.019837076 0.040619906
0.041448005 -0.04326203 -0.029169127 0.013297597 0.02214837 -0.043779258 -0.022441553 0.01233394
-0.023774168 0.046966 -0.07895168 -0.02096114 -0.08110693 0.10342664 -0.039803993 -0.10373963
0.020428361 0.025134882 0.016740266 0.01851441 0.051855084 0.05329825 0.018916205 0.033015948
00000000: 702b edbb 846e af3d d2e1 853d f4b1 913d
00000010: 7039 9dbd 6852 62bc 8d8d f8bd 41a6 853c
00000020: 4904 e03a 6b35 32bd dfc6 1ebc 539c 9b3d
00000030: 1f16 8c3c 4d66 40bd d6c5 9e3d 3554 33bd
00000040: 5a6b 133c c95f d63d ff05 303d 76de 733d
00000050: becc a03d 7e0b d6bc 7a61 43bc b22c be3c
00000060: 3579 0c3d 30cb 8bbb 0f3a 33bd 9b6b b43c
00000070: 5787 9fbb f4a1 f93c aabd be3c 3e7c 1cbd
00000080: c79b 003d b2ce a3bc f0e1 67bb b523 1b3c
00000090: 2f17 b1bc b0b9 c0bd 5d81 a23c 0f61 263d
000000a0: 62c5 293d 8733 31bd 18f4 eebc 2ade 593c
000000b0: 8070 b53c e151 33bd 59d7 b7bc 4b14 4a3c
000000c0: 0bc2 c2bc 6c5f 403d 6bb1 a1bd b2b6 abbc
000000d0: 641b a6bd 59d1 d33d 8309 23bd 7175 d4bd
000000e0: 6159 a73c abe7 cd3c e222 893c 88ab 973c
000000f0: ff65 543d 444f 5a3d 28f6 9a3c bb3b 073d

weight_ih_l1_reverse f4 [64, 128]
0.013434342 0.058993224 0.011498217 0.029924208 -0.05320027 0.054915797 0.023990639 -0.06857124
0.025704138 0.030408919 -0.02102428 -0.037253782 0.041981164 0.0031215288 -0.010342872 -0.013772672
0.061199673 -0.050665665 0.08273123 0.018865839 -0.017745594 0.03251441 -0.021278787 -0.021106502
0.07726005 0.029234849 -0.02592588 -0.03142698 0.014450428 -0.0024929713 0.046322953 0.0649707
0.030328186 -0.023979353 0.07758632 -0.058636602 -0.07349116 0.027919106 -0.039026886 -0.09173106
0.026497955 -0.078882195 0.031772908 0.055166136 -0.02819677 -0.033320528 0.05035763 0.026123252
0.0724509 -0.0056778393 -0.042627063 0.06936608 -0.026505442 0.0025675097 0.05721718 -0.0464024
0.0006619952 -0.030654099 0.038796313 -0.0316767 0.055941492 0.019523058 0.013709501 -0.0037201494
-0.028870769 -0.0076270215 0.026554547 0.040805906 0.043066885 -0.032937974 -0.022571417 -0.0073759803
0.0063116015 0.013995605 -0.050895713 -0.010634961 0.0024410067 -0.03319556 0.0035111983 0.036464434
0.002400225 -0.0050200718 -0.018261177 0.017144846 -0.007654449 -0.031747255 0.03265481 -0.03535128
0.028523553 -0.029026955 -0.0054906765 0.0383081 -0.017340472 0.0070989714 0.018780082 -0.005543254
0.0028505276 -0.0031784682 -0.0040095104 0.0050709993 -0.0061730393 -0.00701425 -0.044587035 0.01750235
0.002295955 0.043669637 0.00430083 0.023938017 0.026708154 0.0366878 -0.0014481574 -0.04330432
-0.026709944 0.032360796 -0.01809893 -0.008448982 0.0022812155 -0.023387697 -0.011603541 0.00031195272
0.05404392 0.029672416 0.021169525 0.021628141 0.01176943 0.048759863 -0.0040614856 -0.039759103
0.0073846923 -0.0056229215 -0.031048896 0.047948092 -0.035084166 0.045290668 0.036140375 0.0020924467
0.019444989 0.059738796 0.006053428 -0.03850087 0.064787306 0.045761343 -0.01886478 0.0075501553
0.022286715 -0.021089314 -0.014172507 0.040305734 -0.091682866 0.03657208 -0.03563626 -0.020990325
0.01164608 0.030889394 -0.060534894 0.033159688 -0.033859782 -0.023736369 0.0060868906 -0.0009527659
0.048472628 -0.06523793 -0.0032253861 -0.009412397 -0.07147673 0.027076993 -0.02141945 0.004850468
0.037081975 0.008542295 0.015658021 0.05048433 -0.034217186 -0.0589317 0.00014167487 0.02075065
-0.01369964 0.004893955 -0.019074265 0.0032350936 -0.023099251 0.019386329 0.033824164 -0.03056842
-0.097750716 -0.02015643 0.03677162 -0.06960241 0.00676588 0.0152873555 0.0122198295 0.0047060507
0.024108524 0.0016289124 -0.023277573 -0.042775992 -0.038237505 0.048162777 0.0020898716 0.009147252
0.03062936 -0.016553935 -0.039058823 0.0073887166 0.0579457 0.02467662 -0.020968165 0.019035071
0.0020003298 0.030910822 0.018834986 0.0017285316 0.020370223 0.029272279 -0.037450675 -0.004677025
0.0111454325 0.022622984 0.02378457 -0.0048000827 -0.0054232855 -0.004722641 -0.031160394 -0.0004781928
-0.014130559 -0.019467518 0.009834945 0.001260386 -0.00633544 0.011124545 0.039911877 -0.056836314
0.009413816 -0.0065077776 -0.026737483 0.01466356 -0.018506773 0.0050646276 0.058735605 0.0334897
0.042495187 -2.7833248e-05 0.021787861 -0.00082935725 -0.015266138 -0.0059326915 0.027905451 -0.024368022
-0.04555953 -0.054226574 0.014607435 -0.02800715 -0.02622333 0.031876776 -0.0018452964 0.04065381
00000000: b71b 5c3c e1a2 713d 0463 3c3c 9d23 f53c
00000010: 87e8 59bd 63ef 603d 0488 c43c 146f 8cbd
00000020: 7c91 d23c 201c f93c 1c3b acbc 6c97 18bd
00000030: 71f4 2b3d 9092 4c3b 2675 29bc c6a6 61bc
00000040: 82ac 7a3d cd86 4fbd fe6e a93d 888c 9a3c
00000050: 355f 91bc d42d 053d da50 aebc 8be7 acbc
00000060: 843a 9e3d ec7d ef3c 8362 d4bc 94b9 00bd
00000070: 7dc1 6c3c 1e61 23bb 23bd 3d3d 5c0f 853d
00000080: d172 f83c 5970 c4bc 94e5 9e3d ef2c 70bd
00000090: 8982 96bd 9cb6 e43c a8da 1fbd 7edd bbbd
000000a0: 3d12 d93c fd8c a1bd 4f24 023d e3f5 613d
000000b0: eafc e6bc 1b7b 08bd cd43 4e3d 6e00 d63c
000000c0: 2361 943d 2b0d babb b799 2ebd ce0f 8e3d
000000d0: f121 d9bc aa43 283b 905c 6a3d 7110 3ebd
000000e0: bf89 2d3a 4e1e fbbc e2e8 1e3d 6dbf 01bd
000000f0: e822 653d d2ee 9f3c d19d 603c c0cd 73bb
00000100: 6482 ecbc 18ec f9bb ec88 d93c 1824 273d
00000110: e766 303d f8e9 06bd b1e7 b8bc 35b2 f1bb
00000120: 8dd1 ce3b d24d 653c 0678 50bd 423e 2ebc
00000130: 4cf9 1f3b 11f8 07bd 221c 663b bb5b 153d
00000140: 184d 1d3b 6a7f a4bb 7798 95bc 5973 8c3c
00000150: 2cd2 fabb 6909 02bd 0dc1 053d 81cc 10bd
00000160: 3aaa e93c f0c9 edbc 22eb b3bb f4e8 1c3d
00000170: 9b0d 8ebc 7d9e e83b b0d8 993c 2fa4 b5bb
00000180: ebcf 3a3b d94d 50bb 3662 83bb a02a a63b
00000190: 3547 cabb cbd7 e5bb e5a0 36bd 1761 8f3c
000001a0: bc77 163b efde 323d faed 8c3b a919 c43c
000001b0: 0fcb da3c f245 163d 19d0 bdba df5f 31bd
000001c0: d0ce dabc c18c 043d 3544 94bc 996d 0abc
000001d0: 7280 153b 8e97 bfbc c71c 3ebc 968d a339
000001e0: 285d 5d3d 9113 f33c b66b ad3c 802d b13c
000001f0: 91d4 403c 6cb8 473d 3616 85bb 71da 22bd
00000200: 4afb f13b 7c40 b8bb 415a febc 3865 443d
00000210: 6ab4 0fbd b582 393d ee07 143d 6e21 093b
00000220: 194b 9f3c abb0 743d d65b c63b 17b3 1dbd
00000230: 35af 843d 3f70 3b3d 508a 9abc 4b67 f73b
00000240: a192 b63c 7fc3 acbc ce33 68bc a017 253d
00000250: 3ac4 bbbd 9bcc 153d 54f7 11bd e7f3 abbc
00000260: 33cf 3e3c c10b fd3c 70f3 77bd 74d2 073d
00000270: 8eb0 0abd c672 c2bc 8a74 c73b 0ac3 79ba
00000280: 3c8b 463d 779b 85bd 0061 53bb 7436 1abc
00000290: 6462 92bd 92d0 dd3c d877 afbc adf0 9e3b
000002a0: 45e3 173d fbf4 0b3c 4045 803c a8c8 4e3d
000002b0: 5227 0cbd 5e62 71bd 8f8e 1439 44fd a93c
000002c0: 7474 60bc 785d a03b a241 9cbc dd03 543b
000002d0: a43a bdbc 14d0 9e3c 358b 0a3d a06a fabc
000002e0: 8731 c8bd 191f a5bc d79d 163d b58b 8ebd
000002f0: 51b4 dd3b d177 7a3c ae35 483c 3735 9a3b
00000300: 3d7f c53c 3b81 d53a 9cb0 bebc e135 2fbd
00000310: ee9e 1cbd 5546 453d 3af6 083b 5bde 153c
00000320: 6cea fa3c 1e9c 87bc 25fc 1fbd 0c1d f23b
00000330: 7858 6d3d 9f26 ca3c 6ec5 abbc 70ef 9b3c
00000340: f717 033b b138 fd3c d44b 9a3c e58f e23a
00000350: 74df a63c 6bcc ef3c e165 19bd bb41 99bb
00000360: 559b 363c d653 b93c dcd7 c23c 034a 9dbb
00000370: d1b5 b1bb 62c0 9abb 1544 ffbc f3b5 fab9
00000380: dc83 67bc 587a 9fbc c022 213c 8933 a53a
00000390: 8699 cfbb b943 363c a37a 233d 32cd 68bd
000003a0: 683c 1a3c 323f d5bb 9108 dbbc 6e3f 703c
000003b0: 849b 97bc 2df5 a53b bf94 703d 7f2c 093d
000003c0: 6f0f 2e3d 727b e9b7 757c b23c 3969 59ba
000003d0: d31e 7abc 0667 c2bb f999 e43c 729f c7bc
000003e0: a19c 3abd af1c 5ebd 0654 6f3c 406f e5bc
000003f0: 4fd2 d6bc 3991 023d dfdd f1ba 9c84 263d
