forecast_rnn.pt (torch, 146172 bytes, 19 tensors)

weight f4 [1, 30, 1]
0.09419322 0.124298066 -0.0017863899 0.06692237 -0.10677276 -0.15177582 -0.17453872 0.117520675
0.11015018 -0.060851887 0.16453241 0.029020444 -0.07394881 0.09022881 0.08648542 -0.06310643
-0.030953592 -0.023569733 0.08390432 0.0853356 -0.096789144 -0.15635955 -0.15935719 0.16010794
-0.07448134 -0.04985344 -0.07944583 -0.001468214 -0.1341608 -0.12839697
00000000: 60e8 c03d fc8f fe3d 4c25 eaba 980e 893d
00000010: adab dabd 1f6b 1bbe 47ba 32be aeae f03d
00000020: 6b96 e13d d43f 79bd 2f7b 283e 48bc ed3c
00000030: 7972 97bd e2c9 b83d 451f b13d f23d 81bd
00000040: 6392 fdbc 5015 c1bc 07d6 ab3d 6ec4 ae3d
00000050: 6339 c6bd b81c 20be 882e 23be 56f3 233e
00000060: ac89 98bd 1f33 4cbd 7fb4 a2bd 1671 c0ba
00000070: 7361 09be 7f7a 03be

weight_ih_l0 f4 [64, 1]
-0.07004662 -0.08287822 -0.11086616 0.07311329 -0.050879642 0.124378204 0.07937388 -0.06936063
-0.09935817 -0.04507622 -0.09472449 -0.02932161 0.06837465 -0.11413334 0.11806737 -0.044991568
-0.008416444 0.01861991 -0.03373596 -0.031126425 0.075479716 -0.016250774 0.042787462 0.10372694
0.08694607 0.021978393 0.08808488 0.06734425 0.0029191673 -0.010880485 -0.046175152 -0.032630965
0.01592131 0.01991412 0.088975966 -0.10026385 0.09370582 -0.012400612 -0.11735916 -0.11821976
0.041415498 -0.02441369 -0.017322093 -0.11166671 0.07336381 0.055413082 0.08639178 -0.040322587
-0.049158067 0.054728642 0.04815042 0.08512187 0.08949745 0.12477657 0.07273701 -0.027856082
0.05157563 -0.015181854 -0.08392218 0.07269119 -0.07999256 -0.030980691 -0.1139113 0.08298883
00000000: 9a74 8fbd 0ebc a9bd cc0d e3bd 6cbc 953d
00000010: 2c67 50bd 00ba fe3d c68e a23d f20c 8ebd
00000020: 4c7c cbbd d8a1 38bd eafe c1bd e033 f0bc
00000030: 0208 8c3d bebe e9bd 4ecd f13d 1449 38bd
00000040: 20e5 09bc c888 983c b82e 0abd d8fc febc
00000050: 1c95 9a3d 5820 85bc e841 2f3d ca6e d43d
00000060: c810 b23d 080c b43c d865 b43d c8eb 893d
00000070: 804f 3f3b 1044 32bc 2822 3dbd 0ca8 05bd
00000080: 686d 823c f022 a33c 0839 b63d 2257 cdbd
00000090: d6e8 bf3d f02b 4bbc 005a f0bd 341d f2bd
000000a0: 4ca3 293d 38ff c7bc 10e7 8dbc 84b1 e4bd
000000b0: c43f 963d d4f8 623d 2cee b03d 4c29 25bd
000000c0: f859 49bd 242b 603d 6039 453d 6054 ae3d
000000d0: 704a b73d dc8a ff3d 24f7 943d 7032 e4bc
000000e0: f840 533d 50bd 78bc 64df abbd 1edf 943d
000000f0: 24d3 a3bd 38cb fdbc 544a e9bd 0cf6 a93d

weight_hh_l0 f4 [64, 64]
-0.24989775 0.054949135 0.015768312 0.1465725 -0.08671868 0.010870392 0.125303 -0.08843372
-0.08534067 -0.021793619 0.11042548 -0.033480298 -0.15335934 0.040111415 -0.061090123 -0.15854993
-0.13903998 -0.011131035 0.021799298 -0.06050693 0.018686056 -0.020148858 0.08248051 0.0002115006
-0.11299859 0.0679905 0.06077505 -0.03661508 0.06494717 -0.010579954 0.17037381 -0.048264842
-0.011302767 -0.11691392 -0.019132016 -0.05339339 0.06795215 0.14758337 0.1113508 0.15972498
-0.08845508 -0.0036731788 0.15962635 -0.14964174 0.05876769 -0.046461422 0.038070776 -0.051483154
0.11573314 -0.08459124 -0.04388925 -0.095243834 -0.16239308 0.008877149 0.016004251 0.030890092
-0.010036582 0.09190595 0.026967317 0.04600397 -0.19964588 0.0111602545 0.15974802 -0.0847732
0.014176876 -0.27576345 0.024597602 -0.06441814 -0.006891666 -0.12007104 0.074033916 -0.077886015
0.06255413 0.039981958 -0.1773024 0.19446345 -0.048246924 0.09177526 0.12113781 0.046084292
0.01968074 0.06444433 -0.1353556 -0.05748064 -0.02952595 -0.1165388 -0.14366062 0.13599133
-0.056221914 0.026200285 -0.027684303 0.061128024 -0.085076034 -0.071059845 -0.0048977854 0.13094471
0.061856806 -0.14717612 0.11950809 0.033553235 -0.11341103 -0.13768813 0.017334372 0.11977587
0.025398392 0.0008244424 -0.11938971 -0.13164683 0.13195544 -0.032624256 -0.049147744 -0.2048218
0.05786437 0.06434804 0.0069314186 -0.05028082 0.0028036989 -0.07368728 -0.0043235025 0.20034125
0.13015279 -0.1793117 0.05317268 -0.09398403 -0.12593666 0.0063861897 -0.08837189 0.114584185
0.032574423 0.04498754 -0.5167881 0.02263869 -0.003455336 -0.050866794 -0.011145812 0.13313872
0.06200884 -0.100035965 -0.09924883 -0.12284911 0.061446328 -0.019793803 0.12757781 0.0028234806
0.09227397 0.042344086 -0.023550594 0.0032056272 0.080635265 0.035680644 0.03391625 0.037917238
-0.024190413 0.05429226 0.056296956 0.0035908716 0.010376262 0.107956156 -0.043161217 -0.00094598305
0.118206 -0.008978615 0.05921643 0.045217175 -0.07576777 0.051366474 -0.08047459 -0.0316032
-0.016629932 -0.01470661 -0.12317705 -0.14619339 -0.06404502 -0.16152827 0.20907967 0.1686118
0.042453006 -0.1365974 0.018049287 0.081493475 -0.05720973 -0.10404515 -0.062124487 -0.116163716
0.033170763 0.039109565 -0.06007809 -0.0034237104 0.04547727 0.07534579 0.008352614 0.029872732
-0.07013778 -0.083058946 0.015809318 -0.43408895 -0.01468933 -0.05492008 0.02458743 -0.04385327
-0.023039572 -0.06452408 -0.07077747 -0.08602932 0.033825412 0.017746974 -0.06859899 0.11482224
0.11718371 0.03940409 0.13519944 0.07598099 -0.08837924 -0.002978184 -0.0599967 -0.01256617
-0.013809564 0.021036314 -0.035213836 0.04985417 -0.030138258 0.05157354 0.0712487 0.037954807
-0.1590445 0.019310052 -0.05976731 -0.049280062 -0.14012146 0.019611478 0.1572806 -0.014772284
0.013507282 0.016108977 0.15285124 0.03916003 0.013544555 -0.0038073838 0.06958745 -0.04472116
0.14336817 -0.26933423 -0.10458711 -0.08193953 0.101379834 -0.21833897 -0.0034518633 -0.021186827
-0.03798688 0.15592875 0.000985286 0.05750139 -0.06983232 -0.049577866 0.002836887 0.053405978
00000000: 32e5 7fbe 5812 613d 8c2c 813c 1a17 163e
00000010: 9099 b1bd bb19 323c 6e4f 003e bd1c b5bd
00000020: 17c7 aebd 8888 b2bc c126 e23d a322 09bd
00000030: 3b0a 1dbe de4b 243d a339 7abd ea5a 22be
00000040: 7f60 0ebe f25e 36bc 7194 b23c 1dd6 77bd
00000050: 8013 993c 380f a5bc 8beb a83d 43c6 5d39
00000060: ce6b e7bd 9a3e 8b3d 42ef 783d b2f9 15bd
00000070: 0603 853d 8b57 2dbc 7976 2e3e 5bb1 45bd
00000080: 3e2f 39bc 9170 efbd bfba 9cbc 07b3 5abd
00000090: 7f2a 8b3d 1820 173e e30b e43d f28e 233e
000000a0: f027 b5bd b7b9 70bb 1775 233e af3b 19be
000000b0: 64b6 703d 554e 3ebd 1af0 1b3d 00e0 52bd
000000c0: 7f05 ed3d 2c3e adbd 37c5 33bd 330f c3bd
000000d0: 5f4a 26be 7671 113c 591b 833c 380d fd3c
000000e0: 7a70 24bc 3039 bc3d 90ea dc3c a96e 3c3d
000000f0: f86f 4cbe 80d9 363c fc94 233e 929d adbd
00000100: 2146 683c de30 8dbe e980 c93c a8ed 83bd
00000110: 7cd3 e1bb cee7 f5bd 189f 973d b482 9fbd
00000120: 611c 803d 1fc4 233d c38e 35be 6d21 473e
00000130: 919e 45bd abf4 bb3d 1a17 f83d e2c2 3c3d
00000140: 8139 a13c 64fb 833d a99a 0abe d270 6bbd
00000150: 68e0 f1bc e5ab eebd c51b 13be 5041 0b3e
00000160: f348 66bd fba1 d63c 31ca e2bc 6161 7a3d
00000170: 583c aebd d387 91bd 9a7d a0bb 5f16 063e
00000180: 905d 7d3d 56b5 16be a8c0 f43d 1e6f 093d
00000190: 0b44 e8bd 1efe 0cbe d000 8e3c 0d4d f53d
000001a0: 4a10 d03c 651f 583a 9882 f4bd 6dce 06be
000001b0: 541f 073e 03a1 05bd 254f 49bd cebc 51be
000001c0: 3103 6d3d e8c8 833d f420 e33b 43f3 4dbd
000001d0: 43be 373b 5be9 96bd 2bac 8dbb 4226 4d3e
000001e0: c646 053e 7c9d 37be 99cb 593d b37a c0bd
000001f0: 8af5 00be 3e43 d13b 52fc b4bd 1dab ea3d
00000200: c26c 053d db44 383d 3a4c 04bf c674 b93c
00000210: eb72 62bb b359 50bd ed9c 36bc 8455 083e
00000220: fbfc 7d3d a8df ccbd f842 cbbd 5098 fbbd
00000230: 25af 7b3d 9d26 a2bc c2a3 023e 250a 393b
00000240: 23fa bc3d fe70 2d3d 2ded c0bc 8015 523b
00000250: 1a24 a53d de25 123d c4eb 0a3d 1b4f 1b3d
00000260: f92a c6bc 9061 5e3d a397 663d d454 6b3b
00000270: 3201 2a3c 1e18 dd3d d1c9 30bd d9fb 77ba
00000280: fd15 f23d 0a1b 13bc ed8c 723d a535 393d
00000290: 222c 9bbd a765 523d ddcf a4bd 5b72 01bd
000002a0: 7f3b 88bc fef3 70bc 4044 fcbd b8b3 15be
000002b0: 092a 83bd ab67 25be fb18 563e 92a8 2c3e
000002c0: 34e3 2d3d 30e0 0bbe 19dc 933c 0de6 a63d
000002d0: c054 6abd a015 d5bd 3f76 7ebd 3ee7 edbd
000002e0: 11de 073d 5a31 203d 7114 76bd 5460 60bb
000002f0: 6046 3a3d e54e 9a3d 67d9 083c a9b7 f43c
00000300: 65a4 8fbd cf1a aabd 8b82 813c e840 debe
00000310: 84ab 70bc e1f3 60bd 946b c93c 7d9f 33bd
00000320: 7cbd bcbc 3325 84bd c7f3 90bd 2430 b0bd
00000330: 848c 0a3d 1a62 913c a17d 8cbd ec27 eb3d
00000340: 03fe ef3d 2f66 213d b971 0a3e ec9b 9b3d
00000350: 2d00 b5bd a32d 43bb 1abf 75bd 56e2 4dbc
00000360: 8241 62bc 5954 ac3c 623c 10bd e333 4c3d
00000370: 82e4 f6bc c73e 533d d7ea 913d 8076 1b3d
00000380: 90dc 22be 1d30 9e3c 91ce 74bd e4d9 49bd
00000390: 007c 0fbe 40a8 a03c 2a0e 213e 7307 72bc
000003a0: a64d 5d3c f9f6 833c 0985 1c3e 4566 203d
000003b0: fbe9 5d3c 4d85 79bb dd83 8e3d 892d 37bd
000003c0: 1bcf 123e 2de6 89be c431 d6bd eacf a7bd
000003d0: 3ba0 cf3d 4094 5fbe a838 62bb ff8f adbc
000003e0: 2198 1bbd c9ab 1f3e b624 813a 9486 6b3d
000003f0: 3f04 8fbd 2912 4bbd 11eb 393b 3ac0 5a3d

bias_ih_l0 f4 [64]
0.08281389 -0.09257873 0.11012925 0.043331835 -0.04380932 -0.046409592 0.0033663523 -0.009518035
-0.030981788 -0.07673527 -0.009796038 -0.0023126032 -0.0002166039 -0.05992321 -0.013815767 -0.0016023098
0.042357035 -0.069106326 -0.09958417 -0.077601984 0.020675533 0.06943142 -0.002669982 0.030577082
-0.066466324 -0.035751034 -0.081994005 0.0076749166 -0.04401653 0.02811987 -0.02893147 0.0854888
-0.026739229 -0.08405034 0.029602954 -0.061448563 0.005467487 0.056729186 -0.05936673 0.075110205
0.08063532 0.036496837 -0.068292275 -0.045996714 0.08165362 0.092934325 -0.09189819 -0.015568451
-0.07762766 -0.10678956 0.05153395 0.10729933 -0.08045726 0.10933953 -0.04145111 0.1040268
0.07321892 -0.07130082 0.025957886 -0.016386949 0.028428836 0.0056212437 0.036592007 0.036559142
00000000: 549a a93d eb99 bdbd 728b e13d b97c 313d
00000010: 6771 33bd fc17 3ebd 059e 5c3b 88f1 1bbc
00000020: 85cd fdbc 6227 9dbd 907f 20bc 0b8f 17bb
00000030: 2b20 63b9 0a72 75bd 875b 62bc 9804 d2ba
00000040: 927e 2d3d 9e87 8dbd c9f2 cbbd caed 9ebd
00000050: bc5f a93c 0f32 8e3d ddfa 2ebb ca7c fa3c
00000060: 7f1f 88bd ad6f 12bd 79ec a7bd de7d fb3b
00000070: ad4a 34bd a45b e63c b101 edbc c114 af3d
00000080: 3a0c dbbc 9622 acbd e581 f23c 7db1 7bbd
00000090: 9b28 b33b dd5c 683d 872a 73bd 61d3 993d
000000a0: 2124 a53d b57d 153d d2dc 8bbd 0d67 3cbd
000000b0: 033a a73d 5a54 be3d 1e35 bcbd d112 7fbc
000000c0: 40fb 9ebd 7cb4 dabd 4315 533d c0bf db3d
000000d0: c7c6 a4bd 67ed df3d a4c8 29bd 010c d53d
000000e0: cdf3 953d 2a06 92bd a2a5 d43c ec3d 86bc
000000f0: 97e3 e83c 6932 b83b 80e1 153d 0abf 153d

bias_hh_l0 f4 [64]
-0.07840181 0.09133724 -0.10733496 -0.030677548 0.04080392 0.05420228 -0.009179449 -0.0015537994
0.032591723 0.07886392 0.006702876 -0.00032711812 -0.010990555 0.06465253 0.013383983 -0.0053459164
-0.040020168 0.07236973 0.10297421 0.07578829 -0.014393117 -0.07835527 -0.00022458387 -0.026033387
0.06333761 0.04764369 0.07719681 -0.0006719692 0.042787965 -0.02591842 0.031047083 -0.07736478
0.026987592 0.075710244 -0.025743604 0.055354476 0.0034513946 -0.05608949 0.056797292 -0.075380616
-0.08599205 -0.042158168 0.06965788 0.0491924 -0.082136445 -0.09952082 0.100709714 0.009529574
0.092517026 0.10134534 -0.052902527 -0.121445514 0.07427844 -0.11743691 0.04393746 -0.09351165
-0.069860205 0.072279505 -0.0384885 0.0037785175 -0.027935088 -0.0019552843 -0.04264324 -0.038834028
00000000: 2191 a0bd 050f bb3d 6ed2 dbbd 7b4f fbbc
00000010: 0322 273d 3603 5e3d 6665 16bc dba8 cbba
00000020: e67e 053d 6883 a13d cda3 db3b 0d81 abb9
00000030: bb11 34bc 8c68 843d 7e48 5b3c cc2c afbb
00000040: 30ec 23bd 9536 943d 25e4 d23d e436 9b3d
00000050: 1cd1 6bbc ba78 a0bd 467e 6bb9 f843 d5bc
00000060: 26b7 813d 0826 433d 5c19 9e3d 1727 30ba
00000070: 6f42 2f3d de52 d4bc 7456 fe3c 6d71 9ebd
00000080: 1515 dd3c f90d 9b3d 40e4 d2bc 60bb 623d
00000090: cb30 623b 18be 65bd 47a4 683d 2761 9abd
000000a0: 9a1c b0bd 0bae 2cbd caa8 8e3d f87d 493d
000000b0: 2737 a8bd 92d1 cbbd e540 ce3d ee21 1c3c
000000c0: 9179 bd3d 258e cf3d 52b0 58bd 6db8 f8bd
000000d0: 4b1f 983d c382 f0bd c4f7 333d 0983 bfbd
000000e0: de12 8fbd 4707 943d 1ea6 1dbd 01a1 773b
000000f0: 20d8 e4bc 3a24 00bb aeaa 2ebd 6e10 1fbd

weight_ih_l0_reverse f4 [64, 1]
-0.005706966 -0.021461219 -0.092650816 -0.050685883 -0.03686042 0.029086858 -0.004030615 0.062274203
0.0017602593 -0.009662062 0.0022050291 -0.11760005 0.110572115 0.1117156 -0.06960347 0.061584145
-0.09818904 -0.101196095 0.07874344 -0.042314097 -0.06421812 -0.09491901 0.07052538 -0.05772224
0.1169132 0.053141177 0.076791555 -0.121402636 0.09763637 -0.1032372 0.12024687 0.06945154
-0.09513298 0.039994657 0.0069741756 -0.12315124 0.03630188 0.05970052 0.04361905 0.098987535
0.10786842 -0.037913576 0.07771325 -0.042891502 0.079986826 -0.09480843 -0.032750636 0.1040256
-0.09644917 -0.08346565 -0.02075532 -0.03706895 0.045968473 -0.04755892 -0.0905069 -0.0654223
-0.10156381 -0.07052186 0.09084301 0.10786341 0.03374289 -0.03321612 0.099728286 -0.011290267
00000000: 8001 bbbb 70cf afbc b6bf bdbd 009c 4fbd
00000010: f4fa 16bd 9047 ee3c 4013 84bb 3c13 7f3d
00000020: 80b8 e63a a04d 1ebc 4082 103b 4cd8 f0bd
00000030: a273 e23d 26cb e43d 448c 8ebd a83f 7c3d
00000040: 5617 c9bd e63f cfbd 3e44 a13d 8c51 2dbd
00000050: ca84 83bd e664 c2bd 9c6f 903d 286e 6cbd
00000060: 3070 ef3d 90aa 593d e444 9d3d f2a1 f8bd
00000070: 94f5 c73d 066e d3bd fe43 f63d 9c3c 8e3d
00000080: 14d5 c2bd 70d1 233d a087 e43b b836 fcbd
00000090: 48b1 143d 8888 743d e4a9 323d fab9 ca3d
000000a0: 1eea dc3d 444b 1bbd 2028 9f3d 00af 2fbd
000000b0: 22d0 a33d ec2a c2bd 8825 06bd 600b d53d
000000c0: 2487 c5bd 0af0 aabd 1007 aabc 9cd5 17bd
000000d0: 7049 3c3d 24cd 42bd ae5b b9bd 20fc 85bd
000000e0: b000 d0bd c46d 90bd e60b ba3d 7ee7 dc3d
000000f0: fc35 0a3d a00d 08bd 583e cc3d d0fa 38bc

weight_hh_l0_reverse f4 [64, 64]
0.097899735 0.1121249 0.103475876 -0.004153921 0.078873225 0.07148812 -0.13995421 0.117318794
-0.0143234935 -0.008673768 -0.02302607 0.087144904 0.118553236 0.009382219 0.079230145 -0.009072367
0.11593816 0.026758064 -0.05567681 -0.0058335173 -0.07786818 -0.07044739 0.18480422 0.020992916
0.108042605 0.08738485 0.0549694 0.082825735 -0.048373196 0.023483923 0.018644715 0.06491346
0.014302861 -0.06336634 -1.3745151e-05 -0.023293773 -0.007879979 0.042602506 0.013892609 -0.04199073
0.095203854 0.022670388 -0.0799529 -0.040413007 -0.0077453936 0.023098007 -0.008342433 0.13055533
0.12236717 -0.13600048 -0.04607247 -0.07044563 -0.08612118 0.13320947 -0.069858514 0.14053206
0.01486164 0.05460287 0.10181632 0.04420574 -0.028945107 -0.11871164 -0.021022016 -0.06618403
0.068647586 0.06826213 -0.00059274514 -0.0034664255 0.0939661 0.022066675 -0.010818941 0.015164822
-0.0049531925 0.118980356 -0.02500437 0.10155482 -0.10649686 0.04061265 0.006638431 0.15816256
-0.01718697 0.023995167 0.039296977 -0.08847177 -0.09890923 -0.04691564 -0.01838498 -0.011774541
0.08864948 -0.0057450323 -0.07030519 0.059609927 -0.061040945 -0.053271182 0.032447375 -0.02909901
0.05972992 -0.061085846 -0.027262716 -0.03513687 0.093818486 -0.04232813 0.09524001 -0.0070789335
-0.003101125 -0.06461427 0.031850237 0.00076953147 0.08014777 -0.01015267 0.07040213 0.08740735
0.066821896 -0.0579075 0.058066554 -0.011584966 0.042805634 0.0323362 -0.047562853 -0.0126498
0.02226532 -0.07133703 -0.10095678 -0.039825805 -0.06353741 -0.00824447 -0.13031252 0.009082239
-0.0025443458 0.15967157 0.0044965227 -0.10860035 0.13600206 -0.016016193 0.06495163 -0.058092196
0.073256955 -0.04104253 -0.055865057 0.008787445 0.034452017 0.059068058 -0.01651117 0.032424286
-0.041887093 0.02398164 -0.061139774 0.05125578 -0.09720759 -0.06840809 0.03869365 0.020654736
0.115764245 0.071183644 0.071968436 -0.1149728 -0.006280625 0.08916809 -0.0057811956 -0.026411025
0.12738346 -0.0607245 -0.035453297 -0.12447437 0.06945174 -0.05157106 -0.048522525 0.03642128
-0.17436185 0.051923536 0.11774569 -0.04065128 0.11134882 -0.103020504 0.024207981 0.08077955
0.015178743 0.029115759 -0.07219473 0.043868758 0.0068079936 -0.08199531 0.09175092 0.16568886
0.0370017 0.038804792 -0.049655143 0.036976255 -0.10897248 -0.072503984 0.07310572 -0.002932543
-0.08501452 0.042854644 0.10831119 -0.0029815445 0.016140597 0.029573211 -0.108548924 -0.0660323
0.018824754 0.07289635 0.06953419 0.07264058 -0.019118091 0.022025947 0.034879595 0.023781564
0.17775923 -0.007915349 -0.01585919 0.018624986 -0.054805517 0.0043398496 -0.04001668 0.10004248
0.010797186 -0.037382413 -0.06266989 0.14775513 -0.03918902 -0.001138542 -0.017416773 -0.07229919
0.0054355515 -0.04132047 0.0033466641 0.04327908 0.017113898 -0.110817865 -0.15840423 0.06267145
0.01022487 -0.028956654 -0.004471881 -0.069492914 -0.080809005 -0.062472343 -0.005512421 -0.10288087
-0.019888842 0.01635311 -0.026749711 0.13274759 0.07624265 0.098052345 -0.025624566 0.11059704
0.034803208 0.038484395 -0.06874709 -0.09142519 -0.107301205 0.08540032 0.055127624 -0.06456472
00000000: a87f c83d bda1 e53d 29eb d33d 9d1d 88bb
00000010: 4988 a13d 5d68 923d 2850 0fbe d644 f03d
00000020: 16ad 6abc 6b1c 0ebc 2ba1 bcbc 0779 b23d
00000030: 0acc f23d e1b7 193c 6a43 a23d 44a4 14bc
00000040: fc70 ed3d ba33 db3c 5e0d 64bd 1727 bfbb
00000050: 5a79 9fbd b946 90bd 513d 3d3e 56f9 ab3c
00000060: 7145 dd3d d4f6 b23d 9827 613d 8aa0 a93d
00000070: f922 46bd 5b61 c03c cdbc 983c 59f1 843d
00000080: 8c56 6a3c 36c6 81bd f99a 66b7 95d2 bebc
00000090: 071b 01bc f77f 2e3d d39d 633c 79fe 2bbd
000000a0: 3dfa c23d 40b7 b93c 59be a3bd 1c88 25bd
000000b0: 12cd fdbb 0838 bd3c b3ae 08bc 4cb0 053e
000000c0: a49b fa3d b643 0bbe 7cb6 3cbd cc45 90bd
000000d0: 4d60 b0bd 1068 083e fb11 8fbd a3e7 0f3e
000000e0: 3c7e 733c 42a7 5f3d 1385 d03d 1411 353d
000000f0: 4a1e edbc 171f f3bd 5d36 acbc 7e8b 87bd
00000100: 1b97 8c3d 04cd 8b3d 7462 1bba f82c 63bb
00000110: 4c71 c03d 2cc5 b43c ed41 31bc e075 783c
00000120: 644e a2bb f9ab f33d f7d5 ccbc f9fb cf3d
00000130: 071b dabd 7359 263d 3287 d93b 5ef5 213e
00000140: b0cb 8cbc 8391 c43c def5 203d b030 b5bd
00000150: ec90 cabd 9d2a 40bd 199c 96bc 01ea 40bc
00000160: dc8d b53d d340 bcbb 2bfc 8fbd 8a29 743d
00000170: 1206 7abd e232 5abd 8ae7 043d 0c61 eebc
00000180: 5ca7 743d 2735 7abd 0f56 dfbc aeeb 0fbd
00000190: e823 c03d 4360 2dbd 320d c33d 66f6 e7bb
000001a0: 3e3c 4bbb 7d54 84bd 6575 023d 62ba 493a
000001b0: 8424 a43d 6257 26bc fe2e 903d a002 b33d
000001c0: ebd9 883d 6a30 6dbd 32d7 6d3d dfce 3dbc
000001d0: f654 2f3d f772 043d 44d1 42bd 1b41 4fbc
000001e0: c365 b63c 2619 92bd 6ec2 cebd 6220 23bd
000001f0: e71f 82bd d013 07bc a570 05be accd 143c
00000200: 0abf 26bb f280 233e 9157 933b dc69 debd
00000210: 2044 0b3e 6434 83bc 5c05 853d 15f2 6dbd
00000220: be07 963d 361c 28bd c2d2 64bd 37f9 0f3c
00000230: 8f1d 0d3d 59f1 713d 6f42 87bc 54cf 043d
00000240: cd91 2bbd 2575 c43c b36d 7abd 95f1 513d
00000250: c614 c7bd 8a19 8cbd 3c7d 1e3d 1f34 a93c
00000260: ce15 ed3d bbc8 913d 3064 933d dc76 ebbd
00000270: b3cd cdbb c29d b63d 2f70 bdbb ef5b d8bc
00000280: cf70 023e 41ba 78bd 7a37 11bd 6bec febd
00000290: b73c 8e3d 2d3c 53bd 8ebf 46bd 7b2e 153d
000002a0: ea8b 32be c6ad 543d a724 f13d f581 26bd
000002b0: da0a e43d 6afc d2bd d14f c63c c06f a53d
000002c0: 43b0 783c 2c84 ee3c d5da 93bd baaf 333d
000002d0: 9715 df3b 28ed a7bd e8e7 bb3d 57aa 293e
000002e0: 188f 173d c6f1 1e3d 3163 4bbd 6a74 173d
000002f0: f72c dfbd f87c 94bd 74b8 953d e82f 40bb
00000300: 181c aebd 5a88 2f3d 42d2 dd3d 0466 43bb
00000310: 4939 843c 8543 f23c e64e debd f13b 87bd
00000320: 5f36 9a3c ae4a 953d f167 8e3d 96c4 943d
00000330: 8b9d 9cbc c26f b43c e8dd 0e3d 8ed1 c23c
00000340: 8406 363e 61af 01bc 22eb 81bc 6d93 983c
00000350: c07b 60bd 4c35 8e3b 88e8 23bd 12e3 cc3d
00000360: aee6 303c 4d1e 19bd 1259 80bd 1f4d 173e
00000370: aa84 20bd 213b 95ba 9fad 8ebc 9911 94bd
00000380: b61c b23b a73f 29bd b553 5b3b 6845 313d
00000390: 7232 8c3c 7af4 e2bd b834 22be e459 803d
000003a0: 3786 273c 8136 edbc db88 92bb 4d52 8ebd
000003b0: 317f a5bd 00e3 7fbd 8aa1 b4bb 35b3 d2bd
000003c0: eded a2bc f5f6 853c 3622 dbbc fcee 073e
000003d0: 1b25 9c3d abcf c83d 9cea d1bc b380 e23d
000003e0: cf8d 0e3d d0a1 1d3d 46cb 8cbd 213d bbbd
000003f0: bcc0 dbbd 5de6 ae3d 81cd 613d 823a 84bd

bias_ih_l0_reverse f4 [64]
0.008957694 -0.09072175 0.028874697 -0.014289314 0.019382503 -0.055509128 0.023348434 0.08730049
0.07924948 -0.00157397 -0.035495393 -0.024471713 0.044348147 -0.05092654 0.06609161 0.019982435
-0.0461595 0.086571 -0.011122735 0.013743945 0.033445716 -0.093029924 -0.06391864 0.014700887
-0.07867451 0.04470099 0.07497243 -0.07894024 0.056979924 -0.038608223 0.014897838 -0.034885492
-0.064603224 0.033669796 0.0556611 0.00016712355 0.021785814 0.043410063 0.07796586 -0.03970638
-0.020198464 -0.04730298 -0.017760087 0.056872193 -0.021673448 0.020979624 0.053267755 0.101320386
0.007918969 0.07060991 -0.026278187 -0.013652276 -0.026499154 0.010884908 -0.015403244 0.022776052
0.0015517847 -0.039135244 -0.04580405 -0.014907315 -0.002843008 -0.03733994 0.067403436 -0.023367446
00000000: 4bc3 123c 53cc b9bd a18a ec3c ba1d 6abc
00000010: 0ec8 9e3c 8a5d 63bd 3745 bf3c 99ca b23d
00000020: 8d4d a23d ab4d ceba 9e63 11bd e778 c8bc
00000030: 67a6 353d 5998 50bd 0a5b 873d 34b2 a33c
00000040: be11 3dbd 234c b13d 223c 36bc 492e 613c
00000050: 60fe 083d 7986 bebd c7e7 82bd fddb 703c
00000060: 1a20 a1bd 6318 373d 258b 993d 6cab a1bd
00000070: c863 693d a823 1ebd 1016 743c 17e4 0ebd
00000080: b24e 84bd 57e9 093d e5fc 633d e33d 2f39
00000090: 2a78 b23c c0ce 313d 91ac 9f3d 28a3 22bd
000000a0: 4077 a5bc c5c0 41bd 9a7d 91bc d1f2 683d
000000b0: 848c b1bc 76dd ab3c 4a2f 5a3d 1081 cf3d
000000c0: 90be 013c ee9b 903d 5a45 d7bc ccad 5fbc
000000d0: c114 d9bc 9d56 323c e35d 7cbc d894 ba3c
000000e0: 4165 cb3a 474c 20bd 079d 3bbd d03d 74bc
000000f0: c251 3abb c4f1 18bd d00a 8a3d 166d bfbc

bias_hh_l0_reverse f4 [64]
-0.027876558 0.093696676 -0.031037083 0.011345069 -0.019683776 0.050438177 -0.014267968 -0.07271592
-0.075011395 0.013325322 0.039303415 0.012832541 -0.049066946 0.045511365 -0.069074295 -0.017511109
0.056301408 -0.080663666 0.019367587 -0.005597479 -0.041782096 0.08932636 0.072752915 -0.008431458
0.08219058 -0.03884971 -0.07956041 0.08072845 -0.04797158 0.053771608 -0.020165883 0.029082812
0.07381461 -0.02212783 -0.06730556 -0.008853667 -0.023285208 -0.047493864 -0.075562574 0.033581313
0.008420626 0.050190005 0.019756323 -0.05540617 0.021020291 -0.016431352 -0.054812323 -0.1035643
-0.01719963 -0.071052834 0.020897249 0.022632264 0.012650945 -0.009322331 0.01633442 -0.0050551463
0.0053413664 0.031965178 0.04778047 0.016004022 0.011385292 0.034762558 -0.07404943 0.019731147
00000000: 615d e4bc 0be4 bf3d 7b41 febc abe0 393c
00000010: df3f a1bc 4398 4e3d 32c4 69bc 16ec 94bd
00000020: 939f 99bd 7452 5a3c 9efc 203d 943f 523c
00000030: 6cfa 48bd 206a 3a3d d376 8dbd 7573 8fbc
00000040: 4e9c 663d fe32 a5bd c6a8 9e3c 0f6b b7bb
00000050: b423 2bbd bdf0 b63d 7bff 943d 1924 0abc
00000060: 8953 a83d e020 1fbd 91f0 a2bd f554 a53d
00000070: d97d 44bd 9e3f 5c3d ec32 a5bc 143f ee3c
00000080: 1d2c 973d 6c45 b5bc 7fd7 89bd f90e 11bc
00000090: 9fc0 bebc ed88 42bd 8dc0 9abd 8f8c 093d
000000a0: aaf6 093c 0994 4d3d 03d8 a13c 95f1 62bd
000000b0: bf32 ac3c 0b9b 86bc e382 60bd 8519 d4bd
000000c0: 3de6 8cbc 2684 91bd b530 ab3c 4c67 b93c
000000d0: e945 4f3c b1bc 18bc c3cf 853c a4a5 a5bb
000000e0: a106 af3b ebed 023d 74b5 433d de1a 833c
000000f0: 6089 3a3c 2f63 0e3d 3aa7 97bd 37a3 a13c

weight_ih_l1 f4 [64, 128]
-0.12084226 0.12231085 -0.06649899 -0.0282825 -0.0023604683 -0.024700513 -0.04228475 0.14951916
-0.050244164 0.029713582 -0.02473328 0.043971885 0.1230341 -0.076408826 -0.017929357 0.010451816
-0.0048339446 0.08157449 -0.06146901 -0.10275817 0.068617076 0.13692869 0.043207083 -0.07042193
-0.0014196392 0.03896752 -0.03042771 -0.10450571 -0.064526275 0.042812776 0.13592853 -0.08940345
-0.043300137 -0.03526494 0.08509983 0.07426061 0.0080741 0.124084115 0.018511128 -0.0037561862
-0.08107616 0.1027138 0.034511603 -0.035615742 0.056026682 -0.1139859 0.04774485 0.058161024
0.054279584 -0.03388906 0.0073744566 -0.014368034 0.017733285 0.046758253 -0.17539127 0.009010263
0.092588946 0.038056817 0.04259224 -0.1899317 -0.09769638 -0.025393687 0.0590825 0.083646506
-0.01407475 -0.06397496 -0.05125876 0.13761964 -0.12821805 0.10919411 -0.20113097 0.001793795
0.050187796 -0.100101545 -0.010580892 0.022515995 0.11051517 0.00028491017 0.07323011 0.09218871
-0.09784019 -0.22448766 -0.033681404 0.013326154 -0.01841032 0.0547643 0.0040847166 0.07753878
-0.056426246 0.097496055 0.030348858 0.023950268 -0.028505 -0.034673 0.02065894 -0.023839429
0.09150445 -0.022028886 0.0065871505 -0.03839766 0.029173095 0.005624807 -0.00030657768 -0.002319176
0.11067181 0.06672203 -0.109352544 -0.09280762 -0.0052614613 -0.04394326 -0.018211916 -0.10202602
-0.08434795 0.074105784 -0.022927858 0.038616914 0.05596246 0.021346515 -0.10447447 -0.010340124
-0.048501078 0.17267066 -0.03145815 -0.08193563 0.07222795 0.07863275 0.15516011 0.16764481
0.008134408 0.06419532 -0.009149091 -0.11431771 -0.024419954 -0.03265115 0.021605648 -0.08690919
0.057035416 -0.16363116 -0.067408785 -0.048499677 0.027350066 -0.14368466 0.1479098 0.071570605
0.08273687 -0.07301691 -0.053607386 0.010683168 0.0761425 0.029178191 0.040551648 0.04732711
-0.10359631 0.0036954742 -0.017180165 -0.02166945 0.12645425 -0.030236896 0.019497517 -0.039167464
0.033881716 -0.030825026 -0.08803859 -0.10370803 -0.06405143 0.027995853 -0.07446497 0.048088655
-0.09811952 -0.09506033 -0.011125061 -0.03288676 -0.067634426 -0.04126759 -0.00083225244 0.024946531
-0.08012668 -0.17282121 -0.103482634 0.0019181645 0.097472414 -0.109988965 -0.10793634 0.030021543
-0.038374327 -0.05530964 -0.04351645 0.12146834 0.096297525 0.018248431 -0.021690352 -0.024633303
0.018137563 0.00017340913 -0.07348955 0.10947406 0.056581307 0.0425198 0.05557327 -0.08060984
0.0790202 0.0134457275 0.10063161 -0.030201951 -0.12152353 0.03377228 0.022637445 -0.053298526
-0.050053157 0.12399746 0.039211065 -0.030508403 -0.06592721 -0.10091007 -0.0030717014 0.048073508
-0.025283871 -0.02088229 -0.056135744 -0.018097004 -0.09551612 0.028893791 0.001172838 0.01301595
0.15131652 0.04959586 -0.03449364 -0.06577886 0.028764904 0.06781129 -0.0032015373 -0.037130572
-0.012302925 0.11814601 0.013604994 0.024007889 -0.016641825 -0.009993225 0.027842192 -0.06700749
0.017946823 0.0019775855 0.00455401 0.035632193 -0.12800804 -0.003242638 -0.053471494 0.07776885
0.03630167 0.012836416 0.07231673 0.009293264 -0.02861575 -0.04546368 -0.016189845 0.046188112
00000000: 267c f7bd 1c7e fa3d 9f30 88bd b4b0 e7bc
00000010: 16b2 1abb bb58 cabc c632 2dbd 8d1b 193e
00000020: d3cc 4dbd e669 f33c 739d cabc dd1b 343d
00000030: 4df9 fb3d 3b7c 9cbd 96e0 92bc 183e 2b3c
00000040: 1166 9ebb 8710 a73d eec6 7bbd e072 d2bd
00000050: 1c87 8c3d 0937 0c3e e9f9 303d 5f39 90bd
00000060: 3013 baba 689c 1f3d 8843 f9bc 1707 d6bd
00000070: 5a26 84bd 735c 2f3d d930 0b3e 2819 b7bd
00000080: 7c5b 31bd f871 10bd d248 ae3d f215 983d
00000090: 3b49 043c d01f fe3d a6a4 973c 592a 76bb
000000a0: 420b a6bd 9d5b d23d 0a5c 0d3d d0e1 11bd
000000b0: 3c7c 653d 7171 e9bd 1b90 433d 413a 6e3d
000000c0: 4554 5e3d 41cf 0abd 6da5 f13b e767 6bbc
000000d0: 6545 913c 9585 3f3d c599 33be c89f 133c
000000e0: 469f bd3d 77e1 1b3d 3375 2e3d 757d 42be
000000f0: 0a15 c8bd 6c06 d0bc 7e00 723d dc4e ab3d
00000100: c899 66bc 4e05 83bd b5f4 51bd 2aec 0c3e
00000110: 984b 03be 29a1 df3d 47f5 4dbe c61d eb3a
00000120: b891 4d3d 0a02 cdbd 7a5b 2dbc 7773 b83c
00000130: c755 e23d ff5f 9539 abf9 953d 6fcd bc3d
00000140: 7060 c8bd 18e0 65be 83f5 09bd f155 5a3c
00000150: 3dd1 96bc 8850 603d 16d9 853b a7cc 9e3d
00000160: 351f 67bd 03ac c73d 2b9e f83c 5a33 c43c
00000170: 5183 e9bc 4705 0ebd f03c a93c e84a c3bc
00000180: af66 bb3d ec75 b4bc 06d9 d73b dd46 1dbd
00000190: 6afc ee3c 4d50 b83b 29bc a0b9 51fd 17bb
000001a0: e7a7 e23d 8fa5 883d 3af4 dfbd ec11 bebd
000001b0: 5668 acbb d9fd 33bd 2831 95bc 05f3 d0bd
000001c0: 9ebe acbd c6c4 973d 34d3 bbbc c52c 1e3d
000001d0: e438 653d e3de ae3c b6f6 d5bd a069 29bc
000001e0: 11a9 46bd 94d0 303e 43da 00bd decd a7bd
000001f0: 3fec 933d 350a a13d 4be2 1e3e 15ab 2b3e
00000200: 2e46 053c d678 833d 12e6 15bc 671f eabd
00000210: 5b0c c8bc 36bd 05bd 54fe b03c 72fd b1bd
00000220: f89d 693d ed8e 27be 9e0d 8abd 99a7 46bd
00000230: 3f0d e03c 1222 13be ab75 173e 9c93 923d
00000240: f371 a93d e489 95bd 6b93 5bbd 7408 2f3c
00000250: 99f0 9b3d 1a07 ef3c 7c19 263d 12da 413d
00000260: 4d2a d4bd c52f 723b 6bbd 8cbc 2184 b1bc
00000270: 397d 013e 5eb3 f7bc 42b9 9f3c 106e 20bd
00000280: 8ec7 0a3d c484 fcbc 944d b4bd e064 d4bd
00000290: 652d 83bd 8f57 e53c 1781 98bd 9cf8 443d
000002a0: e3f2 c8bd feae c2bd e345 36bc 44b4 06bd
000002b0: eb83 8abd 3408 29bd 842b 5aba ab5c cc3c
000002c0: 7519 a4bd 0bf8 30be b4ee d3bd ec6a fb3a
000002d0: 9e9f c73d e541 e1bd ba0d ddbd bdef f53c
000002e0: 662e 1dbd 5c8c 62bd 4e3e 32bd 65c4 f83d
000002f0: a337 c53d bc7d 953c f7af b1bc c8cb c9bc
00000300: 3a95 943c 29d5 3539 b081 96bd f033 e03d
00000310: cdc1 673d 3e29 2e3d cca0 633d c616 a5bd
00000320: 58d5 a13d 784b 5c3c f217 ce3d 156a f7bc
00000330: 54e1 f8bd cd54 0a3d 2a72 b93c 8e4f 5abd
00000340: 8a04 4dbd 61f2 fd3d c89b 203d c2ec f9bc
00000350: d804 87bd f0a9 cebd 994e 49bb bae8 443d
00000360: 1f20 cfbc 5611 abbc 98ee 65bd 2b40 94bc
00000370: f59d c3bd acb2 ec3c eab9 993a da40 553c
00000380: b8f2 1a3e 0725 4b3d 3449 0dbd 11b7 86bd
00000390: 60a4 eb3c a5e0 8a3d e2d0 51bb 3a16 18bd
000003a0: 3592 49bc 89f6 f13d 7be7 5e3c 31ac c43c
000003b0: 7054 88bc a0ba 23bc 4f15 e43c 393b 89bd
000003c0: 3705 933c 619a 013b ce39 953b 10f3 113d
000003d0: 8a14 03be 7082 54bb ed04 5bbd 4645 9f3d
000003e0: 0fb1 143d d54f 523c cb1a 943d c642 183c
000003f0: 946b eabc 2038 3abd 91a0 84bc bf2f 3d3d

weight_hh_l1 f4 [64, 64]
-0.4117229 -0.030381791 0.048711624 0.01568106 0.12766239 0.022230662 -0.060094565 0.015756534
-0.034200113 -0.027185686 -0.030272493 0.032021426 -0.03325074 -0.016359698 -0.07955776 0.04095253
0.09873223 0.02774268 -0.053971004 0.075432606 -0.018787378 0.11427696 0.03190485 0.054825686
-0.044313993 0.04127488 0.11846628 0.009267015 0.0786689 0.05239059 -0.08447148 -0.026076864
0.10416894 -0.14905617 0.09566616 -0.08817135 0.09318881 -0.16759297 -0.0031227139 0.054234114
-0.0494036 -0.034469653 -0.021314722 0.057342406 -0.04935223 0.0023196717 -0.06746438 -0.08579384
0.063022815 0.029802514 0.012409347 0.10051411 -0.037647936 0.050058454 0.044487942 -0.10751303
0.082507305 0.054810252 -0.034633886 -0.004006205 -0.06565708 0.0062118154 0.046671435 0.058125433
-0.05349977 -0.346499 -0.003689169 0.03532125 0.054743025 -0.0596118 0.06482866 0.034817044
0.0025359818 0.11270276 0.101967864 -0.06451285 0.0031474477 0.03692469 -0.03638735 -0.16362947
0.025818933 -0.11235138 0.07367179 -0.10890127 0.035619482 -0.037324946 0.041749902 -0.087525785
0.0038705284 0.0049816067 0.008083123 0.00050841196 -0.0846414 -0.017977813 0.09872941 0.051444873
0.04539311 0.06268983 0.056682687 0.08160029 0.08777141 -0.11831913 -0.08334824 0.025234088
0.043196935 0.085665554 0.037207294 0.05081863 -0.0090341065 -0.05035227 0.025199302 -0.010904198
0.0032087404 0.05842088 0.07123557 -0.10532285 -0.018745843 -0.0010864242 0.0628747 -0.09093934
0.057180718 0.023204474 -0.044351332 -0.029897463 0.0713724 0.04743015 -0.06916425 0.12680122
0.06762791 0.005722998 -0.56467766 0.05206792 0.0012426464 -0.14718536 -0.05912783 -0.02875057
0.022128602 -0.05645104 0.021630751 -0.035247967 0.005252264 0.0902912 0.18483126 -0.04017877
0.0062719607 0.09481717 -0.09702413 -0.06237962 0.0043692226 0.08566019 0.02836269 -0.071308285
0.06661548 0.10765336 0.032339703 0.024996715 0.08752925 -0.012914509 0.095091745 -0.08378132
0.036514476 -0.006432861 0.028837165 0.050141927 0.032395665 0.12416597 0.002269886 0.052895494
0.012280731 -0.0027775415 0.007951563 0.07712907 -0.052858565 0.0053801886 0.044402104 -0.019831432
0.10622755 0.025476405 -0.09771268 -0.0017552752 -0.0713286 -0.025760964 -0.10349227 0.0033766315
-0.07734711 -0.0076441136 0.12970458 0.05952765 -0.072916955 -0.019846553 -0.03971148 -0.122231424
-0.0714907 0.06500942 0.012786965 -0.4322698 -0.03766565 0.05900896 0.034724172 0.10872573
0.02510241 0.058404583 -0.06140401 0.094233 0.046243664 -0.10733966 0.14161254 -0.10003221
-0.13023826 0.13036843 -0.13373862 0.16489203 0.01802393 0.0034422972 0.0742896 -0.039471667
0.037591312 -0.051333074 -0.056436233 -0.053443104 0.07697681 -0.0545889 -0.13647005 -0.13948666
-0.038906846 0.057143275 -0.10464063 0.017715966 0.13567917 0.085584216 -0.044408984 0.03497277
-0.01712718 -0.09157057 -0.0008976397 -0.049667355 -0.10874098 -0.07945319 0.0051638004 -0.009655752
-0.11379819 -0.111164466 -0.12513398 0.023172919 -0.03467672 -0.13346778 -0.07277135 0.047461472
-0.0030725468 0.081594184 -0.08583504 0.064402886 0.06475133 0.008907957 -0.014264526 0.11141256
00000000: 58cd d2be 3ce3 f8bc d785 473d 9175 803c
00000010: eeb9 023e 141d b63c b825 76bd d913 813c
00000020: 6b15 0cbd 84b4 debc 05fe f7bc e628 033d
00000030: ee31 08bd c604 86bc 2eef a2bd d7bd 273d
00000040: 2034 ca3d 9e44 e33c b310 5dbd 697c 9a3d
00000050: fde7 99bc 0a0a ea3d a9ae 023d e690 603d
00000060: 9782 35bd d90f 293d 739e f23d aed4 173c
00000070: 291d a13d 8497 563d 62ff acbd 269f d5bc
00000080: 8656 d53d 2ea2 18be 9fec c33d 2e93 b4bd
00000090: c6d9 be3d 7e9d 2bbe 72a6 4cbb 9724 5e3d
000000a0: 6e5b 4abd 0d30 0dbd 369c aebc dfdf 6a3d
000000b0: 9025 4abd a205 183b c42a 8abd aeb4 afbd
000000c0: 1b12 813d 6724 f43c 9350 4b3c 57da cd3d
000000d0: b934 1abd 180a 4d3d fd38 363d cb2f dcbd
000000e0: 97f9 a83d b780 603d 43dc 0dbd 7c46 83bb
000000f0: 3877 86bd 7c8c cb3b 8c2a 3f3d ef14 6e3d
00000100: 9322 5bbd 5168 b1be fcc5 71bb 04ad 103d
00000110: 393a 603d 812b 74bd e3c4 843d 519c 0e3d
00000120: b732 263b b4d0 e63d 87d4 d03d 501f 84bd
00000130: 6945 4e3b 583e 173d e70a 15bd 7c8e 27be
00000140: 3a82 d33c 7b18 e6bd 3ce1 963d a107 dfbd
00000150: bce5 113d 0be2 18bd f201 2b3d b840 b3bd
00000160: b1a8 7d3b bf3c a33b 136f 043c f346 053a
00000170: 7858 adbd 3546 93bc a532 ca3d dcb7 523d
00000180: 20ee 393d 8763 803d 1b2c 683d 0e1e a73d
00000190: 7fc1 b33d 4d51 f2bd 7bb2 aabd b8b7 ce3c
000001a0: 45ef 303d 6c71 af3d ad66 183d 3227 503d
000001b0: ca03 14bc 2f3e 4ebd c46e ce3c 85a7 32bc
000001c0: bb49 523b bc4a 6f3d f4e3 913d 82b3 d7bd
000001d0: e290 99bc 5966 8eba 73c4 803d 683e babd
000001e0: 5436 6a3d 4f17 be3c bea9 35bd 86eb f4bc
000001f0: b12b 923d 1e46 423d fca5 8dbd 2ed8 013e
00000200: 8080 8a3d fd87 bb3b b78e 10bf 2c45 553d
00000210: 4be0 a23a c2b7 16be 0630 72bd 5186 ebbc
00000220: 0b47 b53c 3539 67bd f932 b13c 2c60 10bd
00000230: 2f1b ac3b 98ea b83d 6844 3d3e 7e92 24bd
00000240: 0585 cd3b 812f c23d 96b4 c6bd c681 7fbd
00000250: b22b 8f3b 9c6e af3d df58 e83c 140a 92bd
00000260: b26d 883d 5d79 dc3d a376 043d e9c5 cc3c
00000270: 8942 b33d 6097 53bc 76bf c23d 8a95 abbd
00000280: 3490 153d c0ca d2bb eb3b ec3c 9f61 4d3d
00000290: 51b1 043d ba4a fe3d 5ec2 143b f2a8 583d
000002a0: 1f35 493c 6a07 36bb 4647 023c d9f5 9d3d
000002b0: 3982 58bd 4b4c b03b fbde 353d 8775 a2bc
000002c0: d48d d93d e5b3 d03c 961d c8bd 4311 e6ba
000002d0: bb14 92bd a808 d3bc c1f3 d3bd 7a4a 5d3b
000002e0: 2968 9ebd 797b fabb 47d1 043e 44d3 733d
000002f0: 7c55 95bd 3d95 a2bc 81a8 22bd 7854 fabd
00000300: b769 92bd a923 853d 6b80 513c 7852 ddbe
00000310: 4c47 1abd 61b3 713d ef3a 0e3d 98ab de3d
00000320: 92a3 cd3c a539 6f3d c582 7bbd 3bfd c03d
00000330: ff69 3d3d e5d4 dbbd e102 113e b0dd ccbd
00000340: 2e5d 05be 4d7f 053e c7f2 08be 75d9 283e
00000350: eca6 933c 2a98 613b 2525 983d 0bad 21bd
00000360: 59f9 193d a142 52bd ae29 67bd 28e7 5abd
00000370: 05a6 9d3d 9c98 5fbd cebe 0bbe 97d5 0ebe
00000380: c95c 1fbd 110f 6a3d d44d d6bd 1321 913c
00000390: 7bef 0a3e c746 af3d 32e6 35bd 9b3f 0f3d
000003a0: 4d4e 8cbc 5a89 bbbd 954f 6bba ff6f 4bbd
000003b0: 97b3 debd 5bb8 a2bd 1935 a93b 2933 1ebc
000003c0: 070f e9bd 32aa e3bd 1f23 00be 22d5 bd3c
000003d0: 2d09 0ebd c7ab 08be 2509 95bd f666 423d
000003e0: c85c 49bb da1a a73d 48ca afbd a9e5 833d
000003f0: 589c 843d aef2 113c c2b5 69bc 452c e43d

bias_ih_l1 f4 [64]
0.00758871 -0.060186867 0.06522412 -0.093652084 0.044716332 -0.005216263 -0.030744817 -0.00041633254
-0.019898225 0.013499062 0.0017756998 0.01450542 0.004954414 0.012746782 -0.050182104 -0.021561902
-0.061562654 0.07339489 -0.036727443 -0.0063889 0.031926453 0.0672539 -0.016208649 0.041562725
-0.025468167 0.0033443496 -0.018868089 0.10551323 0.049865212 -0.0077062943 -0.074418314 -0.015548531
-0.0027756067 -0.05407611 0.012946993 0.05611022 0.05225675 0.05578149 -0.020984232 -0.018479599
-0.10106973 0.051308356 0.022944847 -0.01763986 -0.010584327 -0.04403863 -0.0071383235 0.08127206
-0.08068516 0.05518406 0.02229638 -0.062217675 -0.041301493 -0.0053252946 0.06821821 -0.01756388
0.0031877395 -0.057758268 -0.033970937 -0.050415583 0.045652833 -0.07357676 -0.09026487 -0.06560453
00000000: b7aa f83b 8186 76bd 3994 853d aacc bfbd
00000010: 7928 373d 2fed aabb 8edc fbbc 3547 dab9
00000020: 9a01 a3bc 2b2b 5d3c 99be e83a 24a8 6d3c
00000030: a358 a23b e1d7 503c c08b 4dbd 96a2 b0bc
00000040: 1f29 7cbd 0f50 963d 846f 16bd fa59 d1bb
00000050: 50c5 023d 6abc 893d 00c8 84bc ad3d 2a3d
00000060: 9ea2 d0bc e02c 5b3b 4091 9abc 5217 d83d
00000070: 773f 4c3d 1585 fcbb a168 98bd 44bf 7ebc
00000080: f4e6 35bb e97e 5dbd a01f 543c d4d3 653d
00000090: 2d0b 563d 227b 643d 20e7 abbc 8762 97bc
000000a0: a6fd cebd b628 523d d5f6 bb3c 7881 90bc
000000b0: e369 2dbc da61 34bd 99e8 e9bb f771 a63d
000000c0: 433e a5bd ae08 623d e6a6 b63c f6d7 7ebd
000000d0: c12b 29bd cf7f aebb fdb5 8b3d 20e2 8fbc
000000e0: 65e9 503b ef93 6cbd 1c25 0bbd 9280 4ebd
000000f0: 77fe 3a3d 6aaf 96bd cadc b8bd ab5b 86bd

bias_hh_l1 f4 [64]
-0.010687335 0.062920384 -0.0638317 0.09660011 -0.04816718 0.0029283569 0.01660051 -0.009683961
0.02287764 -0.016664028 0.0021482536 -0.018685091 -0.001247011 -0.0101800235 0.05179642 0.01691952
0.06371534 -0.08047762 0.040438555 0.0009476195 -0.02654236 -0.06757836 0.014093129 -0.029800668
0.024125827 -0.011716558 0.01446843 -0.10340431 -0.04498557 0.0104713375 0.07335487 0.010519999
-0.0011782632 0.051247746 -0.016645717 -0.05871376 -0.044064317 -0.042657983 0.01904909 0.01579543
0.10544035 -0.05634812 -0.02316236 0.022840595 0.012269182 0.045666896 0.012725902 -0.088829376
0.0729953 -0.06372215 -0.031959686 0.06760296 0.048457902 0.0020859444 -0.0666559 0.01981532
-0.010423324 0.073928386 0.03193459 0.045477707 -0.05150162 0.07262395 0.08737916 0.065939404
00000000: ef19 2fbc 67dc 803d 32ba 82bd 47d6 c53d
00000010: f34a 45bd ade9 3f3b cbfd 873c 7aa9 1ebc
00000020: e369 bb3c 0083 88bc b7c9 0c3b 7a11 99bc
00000030: bf72 a3ba 1dca 26bc 7c28 543d ce9a 8a3c
00000040: 307d 823d 73d1 a4bd e6a2 253d ab69 783a
00000050: 5d6f d9bc 8666 8abd dee6 663c 8820 f4bc
00000060: 87a3 c53c cef6 3fbc fe0c 6d3c a4c5 d3bd
00000070: ca42 38bd f98f 2b3c 143b 963d 135c 2c3c
00000080: f46f 9aba 28e9 513d 995c 88bc d77d 70bd
00000090: c97c 34bd 23ba 2ebd d60c 9c3c 6b65 813c
000000a0: 1cf1 d73d 49cd 66bd fdbe bdbc 331c bb3c
000000b0: ae04 493c 360d 3b3d 4d80 503c 2dec b5bd
000000c0: 8f7e 953d c280 82bd 29e8 02bd 6c73 8a3d
000000d0: cb7b 463d 57b4 083b e382 88bd bd53 a23c
000000e0: 97c6 2abc c467 973d d8cd 023d d546 3a3d
000000f0: 5df3 52bd debb 943d d8f3 b23d 3d0b 873d

weight_ih_l1_reverse f4 [64, 128]
-0.0092181815 -0.019585008 -0.00869961 -0.03693061 0.04065615 0.12349055 -0.041814677 0.07614968
-0.0335477 0.06347235 0.03206052 0.10514706 -0.004128841 0.0050254185 0.040374108 0.03778592
-0.00094216305 0.12675464 0.055542603 0.045471814 -0.0077883396 0.002897852 -0.02098893 -0.04655798
0.06534613 -0.0130348075 0.020436225 0.044833906 0.05530796 -0.012585331 0.11630294 -0.046440423
-0.111006446 0.014602197 -0.0026915679 -0.015764894 -0.054178026 0.089340135 -0.03793067 0.024179388
-0.07737007 -0.11873429 -0.038025275 -0.008626673 0.083628714 -0.01414676 -0.012733318 -0.008912099
-0.06952613 -0.04083681 -0.004499672 0.03602903 -0.014534142 -0.037644684 -0.011587324 0.039525826
0.10161068 -0.053950503 0.036593236 -0.10909325 0.07050074 0.011058399 -0.05925477 -0.025222944
-0.121393055 -0.06944553 -0.043711554 -0.031568 -0.06786157 0.044541597 0.022014799 -0.028278343
0.00072340266 -0.0014159582 0.053037178 -0.017318117 0.035957914 0.062243737 -0.029302582 -0.068595864
0.1638322 -0.017158061 0.0032211416 0.07949758 0.012619307 0.037150502 0.024004012 -0.030171352
-0.06732186 0.10511052 -0.049648177 -0.028992413 0.036652755 -0.0058918693 -0.02298992 -0.014245415
0.037382253 0.019439235 0.06499216 -0.056628834 0.14054173 -0.041423406 -0.0080951685 -0.055434518
0.039081432 0.023819616 -0.044881497 0.032350693 -0.045138214 0.037629616 0.034502815 0.04345165
-0.073365554 -0.011649948 -0.029739408 -0.016933948 -0.0048861117 0.08489686 -0.0076622833 -0.045806352
0.02512889 -0.076523654 -0.012633644 0.01161866 -0.1336764 -0.03137656 -0.11762554 0.00042054045
0.06227162 -0.02458852 -0.044288605 -0.008088502 0.0031525122 -0.005162297 0.10517862 -0.034955043
0.004287646 -0.05613627 0.018370302 -0.0680719 -0.07895768 -0.028813457 -0.08571731 -0.08621801
-0.056552447 0.07463198 0.023812627 0.01184494 -0.04061476 -0.04269968 0.053396553 -0.008209094
-0.06800127 0.104819454 -0.02775466 0.06763769 -0.00853061 0.073174454 0.009602825 0.013983577
-0.0049676728 0.051347367 -0.1651243 0.035840407 0.054921966 -0.049527273 -0.037270147 -0.009347771
-0.08814921 0.019236058 0.058725476 -0.053402983 -0.010876455 0.024845487 0.054280758 -0.010790163
-0.009579433 0.0031456694 -0.002670754 0.025281081 -0.060881402 -0.026757684 0.03603087 0.04970856
-0.021353358 0.044626903 0.14629836 -0.06304241 -0.079275794 0.084884845 -0.029148834 -0.025792485
-0.03454032 0.0583606 -0.049451955 -0.06491821 0.00014577391 0.050702777 -0.0361353 -0.031702917
0.028521566 0.04612135 -0.062037863 -0.039950367 -0.018531868 -0.019613748 0.026665362 0.05350228
-0.0009408318 0.04613971 -0.018063975 -0.025680726 -0.028351044 0.0462618 0.016215585 0.020235553
0.05602599 -0.01098091 0.08319716 0.05156488 -0.032283623 0.00117634 -0.002187788 -0.00444153
-0.040645454 0.10103221 -0.035524793 0.039353315 -0.07407588 -0.049572147 -0.031723134 0.070475645
0.054787844 0.018113863 0.006815706 0.0121561205 0.0007032217 0.002016485 0.055302043 -0.10971824
0.059819877 0.05325184 0.0008049623 -0.015058421 -0.06582123 -0.011763903 0.030162713 0.03858409
-0.021517236 0.03830534 0.0518673 0.005302781 -0.03836729 -0.026560001 0.043796506 -0.024316544
00000000: db07 17bc bd70 a0bc cf88 0ebc 8d44 17bd
00000010: 1087 263d 9de8 fc3d de45 2bbd 5df4 9b3d
00000020: 5069 09bd cbfd 813d e451 033d 5757 d73d
00000030: 3b4b 87bb 44ac a43b 525f 253d 69c5 1a3d
00000040: 7efb 76ba f8cb 013e a480 633d a740 3a3d
00000050: 5435 ffbb e4e9 3d3b faf0 abbc 95b3 3ebd
00000060: 31d4 853d f28f 55bc df69 a73c c2a3 373d
00000070: 998a 623d b432 4ebc 3c30 ee3d 5038 3ebd
00000080: 5957 e3bd 0e3e 6f3c 0465 30bb 6125 81bc
00000090: c7e9 5dbd f6f7 b63d 315d 1bbd da13 c63c
000000a0: 3374 9ebd f72a f3bd 64c0 1bbd e456 0dbc
000000b0: 8845 ab3d d0c7 67bc 689f 50bc 0d04 12bc
000000c0: b763 8ebd 8044 27bd fc71 93bb 2d93 133d
000000d0: 9c20 6ebc 5031 1abd c2d8 3dbc d5e5 213d
000000e0: 4319 d03d 34fb 5cbd cae2 153d 486c dfbd
000000f0: b162 903d 4a2e 353c 21b5 72bd 59a0 cebc
00000100: ec9c f8bd 7539 8ebd e30a 33bd 724d 01bd
00000110: 02fb 8abd 4071 363d 6158 b43c fca7 e7bc
00000120: bba2 3d3a ac97 b9ba 833d 593d b9de 8dbc
00000130: 9b48 133d 4af3 7e3d f80b f0bc fd7b 8cbd
00000140: a1c3 273e 108f 8cbc ca19 533b a1cf a23d
00000150: 36c1 4e3c 202b 183d 10a4 c43c e929 f7bc
00000160: 0be0 89bd 2f44 d73d e35b 4bbd 7f81 edbc
00000170: 3321 163d 9510 c1bb 5b55 bcbc 9a65 69bc
00000180: 221e 193d 083f 9f3c 9c1a 853d a3f3 67bd
00000190: 2cea 0f3e 97ab 29bd 99a1 04bc 4e0f 63bd
000001a0: da13 203d 5b21 c33c a9d5 37bd 2982 043d
000001b0: d9e2 38bd 8321 1a3d d352 0d3d 5bfa 313d
000001c0: ae40 96bd 6cdf 3ebc 0fa0 f3bc 10b9 8abc
000001d0: ad1b a0bb 68de ad3d e413 fbbb 719f 3bbd
000001e0: 1adb cd3c 6fb8 9cbd 58fd 4ebc 315c 3e3c
000001f0: 77e2 08be b584 00bd a9e5 f0bd fc7b dc39
00000200: 8710 7f3d dd6d c9bc f867 35bd a385 04bc
00000210: 619a 4e3b 7c28 a9bb e367 d73d 052d 0fbd
00000220: 627f 8c3b 25ef 65bd 517d 963c 4869 8bbd
00000230: 90b4 a1bd 330a ecbc 8f8c afbd 1193 b0bd
00000240: 8aa3 67bd a7d8 983d b312 c33c 4711 423c
00000250: aa5b 26bd dce5 2ebd 58b6 5a3d 707f 06bc
00000260: 4044 8bbd 95ab d63d be5d e3bc a185 8a3d
00000270: f9c3 0bbc 7ddc 953d 2b55 1d3c 5f1b 653c
00000280: dcc7 a2bb 9e51 523d 5816 29be 64cd 123d
00000290: dbf5 603d 1cdd 4abd 95a8 18bd 6527 19bc
000002a0: 9387 b4bd f094 9d3c 208a 703d 16bd 5abd
000002b0: 2933 32bc c388 cb3c 8055 5e3d 39c9 30bc
000002c0: 0ef3 1cbc 9327 4e3b d107 2fbb 451a cf3c
000002d0: c75e 79bd ee32 dbbc 1b95 133d 349b 4b3d
000002e0: 3ded aebc b3ca 363d 3dcf 153e 611c 81bd
000002f0: 595b a2bd 1bd8 ad3d 89c9 eebc c34a d3bc
00000300: 277a 0dbd 860b 6f3d 228e 4abd d7f3 84bd
00000310: e3da 1839 b7ad 4f3d 9c02 14bd ebda 01bd
00000320: 0fa6 e93c bee9 3c3d 6a1b 7ebd ffa2 23bd
00000330: 25d0 97bc 03ad a0bc 5171 da3c 3525 5b3d
00000340: 27a2 76ba fefc 3c3d e7fa 93bc 6360 d2bc
00000350: 7340 e8bc 037d 3d3d 8cd6 843c 08c5 a53c
00000360: 827b 653d 46e9 33bc 4663 aa3d b235 533d
00000370: d53b 04bd 6c2f 9a3a fe60 0fbb 418a 91bb
00000380: d97b 26bd fae9 ce3d 7282 11bd f130 213d
00000390: 18b5 97bd 2a0c 4bbd 1ef0 01bd 8955 903d
000003a0: 3869 603d 8663 943c 4956 df3b 772a 473c
000003b0: 6958 383a 0127 043b 6584 623d f5b3 e0bd
000003c0: b005 753d 9a1e 5a3d 1b04 533a 98b7 76bc
000003d0: 48cd 86bd 63bd 40bc cb17 f73c 5a0a 1e3d
000003e0: ea44 b0bc 0fe6 1c3d ce72 543d f3c2 ad3b
000003f0: 0527 1dbd 5c94 d9bc f763 333d 7d33 c7bc
