final_pt/forecast_final_LSTM.pt (torch, 556242 bytes, 20 tensors)

weight f4 [1, 30, 1]
00000000: 00c0 f9b7 548b 55bd d428 22bd 08f5 ec3d
00000010: dcc1 1f3e 28de 343d c8b5 383d c499 03be
00000020: d0b7 0a3d c07b 6e3b 5732 ebbd c9f1 36be
00000030: a2e8 0e3e 01d2 d7bd b01b b93c a897 143d
00000040: a682 2d3e 10fd 6e3c 6cec 26bd d913 b9bd
00000050: 1c3a 0c3e 0ccc 363e 6c4c 013d cacb 1d3e
00000060: e878 3e3d b8d9 953c 28d9 983d a897 843d
00000070: 82dd d7bd 3c60 c93d
-2.977252e-05 -0.052134827 -0.039589718 0.115701735 0.15601295 0.044157177 0.045095235 -0.12851626
0.033866704 0.0036389679 -0.11484211 -0.17865671 0.1395593 -0.10538102 0.02259621 0.036277443
0.1694437 0.014586702 -0.040752813 -0.09036989 0.13694042 0.17851275 0.031567022 0.1540977
0.046502024 0.018292293 0.07463294 0.06474239 -0.10540296 0.098328084

weight_ih_l0 f4 [256, 1]
00000000: 947f 98bf 5271 1cbf c8e0 0cbf 0004 3ebf
00000010: 49ff 1bbf 7158 20bf 514c 11bf 2781 3ebf
00000020: 952a 0abf 2ded 1ebf 0695 21bf bcf4 35bf
00000030: c397 08bf 8581 50bf 0024 3ebf 61cb 27bf
00000040: d95a 5fbf 002b 4abf aa6f 36bf 51b3 4ebf
00000050: d6eb eebe fbb2 35bf f1e9 16bf 71d6 39bf
00000060: 2259 0dbf 3801 10bf 8fac 8ebf 2cd6 13bf
00000070: f987 06bf e785 1cbf 8d36 1fbf 6503 05bf
00000080: 6b72 5ebf 8b1b 1ebf 94ec 27c0 ee1f 83bf
00000090: 86ba 2bbf ae8e 44bf 77f1 3dbf eb59 25bf
000000a0: 36d3 48bf 6a4f 3ebf 836a 2cbf 12e2 35bf
000000b0: 1d6f 31bf f783 37bf 0edd 1bbf 8487 35bf
000000c0: 790e f9be 0243 24bf 03fc 83bf d491 51c0
000000d0: f6e1 29bf 249f 0ebf 6ad5 1ebf a852 14bf
000000e0: d4bd 16bf 12e2 4ebf ddf6 27bf 8585 65bf
000000f0: 309e 59bf 7c44 2cbf cc1c 1cbf 24d0 13bf
00000100: 9e28 43bf f4b3 11be 62c8 c3be f4e1 93be
00000110: 9850 f5be c906 1cbe 9126 62be ffd8 37be
00000120: b806 b1be 3139 a5be 5d75 09bf 2d09 a8be
00000130: 1c60 0cbf 614b a3be 6edc 1fbe d9bf 01bf
00000140: ac1d e1be 69ac c0be 4136 67be 480a 8abe
00000150: 1b9e a4be ebe5 4bbe 7e54 56be e130 89be
00000160: 2685 d0be 2320 c6be 8b83 06bf 4e0f 84be
00000170: c430 d5be 50ac 55be 9a8a 55be 00cd a5be
00000180: 5665 36be 315e 54be 952b babf 08e1 22bf
00000190: 369c 85be 1554 99be 6696 cabe 68bc 94be
000001a0: 6cf6 a9be 264a 85be 8908 b8be 3964 d0be
000001b0: 92b2 01be 577f a4be a3ec a4be b634 b9be
000001c0: 59da f5be 6186 a4be 9f76 cabe 58f7 41c1
000001d0: 05e5 afbe 01ac 7ebe 462c 3cbe b140 bbbe
000001e0: d47a aebe 86ab 84be a2c6 83be daf3 c6be
000001f0: c6a0 aabe de6a 9fbe dca1 bebe 0036 16be
00000200: 4768 b33d 1d56 96bc a32a 68ba 0434 8c3c
00000210: f88e 3f3c f3e2 5d3c 17c8 5cbc 8600 793b
00000220: f87b 203c e34c 843c 43a9 223c 637c eb3a
00000230: 9afb 9cbc 440c 26bc 2b23 b0ba 858b 33bc
00000240: b913 c8bd 4d6a 273d 62b3 613c b070 1cbd
00000250: 833f 85ba abff 62bc f8c1 143c d706 753c
00000260: 9ac3 6abc dcd0 e53b 44e0 b8bd 08b9 633b
00000270: 54de 713b eac5 9fbb ff13 2e3c eb68 593a
00000280: 2548 b6bc f6ea 36bc 8ebc 54c0 f5f1 8fbd
00000290: d408 56bc 983b 88bc 0426 94bb 0eb8 073c
000002a0: afb9 38bb 98fb a13b 7105 bebb 4a37 613c
000002b0: 797c 3fbc c94c 35bc 8b62 90bc 9560 863c
000002c0: 63bc 093b a8d3 973c a4fc 89bd 5d52 afbf
000002d0: 7974 c8ba fd45 ed3b 170b fbbb f002 9bbb
000002e0: ba51 54bc 85e8 273d e8c0 b93b 3beb f73d
000002f0: 568e 67bd 1c54 30bc 2d19 32bc 0800 c1bb
00000300: 87b0 8fbf 5e69 22bf b025 27bf 4b07 06bf
00000310: 3e49 d1be 6745 13bf 5dd7 38bf 32c3 13bf
00000320: bb9d 16bf 53c4 25bf da5e f0be 1dfa 13bf
00000330: bce8 0cbf 46d7 49bf 5a0d 03bf b0b6 01bf
00000340: 9beb 6bbf 742c 5cbf 9ce8 3fbf 4826 3fbf
00000350: fa9b 32bf 96cd 19bf 58a8 32bf b84c 38bf
00000360: 5079 28bf 7823 1abf 3b86 97bf 8f85 1fbf
00000370: c268 f5be f531 01bf 696e 08bf aaf1 38bf
00000380: 18ba 65bf 35f4 35bf c177 2fc0 bdda 80bf
00000390: f80c 23bf 1e29 56bf c87d 31bf 1c2b 09bf
000003a0: 7ba2 2cbf 7a83 29bf 9a8d 5abf e8ef 55bf
000003b0: f01c 08bf c69f 42bf a57a 2abf 2c67 16bf
000003c0: 5c31 10bf 60a1 0cbf e780 84bf d9b8 8fc0
000003d0: 3808 28bf b2f0 35bf 4d37 32bf 406e 1fbf
000003e0: b823 26bf fc82 1fbf 51f0 1bbf 1b57 41bf
000003f0: 85f3 61bf 9f3a 1abf 0979 10bf 9766 14bf
-1.1913934 -0.61110413 -0.5503049 -0.74224854 -0.6093641 -0.6263495 -0.56757075 -0.7441582
-0.53971225 -0.6208065 -0.63118017 -0.7107656 -0.5335657 -0.8144763 -0.7427368 -0.65544707
-0.87248 -0.7897186 -0.71264136 -0.80742365 -0.46664304 -0.7097623 -0.58950716 -0.72592837
-0.5521413 -0.5625186 -1.1146411 -0.57748675 -0.5255123 -0.6114182 -0.6219261 -0.51958305
-0.8689334 -0.6176078 -2.6238146 -1.0244119 -0.6708149 -0.7678021 -0.7419657 -0.6459033
-0.7844728 -0.74339926 -0.67350024 -0.7104808 -0.6931017 -0.7168574 -0.6088418 -0.70909905
-0.48643854 -0.64164746 -1.0311283 -3.2745256 -0.66360414 -0.5571158 -0.62044394 -0.57938623
-0.58883405 -0.80813706 -0.6561106 -0.8965686 -0.85007 -0.67292 -0.6098144 -0.5773947
-0.7623385 -0.14228803 -0.38238817 -0.28883326 -0.4791305 -0.15236963 -0.22085024 -0.17953871
-0.34575438 -0.32270196 -0.5369471 -0.328195 -0.5483415 -0.31893447 -0.15611431 -0.5068336
-0.4396795 -0.3763154 -0.2257929 -0.2696097 -0.32151875 -0.19911925 -0.20930669 -0.26795104
-0.40726584 -0.38696393 -0.5254447 -0.25792927 -0.41638768 -0.20866513 -0.20853654 -0.32382965
-0.17812094 -0.20739056 -1.454455 -0.6362462 -0.26095742 -0.29946962 -0.3956787 -0.29049993
-0.33195817 -0.26033133 -0.35944012 -0.40701464 -0.12665775 -0.32128403 -0.3221179 -0.36173028
-0.4801815 -0.32133773 -0.39543626 -12.122887 -0.34354416 -0.24870302 -0.18376264 -0.36572793
-0.34078085 -0.25912112 -0.25737482 -0.3885792 -0.33325785 -0.3113622 -0.37232864 -0.14669037
0.08760124 -0.018351609 -0.0008856451 0.017114647 0.011691801 0.013542878 -0.0134754395 0.0037994697
0.009795181 0.016149944 0.00992805 0.0017966147 -0.019162942 -0.01013476 -0.0013438215 -0.010958557
-0.09769387 0.04087286 0.013775678 -0.038193405 -0.0010166023 -0.013854901 0.009079449 0.014955244
-0.014328862 0.0070134234 -0.0902715 0.0034747738 0.00369062 -0.004875888 0.010624885 0.0008293527
-0.022251198 -0.0111644175 -3.3240085 -0.070285715 -0.013063628 -0.016629979 -0.0045211334 0.008283628
-0.0028186848 0.0049433224 -0.0057989885 0.013746092 -0.011687391 -0.01106567 -0.017625114 0.016403476
0.0021016828 0.018533543 -0.067376405 -1.369701 -0.0015293501 0.0072410093 -0.007661234 -0.004730575
-0.012958938 0.040993232 0.005668748 0.121054135 -0.056532227 -0.010762241 -0.01087026 -0.0058898963
-1.1225747 -0.6344203 -0.6529188 -0.5235488 -0.40876192 -0.57527775 -0.7220362 -0.5771972
-0.5883443 -0.6475269 -0.46947366 -0.5780352 -0.55042624 -0.78844106 -0.5119225 -0.50669384
-0.9215638 -0.8600533 -0.7496431 -0.7466779 -0.6976925 -0.60079324 -0.6978812 -0.71992064
-0.6581011 -0.6021037 -1.1837839 -0.6231317 -0.47931486 -0.50466853 -0.5329347 -0.7224375
-0.8973708 -0.71075755 -2.7416842 -1.0066754 -0.63691664 -0.8365649 -0.6933255 -0.53581405
-0.67435426 -0.6621624 -0.85372317 -0.8356919 -0.53169155 -0.76025045 -0.6659339 -0.5875118
-0.56325316 -0.5493374 -1.0351838 -4.4913144 -0.6563754 -0.71070397 -0.6961563 -0.62277603
-0.6489825 -0.6230924 -0.6091357 -0.7552354 -0.88262206 -0.602457 -0.56434685 -0.5796904

weight_hh_l0 f4 [256, 64]
00000000: a9b3 873e 0627 dbba 8272 03bc e191 8abe
00000010: 505b 82bd f715 bcbd d9d3 ea3d 8c40 353d
00000020: 79fe ae3d 3b43 b0bd e552 5bbe ff84 b8bc
00000030: 3584 853d 344a 57be 9148 69bd 1143 d83d
00000040: 4109 8e3e 987d bdbd da65 6cbd a1bb 6b3d
00000050: 2e56 203e 4443 f13d 420f 183e 7206 003d
00000060: c174 98bd 2ecf 36be ca65 b0be 4d30 753d
00000070: 3a89 14be 4713 8ebd e45f c83d fefd 5abd
00000080: a94b 963d f193 0c3d 82fd 8bbe 8c9e af3e
00000090: 9e65 c73d 886d ee3d c7ef 8d3d da0a febd
000000a0: 138c 673e 4403 4bbe febd 863e 9bc5 c2bd
000000b0: aea5 e83d d862 9e3d ef3b 0b3e 5d88 1fbe
000000c0: d589 1b3d 97be 45be e6ef 8f3e 4d80 ee3d
000000d0: ea11 1fbd 0e14 aabd 9a4e f03c 43c5 debc
000000e0: eb8b c93c 2772 5dbd b298 2cbe 2bd5 97ba
000000f0: a3ad fc3c da23 da3d 445a 1fbd 4b52 033c
00000100: f382 833d 0494 0c3e be6f a73d 81b2 0fbe
00000110: 9035 a03d f889 d53d ee59 523d 8ba1 61bc
00000120: eeda 95bc 91bd 22be 742d 3fbe 0aad eebd
00000130: aa0e fe3d 18d1 0abe 7305 f9bd ca94 02be
00000140: 4e2b 403e 4f65 d9bc 00f3 bcbd 403c a73b
00000150: f687 4e3d 5770 bd3c d8ad a83d cef9 24bd
00000160: 165c ce3d 4b7d a1bd 3912 02be 2c08 5c3c
00000170: 25df 05bc 7700 163d dee3 62bd 75fc 5cbd
00000180: d670 6d3c 6e42 ce3d 9c57 58be 8abc 5d3d
00000190: ea56 123e 99d4 ee3d fbaa 5fbc 5e25 53bd
000001a0: 6355 2c3e 7444 1bbe bc88 223e 6aaa 00be
000001b0: 0d2d 053e a19e 173c 7f47 bb3d a5c9 76bb
000001c0: f4a8 aebd 45bc fb3b aade be3d ce66 8f3d
000001d0: 3fb6 21be 5a5a 393d f2f5 93bc cd8a bbbc
000001e0: 5cb0 64bd bbee 31be f762 76bd e391 49bd
000001f0: 087f 4abd 6b02 b7bc 9280 813d 2ad1 65bd
00000200: d78c 72bc 58f6 d33d 87b2 283d f56c b13d
00000210: 9e39 71bd 73b8 7cbd be71 c13a 8776 bbbd
00000220: abf4 edbd 2611 e73d ea54 95bd 826b fbbd
00000230: 8beb 44bd 8dee 61bd 0ffb 88bd 7367 583c
00000240: 7e62 be3d 32ac e13d 0765 a1bb 429f 903d
00000250: 24b8 e23d b68e 06bd b9b5 be3d 112b a3bd
00000260: ac97 a33d 5b5b 87bc a1ac 23bd 9a63 9bbc
00000270: 78a2 84bc 03ae f0bc 8707 0ebe 335c e13d
00000280: aa30 edbb 161f e43d e70e c53b 4d2e 473c
00000290: 474b 453c 2bd5 393c aaf2 ab3d 46af a5bd
000002a0: 6fda 9bbd 8319 6fbc 8467 5b3d 953f d6bd
000002b0: 1dba 02bd e8d6 b2bd 2287 073e c239 c43c
000002c0: 2186 103d 494a 9fbd d9ed b23d fe34 7cbd
000002d0: a388 b63d 40cc 3e3d 93bb 3d3d 46ae 5a3d
000002e0: 2e70 d4bd 8366 04bd 0933 08be fa01 87bd
000002f0: 526b 0bbd b316 46bd 4acc d63d f1d8 f8bb
00000300: 3a35 6f3d db7b 573d 2f95 8e3b 3da1 ce3c
00000310: 5079 59bd dc0b e4bd ac9e e13d 1fab 89bd
00000320: fd43 ab3c 7350 dbbd 4a43 72bd e0cc a73d
00000330: 548a f9bd c20e 32bd e9ba c63d 0914 fb3c
00000340: cb0a a33d d381 88bd e73b 1dbe 81b8 41bd
00000350: b59d a03d e344 a0bb cb88 63bc e48a 7d3d
00000360: 30f8 95bd b740 95bd 1ece 8f3d 9eb5 953d
00000370: 64a9 cabd 9837 35bd 94df 99bc da5e 103e
00000380: c88e 15bc 8512 f53c bd4f 243d 89e9 373e
00000390: 3fe0 1f3e 2b22 40bd 51ba 7739 6944 4e3d
000003a0: bf6c 3bbc 080a 10be d207 d2bb f363 1fbc
000003b0: 76c0 063e 6bd8 0f3e 17b5 2bbc b90a 903d
000003c0: a859 993d fd8b 1c3b 4d3b 343c df6f f7bd
000003d0: e03d d93d 7a83 3a3d 111f 153e 7f82 253e
000003e0: 0063 c73d 3f20 683d cc05 0abe e4dd fdbd
000003f0: bfb7 2f3e f3e8 4c3d fb4a 40bd e110 0d3e
0.26504257 -0.0016720004 -0.008022906 -0.27064422 -0.06365073 -0.09183877 0.11466188 0.04425101
0.085446306 -0.08606573 -0.2141834 -0.022524355 0.06519357 -0.210244 -0.05695397 0.10559667
0.27741435 -0.09252471 -0.05771432 0.057551984 0.15657875 0.11780408 0.1484957 0.031256147
-0.07444144 -0.1785247 -0.3445266 0.059860516 -0.14505473 -0.069372706 0.09783915 -0.053464882
0.0733865 0.034320775 -0.2734185 0.3430065 0.09736179 0.11641985 0.069304995 -0.124044135
0.22612028 -0.19825464 0.26316828 -0.095103465 0.11359726 0.07733697 0.13597082 -0.15579362
0.037973244 -0.19310986 0.28112715 0.11645565 -0.038835444 -0.083046064 0.029334355 -0.027193671
0.02460285 -0.054063942 -0.16855124 -0.0011583915 0.030844515 0.106513694 -0.038904443 0.008015226
0.06421461 0.13728338 0.0817561 -0.14032938 0.07822716 0.10426706 0.051355295 -0.013771425
-0.01829287 -0.15892626 -0.18669683 -0.11654098 0.12405141 -0.13556325 -0.121592425 -0.12752071
0.1876652 -0.026537566 -0.09226036 0.005103618 0.05042263 0.023124857 0.08236283 -0.040277295
0.10076158 -0.07885226 -0.12702264 0.013429683 -0.008170878 0.036621537 -0.055393092 -0.0539517
0.014492234 0.10071264 -0.2112717 0.054134883 0.14290968 0.116616435 -0.013651605 -0.051549308
0.16829447 -0.15162832 0.15872473 -0.12565008 0.13005467 0.009254129 0.09144496 -0.003765681
-0.08528319 0.0076823556 0.093198135 0.0700203 -0.15792178 0.04525218 -0.018061612 -0.022893334
-0.055832252 -0.17376225 -0.060152974 -0.049211394 -0.049437553 -0.02234002 0.06323351 -0.056107678
-0.014804087 0.10349721 0.041185882 0.0866336 -0.05889284 -0.061699342 0.0014758629 -0.09153467
-0.11618932 0.11282568 -0.07291587 -0.12276365 -0.048076194 -0.05515914 -0.066885106 0.013208258
0.0929613 0.11019172 -0.0049253735 0.07061626 0.11070278 -0.032850944 0.093120046 -0.07967199
0.079879135 -0.016523054 -0.039959554 -0.018968392 -0.016190752 -0.02937985 -0.13870059 0.11003914
-0.007238467 0.11138742 0.0060137394 0.012157035 0.012041873 0.011342327 0.08395894 -0.080900714
-0.07610022 -0.014593485 0.053565517 -0.10461346 -0.031915773 -0.08732396 0.13235143 0.023953322
0.035284165 -0.07777841 0.08736772 -0.061573975 0.0891278 0.046581507 0.046321463 0.053388856
-0.10372959 -0.032324325 -0.13300718 -0.06592174 -0.034037896 -0.04836149 0.10488184 -0.007594221
0.05840037 0.052608352 0.00435128 0.025223369 -0.05309421 -0.111350745 0.110165924 -0.06722092
0.020906443 -0.10708704 -0.059146203 0.08193374 -0.12184587 -0.043471105 0.09703619 0.030649202
0.07961043 -0.06665387 -0.15354882 -0.047295097 0.0784258 -0.0048910244 -0.013887594 0.061900035
-0.07322729 -0.07287734 0.070217356 0.07310031 -0.0989559 -0.04424247 -0.018783368 0.14098683
-0.00912828 0.029916057 0.040115107 0.1796018 0.15612887 -0.046907585 0.00023625164 0.05035821
-0.011439501 -0.14066327 -0.0064096237 -0.00972842 0.13159356 0.140474 -0.010480187 0.07033295
0.07487804 0.002388715 0.0110004665 -0.120818846 0.10607505 0.045535542 0.14562632 0.16163062
0.097356796 0.056671377 -0.13478774 -0.12395838 0.17159937 0.050026845 -0.046946507 0.1377597

bias_ih_l0 f4 [256]
00000000: 9e57 ddbf 5430 a2bf ddef a7bf cbef a5bf
00000010: 1310 aebf 1f8d 95bf 5d40 adbf 19b9 9fbf
00000020: c6b8 a7bf c749 9bbf 60e5 b2bf 1f88 9fbf
00000030: 873d d8bf b60e a4bf 622e a1bf e11b b6bf
00000040: 5209 bbbf 01ca a3bf 3538 a1bf c6d2 b7bf
00000050: c7f9 b0bf cfc2 a6bf 589f 97bf 6ea0 9ebf
00000060: da14 b1bf 6008 a9bf 51df e4bf 1a10 93bf
00000070: f926 aebf 6c5d a3bf 8fa2 92bf 44a9 9ebf
00000080: 2d80 b4bf 4be5 adbf 04fb 3cbf 7900 e6bf
00000090: 7276 a4bf e72f abbf 7b14 a4bf 5d84 abbf
000000a0: 4153 a4bf 519d b7bf fe96 a4bf ac25 a1bf
000000b0: a4b3 9dbf 2103 90bf 433a abbf bd57 bbbf
000000c0: 1407 93bf 6795 c0bf d381 debf e507 8f3f
000000d0: 7af2 a4bf 2468 a3bf 48d1 9abf c214 a9bf
000000e0: 96d1 a1bf 97ed c8bf 2e98 9bbf ec63 d4bf
000000f0: 2726 bdbf 2f3f a0bf f309 9dbf a7cd acbf
00000100: c42a 91bf b2bb efbe 0de8 07bf 1005 4cbf
00000110: 13f8 6cbf 3378 13bf 97dc 01bf 9ed2 30bf
00000120: cf3f 16bf 1748 f8be 185e 53bf 2b22 1bbf
00000130: 5bd6 72bf 73b2 e9be d77c 30bf 8ef4 31bf
00000140: e53d 47bf 5487 0abf 1bc2 0fbf 6082 2bbf
00000150: d387 25bf a648 2bbf 5834 33bf 4ccc 0ebf
00000160: d197 3dbf c587 06bf 77c5 64bf 883a 02bf
00000170: c926 0dbf d795 28bf fd4d 3dbf 0b1c 38bf
00000180: 4927 0bbf 770e 05bf 0fe4 cebf 1833 55bf
00000190: 4d9f 0ebf 290e f6be c4dd 07bf 7a15 09bf
000001a0: a6f3 0bbf a342 19bf fa14 d8be 7cb4 2abf
000001b0: d94e 00bf 34d1 1abf 28d7 0ebf e856 47bf
000001c0: 5c91 46bf 3d5b 47bf 3521 68bf ed39 3dbe
000001d0: 2f77 1dbf 41a7 2ebf cb63 19bf 097e 17bf
000001e0: 271f f9be 775e 49bf 0eb6 0abf e9f2 4abf
000001f0: 3efa 2abf 62df 22bf ebb9 2ebf 46f9 2abf
00000200: 907b 9d3d 8fdb 4bbc d46a 98bc f149 5a3d
00000210: 7973 c43d bf18 a4bc 2578 31bc f836 1d3d
00000220: c4e4 aabd ad13 84bb 3e03 89bc 7dd9 a7bd
00000230: d8c7 6abc a6e0 b6bd 66f2 0b3c 3edc 873c
00000240: 2371 1cbb 511c 10bd 3ba1 64bd a787 d43d
00000250: 6bdc 56bd a7a2 933d 4d7c 973d 90d9 49bc
00000260: b220 553c 11f0 023a 5f76 29be 74ec 543d
00000270: e47e 36bd 2640 bbbc 4009 5ebb 8078 783d
00000280: c1b3 ccbd 8f57 a83d ef82 63be cd4f 813d
00000290: 21e4 4c3d f54c a23c 7407 30bd 460d e5bd
000002a0: 6bfa 813d d525 c3bc ed26 f73d 35f3 eabc
000002b0: df61 383d 39d0 b53d a3af 553d 3b78 cc3b
000002c0: f439 81bc 44fd b5bd a141 143d 042d 3f40
000002d0: 8026 793d 47ef b3bb 0b04 debd 20f1 b83d
000002e0: 6e32 74bd 2d70 393c 3ae7 afbb cb18 373d
000002f0: 26a1 0e3e 8458 80bd 0cd3 733c ee6d 9b3c
00000300: 6d8d edbf dd27 b8bf 372f 98bf 1b19 adbf
00000310: 6437 a7bf dea0 b2bf 7060 adbf cd1d a4bf
00000320: 2251 aabf 3420 acbf 3a54 abbf f0e5 9bbf
00000330: 698e b7bf 04d2 abbf f567 9dbf 3f46 92bf
00000340: b3d8 dabf a4d0 adbf 7b19 a4bf cecd c4bf
00000350: e34b 9cbf 06a3 93bf 8fd1 9cbf bcb9 babf
00000360: 23e1 adbf 9a64 97bf b04a e2bf 6722 9ebf
00000370: 9103 9abf e77c a8bf 470a abbf cbad 98bf
00000380: fcbe cfbf e8b0 b1bf f24e 30bf 4e54 e5bf
00000390: 027d a4bf 6643 bdbf fedf 95bf 370c 98bf
000003a0: d724 a3bf c733 bebf 64e4 b3bf 62a2 9bbf
000003b0: cb96 b9bf 1057 a2bf 9480 a5bf d5db 9cbf
000003c0: efb8 93bf 265f 9fbf 2b86 d0bf 7ffd f63e
000003d0: edbf 98bf c998 a2bf 5e64 a6bf 3674 a4bf
000003e0: 9a59 abbf 2c07 bdbf a970 b0bf c524 d4bf
000003f0: 69ff b7bf ccb3 95bf 01f2 9bbf 6edd 95bf
-1.7292364 -1.2670999 -1.3120075 -1.2963804 -1.3598655 -1.1683692 -1.3535267 -1.2478362
-1.3103263 -1.213189 -1.397625 -1.2463416 -1.6893777 -1.281699 -1.259228 -1.4227258
-1.4612219 -1.2796022 -1.2595278 -1.4361198 -1.3826226 -1.3028201 -1.1845503 -1.2392709
-1.3834488 -1.3205681 -1.7880651 -1.1489289 -1.3605644 -1.2762885 -1.1455859 -1.2395406
-1.4101616 -1.35856 -0.7382052 -1.7968894 -1.2848647 -1.3373994 -1.281875 -1.3399769
-1.2837907 -1.4344884 -1.2858579 -1.2589622 -1.2320447 -1.1250955 -1.3377155 -1.4636151
-1.1486535 -1.5045594 -1.7383369 1.1174284 -1.2886498 -1.2766156 -1.2095118 -1.320946
-1.2642086 -1.5697507 -1.2155817 -1.6592994 -1.4777268 -1.2519282 -1.2268661 -1.350026
-1.1341176 -0.46822888 -0.53088456 -0.79695225 -0.9256603 -0.57605284 -0.5072722 -0.69071376
-0.58691114 -0.484925 -0.8256545 -0.6059901 -0.9485833 -0.45643958 -0.6894049 -0.69513786
-0.7782882 -0.54112744 -0.56155556 -0.6699581 -0.64660376 -0.6690773 -0.70001745 -0.5578048
-0.7405978 -0.5255092 -0.8936381 -0.5087056 -0.55137306 -0.6585364 -0.73947126 -0.7191779
-0.5435682 -0.51975197 -1.6163348 -0.8328109 -0.55711824 -0.48057678 -0.5307276 -0.53548396
-0.54668653 -0.59867305 -0.42203504 -0.6668165 -0.5012031 -0.6047547 -0.5579705 -0.77866983
-0.7756555 -0.77873594 -0.9067567 -0.18479128 -0.61509985 -0.6822396 -0.59917897 -0.5917669
-0.4865658 -0.78659767 -0.54184043 -0.792769 -0.6678809 -0.63622105 -0.6825244 -0.6678661
0.07689583 -0.012442484 -0.018605627 0.053293172 0.09592337 -0.020031331 -0.010831867 0.0383825
-0.08344415 -0.004030666 -0.016725179 -0.081957795 -0.014329873 -0.08929567 0.008541679 0.016584512
-0.0023871146 -0.035183255 -0.055817824 0.10377436 -0.0524563 0.07208758 0.07396755 -0.012319937
0.013008283 0.0004994879 -0.16549061 0.05198331 -0.044554606 -0.022857737 -0.0033880025 0.060661793
-0.09995223 0.082198255 -0.22217916 0.06314049 0.05002225 0.019812087 -0.042975858 -0.11184172
0.063465916 -0.02382175 0.120679714 -0.028680423 0.045015212 0.08877606 0.052169453 0.0062399185
-0.015774705 -0.08886197 0.0361954 2.9871225 0.060827732 -0.0054911706 -0.10840615 0.09030366
-0.059618406 0.011318249 -0.0053681405 0.04470138 0.13928661 -0.06266883 0.01488186 0.018973317
-1.8558785 -1.4387165 -1.1889409 -1.3523287 -1.3063779 -1.3955343 -1.3545055 -1.2821594
-1.330601 -1.3447328 -1.3385079 -1.2179546 -1.4340335 -1.3423467 -1.229735 -1.1427687
-1.7097381 -1.3579297 -1.2820276 -1.5375307 -1.2210659 -1.1534126 -1.2251452 -1.4587932
-1.3584331 -1.1827576 -1.7679043 -1.2354249 -1.2032338 -1.3163117 -1.3362511 -1.1928037
-1.6230159 -1.3882113 -0.6887046 -1.7916353 -1.2850649 -1.4786193 -1.1708982 -1.1878728
-1.2745618 -1.4859551 -1.4054074 -1.215893 -1.4499143 -1.2682819 -1.2929864 -1.2254587
-1.1540812 -1.2450912 -1.6290945 0.48240277 -1.1933571 -1.2702876 -1.299938 -1.2847965
-1.3386719 -1.4767814 -1.3784381 -1.6573721 -1.437482 -1.1695495 -1.2183229 -1.17082

bias_hh_l0 f4 [256]
00000000: 224e d2bf 8066 a0bf b6ca 93bf 3f7c adbf
00000010: 07bc b4bf f398 a4bf 2517 bebf 9930 99bf
00000020: bbc8 94bf e19a b7bf 1219 b1bf c1a1 a8bf
00000030: 1751 c2bf 0edd b0bf 9774 acbf 7331 adbf
00000040: 10f2 d1bf 1336 b1bf e476 aabf 748e c0bf
00000050: a7c8 95bf d3af afbf f839 b3bf 0e74 9cbf
00000060: 6ed3 bebf 5d5a a2bf 8929 d2bf dd72 9abf
00000070: c298 acbf 10f2 b4bf 039c 98bf 2476 a7bf
00000080: b7c5 b0bf 82f1 91bf 24f0 26bf c775 d2bf
00000090: 64eb b3bf 9ca0 b0bf 1e8d a8bf 0b68 97bf
000000a0: f68b 9fbf 97e4 adbf 635a aebf fb3f 9dbf
000000b0: 99b8 afbf 4122 99bf 08f4 a6bf a934 9cbf
000000c0: e4fd a6bf a3d0 c2bf 01dc ddbf 09b3 953f
000000d0: 008d 8fbf 54a3 9abf 7e92 a2bf e4d5 b4bf
000000e0: 0c99 8ebf e863 b6bf 8843 aebf 2a6d c3bf
000000f0: 9b34 cbbf bde8 b9bf d8b8 acbf e104 aebf
00000100: bdfb 7fbf 535b 11bf f316 1bbf 4e1c 2fbf
00000110: e722 65bf 3aba 07bf f240 edbe b43e 0ebf
00000120: 1a23 17bf 3c0e 09bf 06ed 41bf ea71 27bf
00000130: e197 6bbf 7f22 25bf 6607 20bf d485 45bf
00000140: 117a 52bf c661 32bf 1f6d 1cbf b7c5 3bbf
00000150: cf64 25bf a651 06bf a1db 29bf 4bb3 02bf
00000160: 7320 10bf e6ef 1ebf bde7 75bf 1e54 23bf
00000170: ea3b 18bf 654d 2bbf ac9a 0fbf d717 14bf
00000180: a01b 24bf 54d9 16bf 8970 cbbf 92a4 72bf
00000190: 2152 46bf a109 10bf 470a 11bf cf9d 17bf
000001a0: f46d d2be 21be 44bf 9735 00bf d759 1fbf
000001b0: fb01 f2be cde2 12bf 7212 26bf 9cae 48bf
000001c0: 3463 43bf d960 3bbf ebe0 56bf 1e3c 8ebe
000001d0: 3f93 0abf 6200 30bf f82f 11bf 76e8 1ebf
000001e0: 203d 24bf 85b1 0fbf bbdc cfbe 19d4 37bf
000001f0: 0639 0abf bf5c 25bf 5f11 1ebf 058c 26bf
00000200: 5318 043e 2df3 f03c a615 9d3c 3fbc 98bd
00000210: 2fa8 d1bd dde1 ad3b bfae a43c 4e4f 31bd
00000220: e811 aa3d bbf7 adbc 8307 9539 81f4 b83d
00000230: f486 1c3d 74a8 c13d ac14 08bc 8b62 e1bb
00000240: 1d62 083e 3caf e4bb aff5 343d c7d6 8ebd
00000250: 25cd 5a3d b88f 6abd e393 a4bd 075e 073b
00000260: ed20 f53b 0e2b 2cbc 6715 0abc d68f 55bd
00000270: ccfc 243d a282 ed3c a0e4 b8bb 3d1a 95bd
00000280: 2582 f33d 4ba0 93bd 292c 573b 756c d63d
00000290: 6b49 10bd c698 de39 263d 5c3d 2ecf d93d
000002a0: 56ea 81bd 3db3 9a3c 5761 e8bd d88b 803c
000002b0: dd1b 0bbd 5563 abbd b644 f2bc 6faa c7bc
000002c0: 59fa 913c ec9e 983d 8006 053e 0453 3f40
000002d0: e53a 87bd a1b2 a9bb c744 e73d 1ea8 b6bd
000002e0: 24ce 8f3d ce14 77bd 2d48 7cbb c6d7 2fbe
000002f0: 6488 a1bd f162 8a3d c6b7 76ba 40a1 9abc
00000300: 7b25 e0bf fc6b aabf b3c6 9fbf 1fe8 a7bf
00000310: 42a0 b1bf e8f4 a6bf 7e06 b8bf 7328 9abf
00000320: 1c0f 9bbf 733d b1bf a1ed aebf 9a58 aebf
00000330: e9fb b3bf e6a0 9cbf 2900 99bf e20c 93bf
00000340: fd94 dcbf c605 a8bf e4c6 9fbf 0c0e b8bf
00000350: 0d85 9cbf 16d7 8cbf 551d 94bf d694 b4bf
00000360: 2b36 a0bf 26d1 9abf ae3f e5bf 6158 a9bf
00000370: 0b70 a0bf 9027 9ebf ef22 a3bf ff98 b0bf
00000380: ce4e c2bf a4a4 a7bf 4652 31bf 8254 dbbf
00000390: 55d1 a8bf fd1d 9ebf e23b 96bf fa4a aabf
000003a0: 8363 a5bf 7b67 b6bf 5a64 a7bf db9f 94bf
000003b0: 46f5 afbf ea95 a4bf e81e abbf d3f0 b2bf
000003c0: 2450 b1bf 4215 a9bf bfed e2bf 7f60 0a3f
000003d0: 73e5 a4bf b772 abbf 91a6 96bf 027b a3bf
000003e0: a465 abbf 9ef9 b1bf 9744 afbf 07e2 d3bf
000003f0: 3f54 b8bf ab4b a5bf 38df a1bf cc53 8bbf
-1.6430094 -1.253128 -1.1546237 -1.3553542 -1.4119881 -1.2859176 -1.4850813 -1.1967956
-1.1623758 -1.434414 -1.3835776 -1.3174363 -1.5180997 -1.381746 -1.347308 -1.3530716
-1.6401997 -1.3844627 -1.3317533 -1.5043473 -1.1701859 -1.3725532 -1.4002066 -1.2222917
-1.4908273 -1.2683827 -1.6418926 -1.2066303 -1.3484118 -1.4136372 -1.1922611 -1.3082929
-1.3810338 -1.1401827 -0.65210176 -1.6442193 -1.405621 -1.3799014 -1.3168066 -1.1828626
-1.2464588 -1.3585385 -1.3621334 -1.228515 -1.372821 -1.1963578 -1.3043222 -1.2203571
-1.3046231 -1.5219921 -1.7332765 1.1695262 -1.1214905 -1.2081094 -1.2700956 -1.4127774
-1.1140456 -1.4249239 -1.3614359 -1.5267689 -1.5875429 -1.4524151 -1.349391 -1.3595239
-0.999935 -0.56779975 -0.6058189 -0.68402565 -0.8950638 -0.53018534 -0.46338612 -0.5556443
-0.59037936 -0.53537345 -0.75752294 -0.65408194 -0.92028624 -0.6450576 -0.6251129 -0.7715733
-0.8221751 -0.6968044 -0.61104006 -0.73348564 -0.64606947 -0.52468336 -0.6635075 -0.5105483
-0.56299514 -0.62084806 -0.9605673 -0.6380023 -0.5946642 -0.6691497 -0.56095386 -0.57848877
-0.6410465 -0.58925366 -1.5893718 -0.94782364 -0.7746907 -0.5626469 -0.56656307 -0.5922517
-0.41099513 -0.76852614 -0.5008177 -0.6224646 -0.47267136 -0.5737732 -0.64871895 -0.7839143
-0.76323247 -0.7319465 -0.8393695 -0.2778024 -0.5413093 -0.68750584 -0.5671382 -0.6207346
-0.6415577 -0.5613025 -0.4059809 -0.7180801 -0.5399326 -0.64594644 -0.61745256 -0.650574
0.12899904 0.02941283 0.019175362 -0.0745778 -0.102371566 0.005306466 0.020102857 -0.04328852
0.083041966 -0.021236291 0.0002842509 0.090310104 0.03821464 0.09455958 -0.00830571 -0.0068782023
0.13318677 -0.0069788974 0.044179615 -0.06974559 0.053418297 -0.057265967 -0.0803602 0.002065541
0.0074807317 -0.010508312 -0.008427954 -0.052139126 0.04028015 0.028992955 -0.0056424886 -0.07280395
0.118900575 -0.07208308 0.0032832718 0.10469905 -0.035226267 0.00042456965 0.053769253 0.106352195
-0.06343524 0.018884296 -0.11346691 0.015691683 -0.03396212 -0.083685555 -0.02957378 -0.024373261
0.01781957 0.07452187 0.12990761 2.9894419 -0.0660303 -0.005178765 0.11292415 -0.089187846
0.0702174 -0.060322575 -0.0038495169 -0.17172155 -0.078873426 0.06757153 -0.00094115396 -0.018875718
-1.7511438 -1.3314204 -1.2482513 -1.3117713 -1.3877032 -1.304349 -1.4376981 -1.2043594
-1.2113986 -1.3846878 -1.3666269 -1.3620789 -1.4061252 -1.2236602 -1.1953174 -1.1488307
-1.7232968 -1.3126762 -1.2482572 -1.4379287 -1.2228104 -1.1003139 -1.1571451 -1.4107921
-1.2516531 -1.2095077 -1.7910058 -1.3230096 -1.2534193 -1.2355824 -1.2745036 -1.3796691
-1.5180299 -1.3097119 -0.69266164 -1.7135165 -1.3188883 -1.2352902 -1.1737025 -1.3304131
-1.2920994 -1.425033 -1.30775 -1.1611284 -1.3746727 -1.285825 -1.3368807 -1.3979744
-1.3852582 -1.3209612 -1.7728804 0.5405349 -1.2882522 -1.3394383 -1.1769582 -1.2771914
-1.3390393 -1.3904302 -1.3692807 -1.6553353 -1.440071 -1.2913717 -1.2646246 -1.0884948

weight_ih_l0_reverse f4 [256, 1]
00000000: aa44 27c0 3d8e a4be 1d2e a43f e210 a2bf
00000010: 2055 a7bf 5bb2 5dbe ce1e 90bf b575 22bf
00000020: c66a 45bf 0f39 11be 3be6 92bf 32f4 98be
00000030: c5e5 42bf fb0b 40bf f3af 08bf dfda 32bf
00000040: ddf7 f9be 5cd5 34c0 4e3a c6be a0e0 30bf
00000050: 18d9 543f 49cc 0a3f 182a 0bbf 41f4 e2bf
00000060: 8622 f6bf 870e c7be 2f65 17bf f5f3 763f
00000070: cc18 7dbe 594a a5bf a3b5 99bf e3a2 3fbf
00000080: f48e 00c0 1305 fbbf 6da6 2bbf 6c11 903e
00000090: 73b7 80bf 6822 9d3f a1ce 0dbf ff1f f7bf
000000a0: 4175 dbbe 6c58 843f 8fd4 dfbe 560f 78bf
000000b0: 6787 19c0 a19c b1be a729 cabe a715 913e
000000c0: 1ae8 c4be dda6 5dbf fb68 84bd b9ab 9bbf
000000d0: 5d7c 07c0 921d e33f 126c 06bf 94e4 b13f
000000e0: 10c7 ebbe c955 92bf 824f 14bf b7b4 44bf
000000f0: 4c6b afbe a136 11c0 5693 b0bf 6f35 5e3e
00000100: a3e3 853e fb3f 87bf d85d d03e 28a9 43bd
00000110: 9527 f2bd 0564 69be e5f3 103f 21a4 5c3f
00000120: 3f8e 88bf c4af c73e c9b2 47be 69e6 8a3e
00000130: 0e85 0ebd 720b 903e eeb4 7e3d b168 1cbe
00000140: dc20 85bc 4dd5 f53e 9d3c 9e3f 6211 303f
00000150: d792 fe3e bbba 693f e25c 023d a384 4f3f
00000160: ffda 593e c1fa 87bf a468 1bbf c721 f63f
00000170: 17de 033f dfed c9bf 6bae 90be 78f6 d83d
00000180: 33c5 023e 14d3 d2be d74a 5dbc aade 80bf
00000190: b577 99be 28dc a93f dff6 1fbb 42e0 9abf
000001a0: 7f0d 733f 2a65 bfbf 03ea 5a3f a2c4 f5bd
000001b0: 270a a63f aec6 5abc 684e c93e b522 c8bf
000001c0: b834 0a3f a2c7 8abe 15fb 90bf 6b7f b0be
000001d0: 72d0 103d 533c 3b40 f63c 3d3d 830e 9e3f
000001e0: 4e14 1d3e 1716 19bc a21e e6bd 915a 953f
000001f0: 971d 4b3e 632a 40bd 7f2b 6bbd ed4c 8cbf
00000200: f2ef b9bd 4ce0 3ebf 655b 44bc 09af 58bb
00000210: 76b1 263a 9b35 f7be e027 8abc c47f 723c
00000220: 7ad0 163c ec2c 26bf f0e1 8d3b 6c70 22bd
00000230: 58fc f13b 3342 773d 6821 0039 f506 3abb
00000240: aac2 1b3c 6e03 bb3d f871 f93c 1aef e9bd
00000250: 47f5 a4bf 4a2c 3dbd 1a01 473b 8b4b 17be
00000260: 8a1d 94bd 3d0d ab3c 3703 06bf e52e 823f
00000270: efdf 69be 6a4a 0d3d 6d1d c4bb 9b5c 02bc
00000280: 34db b83f cb0d 35bb 16df 253c 25f7 383c
00000290: 4746 b0bb 80f3 b8bf ce39 243a e90a 4abd
000002a0: f681 0fbc 2a26 9f3f 1fa0 f1bc 2ed5 06bf
000002b0: c61d f73f 3109 e7be 133b 223c 3380 83bf
000002c0: 8a7d f93c 1b41 823b 7a1c 6bbf b767 473c
000002d0: 9d5d 42bf 0bc3 d03f 59e0 89bb ddd3 c93f
000002e0: 758a 793c 8797 b63b 9003 943a 685a a03d
000002f0: b081 1f3c 9396 0bbd 514e f3be aae9 84bf
00000300: 026f 25c0 9b5e a1be 3397 e43f d70f 9dbf
00000310: f9c8 d9be 93c9 a3be 2ec4 fdbf 2cbb f6bd
00000320: 5de7 a3bf c3a2 41be bb09 b9bf d3e7 b6be
00000330: 4e73 0bbf 5e78 72bf 3d15 0cbf 555c 3cbf
00000340: 9f1c 01bf b8cd 9fbf 55e4 eebe f0b6 47bf
00000350: e9a0 7b3f 372d 3bc0 2d26 e6be 7a51 bfbf
00000360: eb18 94bf db8c dbbf 56f4 0bbf 1671 3d3f
00000370: 13c9 5abe 6ee3 c2be ebaf 95bf 7ee3 15bf
00000380: 7d85 59bf b184 d4bf 032a 9bbf e855 ac3e
00000390: 73ea 96bf 5405 b53f 2140 04bf 49ec f0bf
000003a0: af77 2ebf 2ca5 923f 079a 4bbf 8814 85bf
000003b0: de2f 34c0 7c56 9fbe 06b3 b5be a9b7 ab3e
000003c0: 5554 b0bc 4bc5 6fbf b32d ab3d 8d41 92bf
000003d0: f797 febf 5506 fa3f 98d8 ecbe 629e c63f
000003e0: d25a 7dbe e195 6cbf 3c5f 23bf cba4 a33d
000003f0: a760 d9bd 1411 62bf e0db acbf 7317 b93e
-2.613566 -0.3213977 1.2826573 -1.2661402 -1.3072853 -0.21650068 -1.1259401 -0.63460857
-0.7711605 -0.14181922 -1.1476511 -0.29873806 -0.7613185 -0.7501828 -0.5339348 -0.6986522
-0.48821917 -2.8255224 -0.38716358 -0.6909275 0.8314376 0.54217964 -0.54361105 -1.773079
-1.9229286 -0.3887827 -0.5913877 0.96466 -0.2471649 -1.2913314 -1.2008556 -0.7485792
-2.0087252 -1.9610924 -0.6705082 0.28138292 -1.0055984 1.2276125 -0.55393416 -1.930664
-0.42862895 1.0339484 -0.43716857 -0.968984 -2.3988893 -0.3468981 -0.39484903 0.28336832
-0.3845833 -0.8658274 -0.06465336 -1.216178 -2.1169655 1.7743399 -0.5250865 1.3897882
-0.4605031 -1.143243 -0.5793382 -0.7683825 -0.3426155 -2.2689593 -1.3794963 0.21700071
0.26150236 -1.05664 0.40696597 -0.04776874 -0.11823956 -0.2279206 0.56622154 0.8618794
-1.066841 0.39001286 -0.19501795 0.27128914 -0.03479486 0.28133732 0.062184267 -0.15274312
-0.01625102 0.48014298 1.2362248 0.68776524 0.49721405 0.91300553 0.03182686 0.8106176
0.21274947 -1.0623399 -0.60706544 1.9229058 0.5151076 -1.5775717 -0.2825807 0.10593885
0.12770538 -0.41176665 -0.013506613 -1.0067952 -0.29974142 1.3270311 -0.0024408621 -1.2099688
0.9494247 -1.4952748 0.85513324 -0.12000395 1.2971848 -0.013353033 0.39317632 -1.5635592
0.5398669 -0.27105433 -1.1326624 -0.34472212 0.03535504 2.925557 0.046200715 1.2348179
0.15339777 -0.009343646 -0.112363115 1.1668264 0.19835506 -0.046915423 -0.057414528 -1.0960976
-0.09078969 -0.74561 -0.011984681 -0.0033063313 0.0006358841 -0.48283085 -0.016864717 0.0148009695
0.009204978 -0.64912295 0.0043299124 -0.039657995 0.007384818 0.060365867 0.00012219476 -0.0028385494
0.009506861 0.091315135 0.030449852 -0.11422558 -1.2887353 -0.046184815 0.0030365647 -0.14774911
-0.07232197 0.020880336 -0.52348655 1.0170561 -0.2283933 0.034494795 -0.005984953 -0.007956649
1.4441895 -0.002762663 0.010123989 0.011289393 -0.0053794715 -1.444931 0.0006264717 -0.04932681
-0.008759012 1.2433522 -0.029495297 -0.52669036 1.9305961 -0.451242 0.00990178 -1.0273498
0.03045537 0.0039750463 -0.91840327 0.012170724 -0.7592409 1.6309522 -0.0042076525 1.576778
0.015230765 0.0055722627 0.0011292566 0.078297436 0.00973551 -0.034079146 -0.47520688 -1.0383809
-2.5849004 -0.3151749 1.7858642 -1.2270459 -0.42536142 -0.31989726 -1.9825494 -0.12047419
-1.2804981 -0.18909745 -1.4456095 -0.35723743 -0.54472816 -0.94714916 -0.5471991 -0.7357839
-0.504343 -1.2484655 -0.4665858 -0.78013515 0.98292404 -2.9246347 -0.44951 -1.494674
-1.1570104 -1.7152361 -0.546697 0.7400068 -0.21365766 -0.3806414 -1.1694311 -0.5855025
-0.8496931 -1.6602994 -1.2122196 0.3365929 -1.1790298 1.4142251 -0.5166035 -1.8822109
-0.6815137 1.1456656 -0.795319 -1.0396891 -2.8154216 -0.3112067 -0.35488147 0.3353856
-0.021524588 -0.9366042 0.08358326 -1.1426255 -1.9890126 1.9533182 -0.46258998 1.5517085
-0.24741676 -0.924162 -0.6381719 0.07990416 -0.10614138 -0.8830731 -1.35046 0.36150703

weight_hh_l0_reverse f4 [256, 64]
00000000: 87da 763f 8e4c 793e be0a f6be 6e9a c7bc
00000010: 5059 97be 10d7 e63e e95b d23e 8bd0 e5ba
00000020: 0ec7 f43e d089 3c3e 9d9c e83d cb72 93bd
00000030: a849 c4bd 3a70 19be 0ef8 883c 3655 893d
00000040: 41fc 04bd b7b4 7d3f 76ca ef3e 6e63 1ebd
00000050: 4dd2 82bf c705 0b3f f95c 42bd 2e4b d43e
00000060: 635e 423f d378 833f 7341 723d 16af fa3e
00000070: 65ba f53b f4b8 043d 1e10 12bd cd08 a0bd
00000080: c80c c63f 40f5 c03e 3af3 58be cd00 ce3e
00000090: e849 223c 0bec 48bf aa1c 81bb bf35 d8be
000000a0: 74cf 883d 11a5 acbe d0cd e9bd f15d 303d
000000b0: 542c 85bf 4062 053e 7bea c6bd bc16 bc3e
000000c0: 26d9 80bd ddb4 12bb a55a b83d 2897 14be
000000d0: 172b 493d 80db 203e 2ff2 f23d c599 0a3f
000000e0: 52ed 623d 7c22 e23e cd1b b0ba cbca 3fbf
000000f0: 5bf8 40be cc60 77be af48 103e bbb6 0cbe
00000100: b92b e33d 4c45 e2bd e4af b2bd 57f8 1bbe
00000110: 49e8 aa3d 1da7 7e3d 8dcd bd3c 0f04 ae3d
00000120: 132f 113d ee1c 053e b0d0 4d3d 6033 0d3e
00000130: 2aed 0dbd b682 953c 9e97 133d 4b0b 0e3e
00000140: 0cf0 5fbd bfd7 d83d ecea c03c 754f 85bd
00000150: 5a95 ae3e 1169 dc3e bb27 623d 707b 473d
00000160: ad46 d6be 24a9 46bd 28ba 31be 5f6f 9ebb
00000170: 900d 03be 15b0 8fbd ce6f 953d bb5d fb3d
00000180: 9f8b 64be 6b6a 4dbe b622 d63d 2485 3abd
00000190: 6e16 d1bb 484c ee3e 57e2 56bd b7fa dd3c
000001a0: c168 15be dfb4 90be ea96 f23c 58f6 62bd
000001b0: 3388 033f c152 3a3d 76aa bd3d e376 533e
000001c0: 3b07 13be 42aa 9ebd 499e 6b3e 7d84 0dbe
000001d0: 179e babd 31df febe c01a b1bd 15e9 eebe
000001e0: c627 1bbd 785e 07bd c840 36bd b0e8 93be
000001f0: 1bd4 f9bd 3f5f d03b 31f9 a5bd 6645 8d3e
00000200: 049d 083d 335b 31be 0151 773d 0fa7 85be
00000210: 249d 593c d49a 01be c1ec 1ebe e937 47bd
00000220: a599 73bf 90ba 7abe 2c1b b93e 2461 10be
00000230: 2634 5fbe 0e7f 60be a862 e1bc f2a7 3d3c
00000240: e4cf 283e 945d 613e c648 f83c 9173 01bd
00000250: dd61 32bf 6a20 c3be 6117 893d 2ea7 ad3e
00000260: e669 c33e a55f 523f 43ae 973d 14c4 453e
00000270: 35f4 b8bd c468 a43f b6df ee3c 8b18 d63d
00000280: 88e4 7e3d a41e 833f 00d6 003e 4c96 45bf
00000290: 63ff d1bc 8022 56bf fa60 4d3d 1fa4 143d
000002a0: 8dd2 babd 2114 c03f d9b5 4d3e 6cf7 9b3c
000002b0: a908 88be 827d 4ebe 21b6 5c3e bf47 14bf
000002c0: 90d8 d4be 5efc 563e eb73 a7be 4bcf 96bc
000002d0: ed0b 15be b91d c13f 3d1b 1cbd 1a62 043f
000002e0: 04db 1f3e 0d41 a23e 3b19 af3d b926 07bf
000002f0: b7ef b6be ba4d 0b3f 2c42 37be 4a0a 02bf
00000300: d11d 593d 2309 f6bd 1364 2b3e 42c9 adbd
00000310: ff23 a4bb 5758 753d 4ff9 03be 5c19 96bc
00000320: a7c0 e6bd 3f27 a63d 2765 8d3c 662f 18bd
00000330: 7b0d b83d 2654 28bd 93c7 21bd cf81 76bb
00000340: 77f8 a63c 5771 7fbd de32 b73d 3efe 903c
00000350: 2149 8e3e f4e3 033e b105 ea3d f746 d9bd
00000360: 42d0 5fbb 3630 fa3b 1d3d d3bd ede0 f53c
00000370: 0350 4fbd e7d8 8c3d 2df4 4b3d 9e4e 283d
00000380: d668 1fbe 51b3 aabd 1791 f9bc e741 203e
00000390: 4373 ecbd 0e75 b63e 2280 82bd 4b09 ef3d
000003a0: af7b 853d 256f 21bd 3917 d33d d684 cabd
000003b0: c027 713e 8901 acbd 1020 92bc 968e 2c3c
000003c0: 7bde a8bd 734b 55bd f682 0dbd d0f7 8ebd
000003d0: 4457 28be 8962 5abe b52f 103b e522 05be
000003e0: ba4d 9e3d 298b 07bc 7620 88bd 7c4b bfbd
000003f0: aefd d43d 3406 11bd 0815 223d 17b4 1c3d
0.96427196 0.2434561 -0.4805507 -0.02436563 -0.29560328 0.45085955 0.41085747 -0.0017533464
0.47808117 0.18411946 0.113579966 -0.071996294 -0.09584361 -0.14984217 0.016719844 0.06705706
-0.03246713 0.99103874 0.46834153 -0.038669042 -1.0220429 0.5430569 -0.047451947 0.41463608
0.7592527 1.0271248 0.05914445 0.48961705 0.0074990266 0.032402948 -0.0356599 -0.078141786
1.547265 0.3768711 -0.21186534 0.40234986 0.009905316 -0.78485173 -0.0039401846 -0.42228505
0.066801935 -0.33719686 -0.11416209 0.04305834 -1.0404153 0.1302576 -0.09712692 0.36736095
-0.06291418 -0.0022385635 0.09001664 -0.14510787 0.04911336 0.15708733 0.11862599 0.54140884
0.055402108 0.44166934 -0.001343602 -0.7491881 -0.1884474 -0.24158019 0.14090227 -0.13741581
0.11092324 -0.110483736 -0.08724955 -0.15231453 0.08345086 0.06217109 0.023169303 0.08496868
0.035445284 0.12999317 0.050247848 0.1378913 -0.034650005 0.018250804 0.036033265 0.13871495
-0.054672286 0.10588025 0.02354952 -0.06509296 0.3409832 0.4304891 0.05521367 0.048701704
-0.41850796 -0.04850115 -0.17356169 -0.004835054 -0.12798142 -0.07016007 0.07296716 0.12273737
-0.22318886 -0.20060126 0.10455839 -0.04553713 -0.0063808477 0.46542573 -0.05246195 0.02709709
-0.14590742 -0.28262994 0.029612977 -0.055410713 0.513797 0.045489077 0.092610285 0.2065082
-0.14358227 -0.07747318 0.230096 -0.13820072 -0.091121845 -0.49779657 -0.0864768 -0.46662202
-0.037879728 -0.033049077 -0.044495374 -0.28888464 -0.12198659 0.0063590105 -0.0810417 0.2759201
0.033352867 -0.17319946 0.060379986 -0.26104018 0.013282094 -0.12656718 -0.15520002 -0.048637304
-0.9515632 -0.2448523 0.36153543 -0.14099556 -0.21797237 -0.21923468 -0.027512863 0.011575686
0.16485554 0.22008353 0.030308139 -0.031604353 -0.6968058 -0.38110667 0.06693912 0.3391661
0.38166732 0.8217719 0.07406285 0.19313079 -0.09030954 1.2844472 0.029159408 0.104539
0.062229663 1.0243726 0.12581635 -0.7718246 -0.025634473 -0.8364639 0.050141312 0.03628933
-0.091221906 1.5006143 0.200889 0.019038878 -0.26569107 -0.20165065 0.21553852 -0.57921976
-0.41571474 0.20994708 -0.32705626 -0.018409392 -0.1455533 1.5087196 -0.038111914 0.5171219
0.15610892 0.31690255 0.08549734 -0.5279346 -0.35729763 0.54415476 -0.17896336 -0.5079695
0.05300695 -0.120134614 0.16737394 -0.084856525 -0.005009174 0.0598987 -0.12888072 -0.01832264
-0.11267214 0.08112954 0.017260147 -0.037154578 0.08986946 -0.041095875 -0.03949697 -0.0037613993
0.02038215 -0.06236395 0.08945249 0.017699357 0.27790168 0.12879926 0.11426867 -0.106092386
-0.003415123 0.0076351417 -0.10314391 0.03001448 -0.050613414 0.06877308 0.04979341 0.0410906
-0.15567335 -0.08334983 -0.030464692 0.1565014 -0.11545422 0.3563618 -0.06372096 0.11671694
0.065177314 -0.039412636 0.10307164 -0.09888618 0.2355032 -0.0839873 -0.017837554 0.010532042
-0.0824556 -0.052073907 -0.034548722 -0.0698086 -0.16439539 -0.2132665 0.0022001092 -0.13001592
0.07729669 -0.008272924 -0.066468164 -0.093405694 0.10399948 -0.035406306 0.03957084 0.038257685

bias_ih_l0_reverse f4 [256]
00000000: 9b87 acbf ac98 16c0 ee16 c3bf 8b56 aebf
00000010: 2f1f f7bf b9c7 09c0 9943 82bf b6f4 e4bf
00000020: f78f 133f d99d 15c0 1d59 92bf f97b e9bf
00000030: d24a a7bf ddbd b8bf e5cf 91bf 8b34 a4bf
00000040: 3b9e cfbf f1dd c1bf 8edd e3bf c646 f1bf
00000050: 8dbe 07c0 3166 933c 877c a0bf 4f8e fbbf
00000060: 9093 f1bf b3c8 dabd 86ae 0bc0 1d53 06c0
00000070: 8a6f 06c0 c9c4 273f 8455 c4bf e705 a9bf
00000080: 8a83 b8bf f133 32bf 74fd a4bf b15d 01c0
00000090: 6ff0 a8bf 7b6f abbf d6d3 9dbf 5d6f 153c
000000a0: 30b8 ffbf b6e1 f6bf 5f03 b5bf eda0 0ac0
000000b0: eace b63f 08c6 0ac0 6ba9 c5bf 4b0f 1ac0
000000c0: f3f2 dbbf 97e2 87bf e88d 16c0 65df b1bf
000000d0: 58f8 f0bf 655c aebf 32fe 97bf 11a6 97bf
000000e0: e364 b8bf b4b0 8fbf a7e9 a3bf a4d5 28c0
000000f0: 05ba debf 5a21 c0bf 319d f7bf fb40 17c0
00000100: 2e97 343f c57f 2cbf 2e39 01c0 c631 e8be
00000110: 60bb 05be 327a 42bf 15f1 a23d 8cdf 84be
00000120: 7365 ddbf 1274 18bf 1689 fcbe f218 8abe
00000130: 2090 48be 1826 0bbe a9c6 6abe 65c2 5ebe
00000140: 5995 aabe ae58 c93e 4fca 86bf 89bc b9be
00000150: c355 893f 5f26 483f 4626 86bd 249b 0f3f
00000160: 04f0 46be b3ec 69bf e763 3abf 5e32 4dbf
00000170: 2496 4abf b14a 02c0 d76b edbe 8a06 8bbe
00000180: 68c4 d3be aaa7 de3e 1368 d93c c89b 77bf
00000190: 2956 97be c733 2540 fb10 8cbe 6117 9cbf
000001a0: 6af0 08bf 1c58 b9bf b164 7cbf c88d d5be
000001b0: 9f87 9c3e 0306 5fbf 464f ddbe 018d b3bf
000001c0: 0ce1 dbbe dbb4 25be 2b63 88bf 0105 f8be
000001d0: fe21 50bf ac29 0840 ce60 e2bd b47a 2e40
000001e0: c9a9 e7be cb9e 063e 0518 34be 1b0f 91be
000001f0: 8af2 3abf 2e9c 4dbe ee97 11bf 8a8e 93bf
00000200: 667c 86bc b18c d33e 7bae 6cbd 3af8 193c
00000210: 7f36 743c 0ce9 893e 4905 cdbc 047f b9bd
00000220: 458f 0c3d 0385 d83e 51ad b13b d321 f0bc
00000230: 8b47 ab3c 1e8a c4bc da42 04bd 8157 903c
00000240: df52 6ebd 6e16 473d 003d 4fbd 6caf 333d
00000250: 6c70 773f 82d7 803d b49d 12bd 02ce 773c
00000260: a9d3 193c 3bed 973d a750 b53e a28c b2be
00000270: e16e df3d 9fcc 4bbc e1d9 1fbc b48d c73c
00000280: 9e1a 94bf 66dd a5bd fcdc 9c3c 10a4 463c
00000290: 714d 3a3d be24 483f 37d1 673b ef61 263d
000002a0: dc09 70bc bd17 93bf a296 41bd cf44 c63e
000002b0: 7505 21c0 49ff 843e b35b 913c 2b72 413f
000002c0: 3efb c73d 5b6a 32bc 4e88 283f 3105 30bd
000002d0: 6d1f 3b3f 93ac 60bf 4b72 1f3b 2d66 67bf
000002e0: eb82 8c3d 0d35 4abd 3c7b 183c cf7f 85bd
000002f0: 9e6b 11bc fd53 5dbd b9a6 e43e 3471 543f
00000300: 6673 10be 0162 09c0 9d88 e2bf 8216 8dbf
00000310: c233 fdbe f5bd 0ac0 91f5 b8bf 0ab2 d0bf
00000320: a2fe 973d ca7a 07c0 7de3 98bf ff95 d4bf
00000330: fb1a babf d4f0 c3bf 4b93 b1bf 361e b2bf
00000340: c12a cebf a549 b73d 4545 fabf 699b f6bf
00000350: 498c 06c0 2774 1f3e e6ca b5bf 67d8 31bf
00000360: b2f3 e8be 612e ddbe b0c2 06c0 bea1 05c0
00000370: 7be8 00c0 6ee8 bb3f e6ef bdbf 95d6 9dbf
00000380: e345 47bf 5ef1 503f 386e bdbf 0e2a 02c0
00000390: 4fef 9bbf dda1 aabf 9b2f a0bf a1c8 ca3d
000003a0: 40f9 fabf d653 f3bf 707d c6bf dc18 05c0
000003b0: fa08 983f a598 0cc0 353c afbf 5c3b 12c0
000003c0: f40b ddbf 123d 9bbf 6780 10c0 6bf0 adbf
000003d0: e349 efbf 9a23 c1bf 0104 9fbf 18a1 94bf
000003e0: c75a c7bf c442 e1be 8025 a5bf e706 8fbf
000003f0: a92b d6bf 1f50 c7be 9c5a 00c0 cbfc 11c0
-1.3478884 -2.3530684 -1.5241373 -1.3620161 -1.9306391 -2.152815 -1.0176879 -1.788718
0.5764155 -2.3377593 -1.1433445 -1.8240958 -1.3069708 -1.4432942 -1.1391569 -1.2828535
-1.6220163 -1.5145856 -1.7801988 -1.8849723 -2.1210053 0.017993065 -1.2538003 -1.9652804
-1.8873158 -0.106828116 -2.182527 -2.0988228 -2.1005578 0.65534645 -1.5338597 -1.3204926
-1.4415143 -0.69610506 -1.2889848 -2.0213435 -1.3198375 -1.3393396 -1.2330272 0.009120789
-1.9978085 -1.9287632 -1.4141654 -2.1660721 1.4281895 -2.1683369 -1.5442327 -2.4071834
-1.7183517 -1.0616025 -2.3524113 -1.38963 -1.8825788 -1.3621947 -1.1874449 -1.1847554
-1.4405788 -1.12258 -1.280568 -2.6380396 -1.7400519 -1.5010178 -1.9344846 -2.363341
0.7054318 -0.6738246 -2.019115 -0.45350474 -0.13059759 -0.75967705 0.07956139 -0.25951803
-1.7296585 -0.5955211 -0.49323338 -0.26972157 -0.1958623 -0.1358875 -0.22927345 -0.21753843
-0.33317068 0.3932547 -1.053049 -0.36276653 1.0729297 0.7818355 -0.06550269 0.560961
-0.19427496 -0.913768 -0.7280869 -0.8015498 -0.79135346 -2.0358088 -0.46371338 -0.27153426
-0.41360784 0.43487293 0.026538884 -0.9672208 -0.29557922 2.5812852 -0.27356705 -1.2194635
-0.5349184 -1.4480014 -0.9859114 -0.41709733 0.3057222 -0.8711855 -0.43224543 -1.4027406
-0.42945135 -0.16182272 -1.0655264 -0.48441318 -0.8130187 2.1275434 -0.1105362 2.7262392
-0.45246723 0.13146512 -0.17587288 -0.28331837 -0.73026335 -0.20079109 -0.5687245 -1.1527874
-0.01641674 0.41318277 -0.057783585 0.009397561 0.014905571 0.26935613 -0.025026934 -0.090574294
0.03431632 0.4228898 0.0054222723 -0.029313004 0.020908138 -0.02399164 -0.032290317 0.01761985
-0.0581845 0.048605375 -0.050595284 0.043868467 0.9665592 0.06291105 -0.03579493 0.0151248
0.009388843 0.07418295 0.35413095 -0.3487292 0.1090982 -0.012438922 -0.009756536 0.024359562
-1.1570623 -0.08098869 0.019148342 0.0121240765 0.04548401 0.78181064 0.0035372504 0.04062074
-0.014650788 -1.1491619 -0.047262795 0.38724372 -2.515958 0.25976017 0.01774392 0.7556483
0.097647175 -0.010889615 0.65832984 -0.0429737 0.73094827 -0.8776333 0.0024329599 -0.9039028
0.06860908 -0.049367 0.009306725 -0.06518518 -0.008875756 -0.054035176 0.4465845 0.82985234
-0.14106521 -2.1466067 -1.7697941 -1.1022494 -0.4945355 -2.167844 -1.4449941 -1.6304333
0.07421614 -2.1168694 -1.1944424 -1.6608275 -1.4539484 -1.530787 -1.3873075 -1.391547
-1.6106797 0.089495935 -1.9552389 -1.9266177 -2.1023123 0.15571652 -1.4202545 -0.6947083
-0.45498425 -0.43199447 -2.1056328 -2.087997 -2.0141895 1.4680307 -1.4838836 -1.233111
-0.77841014 0.816183 -1.4799261 -2.0338168 -1.2182406 -1.3330647 -1.2514528 0.09901548
-1.9607315 -1.900996 -1.550703 -2.0796423 1.187774 -2.1968167 -1.3690249 -2.284873
-1.7269273 -1.2128012 -2.257837 -1.3588995 -1.8694423 -1.508899 -1.2423097 -1.1611662
-1.5574578 -0.4399625 -1.2902069 -1.1173981 -1.6732074 -0.38928315 -2.0055304 -2.2810543

bias_hh_l0_reverse f4 [256]
00000000: 67c4 aabf a8f4 0fc0 12e2 c5bf adf7 a6bf
00000010: 2d68 e6bf 61e0 0dc0 4d90 85bf da56 dfbf
00000020: 2577 043f 87dd 0fc0 595c 87bf e514 d9bf
00000030: 1ca3 a4bf 45fc b6bf dff6 adbf dd9f b8bf
00000040: 5b8c e1bf 21ce cbbf e636 e4bf a045 fcbf
00000050: 3869 fbbf 21c6 c13c 7314 92bf f9a7 04c0
00000060: b2a3 efbf 3e78 bebc aa9c 0ec0 d33b 06c0
00000070: 64d2 01c0 2d22 3c3f 1ca3 b7bf 9d12 a4bf
00000080: aa27 b4bf 615a 10bf 5686 a3bf 2d95 07c0
00000090: 6bc8 a2bf 85d8 b7bf 1caf 97bf 6fdc 30be
000000a0: a2d2 e5bf 481a 06c0 c744 c6bf ff58 05c0
000000b0: 4416 b33f 528b 0cc0 2785 b1bf 1b79 19c0
000000c0: 2184 e7bf 2986 8dbf 40f2 13c0 5767 b5bf
000000d0: 7a94 dcbf dbc7 a5bf 3655 97bf 63be 86bf
000000e0: 5723 b0bf c6be 7fbf 5748 99bf 90f1 23c0
000000f0: 19b7 eabf 72e8 b4bf b454 03c0 0dba 16c0
00000100: 082f 433f c1cf 2bbf 2e19 05c0 c41d efbe
00000110: c048 91be 04f7 56bf d44c 873e 6e34 1bbe
00000120: e579 debf 0c69 19bf 6810 15bf 5540 adbe
00000130: b96e 99be d6bd 71be c3e9 06bd 58e1 96be
00000140: 9d60 e7be d04a f23e 38a4 83bf cd11 61be
00000150: 0398 9d3f bdaa 4b3f 65fb 1abe 0019 053f
00000160: 3e42 26be dd84 71bf 61ae 2fbf 724b 58bf
00000170: 847d 49bf 0920 06c0 94dd 00bf 9e8c 8fbe
00000180: fa5e 85be d083 a13e 4e84 0fbe b2d2 74bf
00000190: 03fd a8be 2d69 2140 bb1b d4be 076b a9bf
000001a0: 6c08 07bf 2cf9 aebf 498c 73bf 405e e6be
000001b0: c3a4 ac3e 7273 83bf 660c f5be 09c9 9cbf
000001c0: 6085 b7be 7af7 97be 97ef 8ebf 4775 06bf
000001d0: 923d 4abf 86bc 0b40 ee07 90be 0e07 2340
000001e0: 511d 00bf 7f4f 3d3d cf42 91be 0d40 bcbe
000001f0: f05f 40bf ec2f 84be 202a 04bf cea4 86bf
00000200: 8000 153d 49f6 e93e b159 64bd c289 3dbc
00000210: 2161 24bd 1329 5f3e cd54 293d f25a 9d3d
00000220: 3b82 c7bb 27b7 6a3e a833 5ebb 16cf 3c3d
00000230: 0486 83bc 37d5 b5bb e676 fa3c ddbe b9bc
00000240: f0c0 733d f83a 70bc c3ab 093d d0eb 5fbc
00000250: bc25 5d3f 60be 72bd dc7c 253d a0dc 183e
00000260: 9e4d eabc 3e31 52bd 723f 4e3e 4041 b2be
00000270: 8f46 cb3d 40f0 543c 7318 fa3b feaa dcbc
00000280: a83e 99bf 2c1c c13d fcf1 a9bc ab25 e0bc
00000290: 1de4 3abd 6eca 653f 50dc 41bc 6bd9 3abd
000002a0: e2a5 2abc ce6d 83bf 3016 6d3d be84 793e
000002b0: a786 26c0 6aaa 363e 89a5 aeba 418d 363f
000002c0: b62b eebd 89f2 8b3c 0425 133f d5da 553d
000002d0: 7116 523f f706 69bf 6ea9 41bc d199 63bf
000002e0: 73dd 7abd ab00 223d 5ca9 34bc 5a87 4a3d
000002f0: 2c2a 91bc 5572 493d c590 1f3f 92a3 303f
00000300: 8796 babd 3baa 0ac0 d9fd e9bf 9c97 95bf
00000310: a1fd fcbe b96a 0cc0 21c2 cabf 2afa d3bf
00000320: deb0 5a3e f295 12c0 bdbe 91bf b173 d7bf
00000330: 599e a5bf daf2 afbf 2b20 96bf c0f4 b3bf
00000340: 35b1 d7bf bbcc 9f3d 28a7 04c0 3b86 ffbf
00000350: 7d4b 01c0 9ffd 393e 9610 a1bf 73c3 32bf
00000360: ec9f 12bf d304 edbe 2225 01c0 b03f 11c0
00000370: cd3b fdbf 9001 c03f 28de c9bf 7703 8fbf
00000380: 4753 5dbf d61d 403f 8009 c0bf 72eb f4bf
00000390: bfbc 95bf e573 a9bf b35a b5bf 1dbf f43d
000003a0: 148b f2bf de93 e9bf 7217 c2bf 3bf6 f4bf
000003b0: 3227 9a3f f9a9 0bc0 81a1 b2bf 3c97 17c0
000003c0: f06f e0bf bce9 92bf 39a9 10c0 c704 b9bf
000003d0: afc8 ddbf 8023 c3bf 47db a5bf 6121 7dbf
000003e0: 578a c4bf b446 bcbe 8a49 9ebf 8964 8dbf
000003f0: 99c5 d6bf 352c b5be 6b9f febf 8f68 21c0
-1.3341187 -2.2493076 -1.5459616 -1.3044335 -1.8000542 -2.21682 -1.0434662 -1.744838
0.517443 -2.247896 -1.0575057 -1.6959502 -1.2862277 -1.4295737 -1.3590964 -1.4423786
-1.7620958 -1.592228 -1.7829254 -1.9708748 -1.9641485 0.023654046 -1.1412491 -2.0727522
-1.8721831 -0.023250695 -2.228312 -2.0974014 -2.0284662 0.7348965 -1.4346652 -1.281818
-1.4074605 -0.5638791 -1.2775371 -2.11848 -1.2717413 -1.4362952 -1.1850314 -0.17271589
-1.7954905 -2.095354 -1.5489739 -2.083557 1.399117 -2.1960034 -1.386876 -2.3980167
-1.8087198 -1.1056567 -2.3116608 -1.4172162 -1.7232811 -1.2951616 -1.1822879 -1.0526851
-1.3760785 -0.9990047 -1.1975201 -2.5616188 -1.8337127 -1.4133437 -2.0520449 -2.3551056
0.7624364 -0.6711388 -2.0796618 -0.46702397 -0.28375816 -0.83970666 0.26425803 -0.15156719
-1.7380949 -0.59925914 -0.5822816 -0.33838144 -0.29967287 -0.23607573 -0.032937776 -0.294688
-0.45190898 0.47322702 -1.028449 -0.21979447 1.2312015 0.795574 -0.15134962 0.5199127
-0.16236207 -0.9434336 -0.68625456 -0.8449012 -0.78707147 -2.0957053 -0.503381 -0.2803697
-0.26049024 0.31545877 -0.14015314 -0.95633996 -0.33005533 2.5220444 -0.41427407 -1.3235787
-0.52747226 -1.3669791 -0.95135933 -0.44993782 0.33719453 -1.0269606 -0.47861022 -1.2248851
-0.35843945 -0.29680997 -1.1166867 -0.525227 -0.790002 2.1833816 -0.2813105 2.5473056
-0.50044733 0.04621839 -0.28371283 -0.36767617 -0.7514639 -0.2581781 -0.5162678 -1.0519044
0.03637743 0.45695713 -0.0557496 -0.011568489 -0.04013169 0.21793012 0.041340638 0.07683362
-0.0060885227 0.2292143 -0.0033905301 0.04609593 -0.016055115 -0.005549099 0.030574273 -0.022674019
0.05951017 -0.014662497 0.03361107 -0.013667062 0.86385703 -0.059263587 0.04040228 0.14927912
-0.028601464 -0.051316492 0.2014139 -0.34815407 0.09925567 0.012996733 0.007632309 -0.026937004
-1.1972246 0.094292015 -0.02074527 -0.027361711 -0.045627702 0.8976201 -0.011832312 -0.045617502
-0.010415526 -1.0267885 0.057882488 0.24367043 -2.6019685 0.17838445 -0.001332448 0.71309286
-0.11629431 0.017083423 0.57478356 0.052210648 0.8206549 -0.9102625 -0.01182018 -0.8890658
-0.061246347 0.03955142 -0.011026707 0.049445488 -0.017720304 0.0491813 0.62330276 0.6899959
-0.09110742 -2.16664 -1.8280593 -1.1686893 -0.49412253 -2.1940138 -1.5840493 -1.6560719
0.21356532 -2.290402 -1.1386334 -1.6832181 -1.2938949 -1.3745987 -1.1728567 -1.4059067
-1.6850954 0.07802721 -2.0727024 -1.9962839 -2.0202324 0.18163155 -1.2583187 -0.6982948
-0.5727527 -0.46292743 -2.0178914 -2.2695122 -1.9783875 1.5000477 -1.5770922 -1.1172932
-0.86455196 0.75045526 -1.5002899 -1.9134352 -1.1698226 -1.3238493 -1.4168304 0.119505145
-1.8948693 -1.824825 -1.5163405 -1.9137644 1.2043211 -2.1822493 -1.3955537 -2.3686056
-1.7534161 -1.147758 -2.2603285 -1.4454583 -1.7326869 -1.5245209 -1.2957543 -0.9887906
-1.5354718 -0.36772692 -1.2366192 -1.1046306 -1.6779052 -0.3538529 -1.98924 -2.5220068
